matching/notebooks/ckpt/model.pt (torch, 568017 bytes, 25 tensors)

emb_model.learnable_skip f4 [4, 4]
1.0073469 1.0 1.0 1.0 1.0015044 1.0040095 1.0 1.0
1.0076832 1.0069013 1.0071037 1.0 1.0031188 1.0052261 1.0078733 1.0051962
00000000: bef0 803f 0000 803f 0000 803f 0000 803f
00000010: 4c31 803f 6283 803f 0000 803f 0000 803f
00000020: c3fb 803f 24e2 803f c6e8 803f 0000 803f
00000030: 3266 803f 40ab 803f fe01 813f 45aa 803f

emb_model.pre_mp.0.weight f4 [64, 1]
0.78168964 0.45779786 -0.4345604 0.7177907 0.031124761 0.2446954 -0.29815033 -0.902505
-0.5635364 -0.23357576 -0.30828002 0.4184808 0.8336387 0.47735247 0.494929 0.12937863
0.071844764 -0.017917253 0.16671897 -0.44641683 -0.8232331 -0.390734 -0.0889912 0.036603663
0.15477638 -0.8244686 -0.4078231 -0.59013265 0.873749 -0.65508884 -0.44127044 0.7131276
-0.8184337 0.22801127 0.9169891 -0.27206627 0.32708928 0.2947224 -0.60186857 0.7223206
-0.88491523 -0.9667576 -0.21345255 -0.6448824 0.7761443 -0.9504844 -0.8996136 0.07648962
0.18017045 -0.86854964 -0.8914948 0.50979 0.26839575 0.91529006 -0.963083 0.9758995
-0.53601515 0.3180572 -0.97057205 -0.78131366 -0.6811477 -0.5442934 -0.9720864 0.7356082
00000000: d01c 483f 7b64 ea3e b37e debe 22c1 373f
00000010: 5bf9 fe3c 6e91 7a3e 29a7 98be 910a 67bf
00000020: ec43 10bf 7c2e 6fbe e1d6 9dbe 1e43 d63e
00000030: 5969 553f 8b67 f43e 5567 fd3e d57b 043e
00000040: 5923 933d 34c7 92bc 61b8 2a3e bf90 e4be
00000050: 68bf 52bf 490e c8be 0541 b6bd b9ed 153d
00000060: b37d 1e3e 6010 53bf 30ce d0be ef12 17bf
00000070: 04ae 5f3f e7b3 27bf 33ee e1be 888f 363f
00000080: df84 51bf c97b 693e ccbf 6a3f 454c 8bbe
00000090: 3f78 a73e dbe5 963e 0f14 1abf 01ea 383f
000000a0: ce89 62bf 6d7d 77bf 4e93 5abe 0317 25bf
000000b0: 65b1 463f f252 73bf 144d 66bf 97a6 9c3d
000000c0: 9a7e 383e 4559 5ebf 0139 64bf 9981 023f
000000d0: 2b6b 893e 7350 6a3f 9c8c 76bf 8dd4 793f
000000e0: 4a38 09bf 65d8 a23e 6977 78bf 2c04 48bf
000000f0: b25f 2ebf d056 0bbf a8da 78bf d250 3c3f

emb_model.pre_mp.0.bias f4 [64]
-0.23756683 -0.9118585 0.76658624 -0.42684215 0.68492013 0.42293558 0.8929037 -0.57434446
0.42771456 -0.2941955 -0.34787714 -0.70157766 -0.015877057 0.9547585 -0.104708664 0.08044208
-0.8462476 0.7312594 0.2123207 0.3873202 0.45508057 0.98189974 -0.33554912 -0.5894888
0.8661245 0.7860118 0.56672406 -0.240221 0.039841387 -0.7041928 0.096997015 -0.32460487
-0.45526323 0.5522492 -0.46520993 0.5622125 0.7008473 -0.8954686 0.3447134 -0.8983472
0.13045037 -0.908466 0.20065568 0.28411594 0.34265766 -0.3597426 -0.56221664 -0.5600665
0.2798808 -0.28698775 0.5388222 0.8282532 0.47427857 0.18825959 0.61285275 0.7172739
-0.813823 0.7938 -0.20169632 -0.5107771 0.9731079 0.65105796 -0.9018072 -0.28368652
00000000: b844 73be 8f6f 69bf ff3e 443f 0e8b dabe
00000010: ed56 2f3f 038b d83e 5695 643f 3d08 13bf
00000020: 67fd da3e cba0 96be f41c b2be 989a 33bf
00000030: 9a10 82bc 0e6b 743f 7f71 d6bd d1be a43d
00000040: afa3 58bf d133 3b3f 996a 593e d54e c63e
00000050: 5200 e93e c85d 7b3f 18cd abbe bde8 16bf
00000060: 56ba 5d3f 1238 493f d414 113f 7efc 75be
00000070: b930 233d fb45 34bf 5fa6 c63d 9c32 a6be
00000080: 4318 e9be 3460 0d3f ff2f eebe 29ed 0f3f
00000090: bb6a 333f 6e3d 65bf 467e b03e 15fa 65bf
000000a0: c894 053e 3a91 68bf af78 4d3e a577 913e
000000b0: d370 af3e 2f30 b8be 6eed 0fbf 8560 0fbf
000000c0: 894c 8f3e 0ff0 92be 40f0 093f 6708 543f
000000d0: a4d4 f23e 1fc7 403e ebe3 1c3f 439f 373f
000000e0: b456 50bf 7a36 4b3f 7b89 4ebe 4ac2 02bf
000000f0: 991d 793f bcab 263f d6dc 66bf 5c3f 91be

emb_model.convs.0.lin_rel.weight f4 [64, 64]
-0.11007639 0.099815175 -0.10447553 0.031635612 0.09769851 0.0644994 -0.10887835 -0.06630321
0.08980236 0.081799924 -0.07501753 0.06335845 0.07400512 -0.037218805 0.031459324 0.026553072
0.0671672 0.0247607 -0.078732245 -0.08662859 -0.08716422 -0.0044635157 0.019052543 -0.12685955
-0.012396646 0.026285905 0.11961939 0.08094047 0.003476029 0.013749636 -0.028260866 -0.03493773
0.0017704361 0.037552115 0.11258745 0.0052255243 -0.08903656 -0.04317768 0.08579497 -0.13272767
-0.103212595 -0.020954529 0.09882581 -0.0507066 -0.051393453 0.08294321 -0.010530555 0.10771368
0.12844643 -0.07492843 0.003182879 0.028503863 -0.06060508 -0.024717454 0.0059006438 0.027275972
0.06803032 -0.01389006 -0.12294583 -0.0503058 -0.07018377 0.025678007 -0.081741 -0.11274552
0.010767981 -0.10889767 0.0536128 0.07196917 0.0057237744 0.014558479 0.046519607 0.111947626
0.030816764 0.016574055 -0.103713304 0.10167943 -0.077050924 -0.1199182 0.104933366 0.02277118
0.048867762 -0.08876866 -0.00341478 0.09423064 -0.095015526 0.046003684 0.02125816 0.05422458
0.034067184 -0.0020849556 -0.11946601 0.016128615 -0.05714968 0.12258683 0.06878388 -0.018625379
-0.09942612 0.09264268 0.090050966 0.033269122 0.056301877 0.11893633 -0.12257576 0.00082296133
-0.032173693 0.11339067 -0.109937966 0.09691796 -0.06476113 -0.07940291 -0.09159833 0.07469334
0.0939371 0.09757817 0.06600763 0.0026432574 0.0024766475 0.08295508 -0.10461168 0.086513564
-0.11332779 -0.115142584 0.039455563 0.00900057 0.064502746 0.010061815 -0.020823732 -0.083116665
-0.055019896 -0.04225116 0.06956867 -0.009670008 -0.005203162 0.021276427 0.049053732 0.07261219
-0.075026244 -0.101076834 -0.08946667 -0.12540072 -0.0151359 -0.06431613 0.011943763 -0.107375786
0.10182424 -0.09472071 -0.0049562827 0.096136145 -0.09937426 0.12010015 0.0357261 -0.03541155
0.06495077 0.039106444 0.053884897 -0.11056291 0.07703123 0.032826126 0.04009636 0.09813498
-0.08498839 -0.088615745 0.012941457 0.017676491 0.020562558 -0.08483918 -0.032963946 -0.062365636
-0.007995791 -0.017770337 -0.06836004 0.09846913 -0.029917402 -0.014082266 0.029499128 -0.038729716
0.121551186 0.05086479 0.096954666 0.11110483 -0.112745196 -0.024118658 0.058111724 -0.05642485
0.09215353 0.06565856 0.0708262 0.052595917 -0.057804298 -0.0077944924 -0.008014281 -0.080402836
-0.04459838 0.0052375267 -0.009765205 0.10470592 -0.09701382 -0.0010748907 0.00720898 0.00022758136
0.036843207 0.11925515 -0.09290011 0.11063219 -0.06727816 -0.021716947 0.089452974 0.021777008
0.040444966 -0.05404375 0.09688426 -0.062359154 -0.05255854 -0.0072066584 0.06492873 -0.09439013
0.022085734 0.07664725 -0.12808461 0.053771958 0.003028089 -0.08874157 -0.05400785 -0.11083879
-0.016170949 -0.005745763 -0.10000049 -0.0732085 -0.038704477 0.12000636 0.07381704 0.029405426
-0.10032334 0.03195269 0.033518657 -0.118051164 0.069849156 0.06156927 -0.030192042 0.0812138
-0.05105575 0.031081654 -0.12094995 0.10395522 -0.027477644 -0.08895538 0.087502025 0.057590988
-0.053044192 -0.07011831 -0.072575554 -0.01911265 0.017306605 0.098406225 -0.07690672 0.019410476
00000000: bb6f e1bd e66b cc3d 44f7 d5bd 5894 013d
00000010: 2816 c83d 4318 843d 9dfb debd fac9 87bd
00000020: 4dea b73d b886 a73d caa2 99bd 13c2 813d
00000030: ff8f 973d bf72 18bd 7edb 003d d485 d93c
00000040: f58e 893d f4d6 ca3c 5f3e a1bd 556a b1bd
00000050: 2883 b2bd af42 92bb 1414 9c3c 78e7 01be
00000060: 4d1b 4bbc 8a55 d73c 03fb f43d 1ec4 a53d
00000070: 17ce 633b 2746 613c 5583 e7bc dd1a 0fbd
00000080: fa0d e83a 3fd0 193d 4094 e63d e03a ab3b
00000090: cd58 b6bd 14db 30bd 46b5 af3d c3e9 07be
000000a0: 2061 d3bd d5a8 abbc 3065 ca3d b9b1 4fbd
000000b0: f181 52bd 21de a93d 5988 2cbc fd98 dc3d
000000c0: 7687 033e 1474 99bd d997 503b ef80 e93c
000000d0: 083d 78bd 427c cabc 305a c13b dc71 df3c
000000e0: 7b53 8b3d 2293 63bc 06cb fbbd 740d 4ebd
000000f0: 82bc 8fbd af5a d23c d367 a7bd 20e7 e6bd
00000100: 306c 303c be05 dfbd 1899 5b3d 9264 933d
00000110: 808e bb3b b086 6e3c 588b 3e3d cc44 e53d
00000120: 7073 fc3c 50c6 873c a467 d4bd 4e3d d03d
00000130: e0cc 9dbd ac97 f5bd 4ee7 d63d a08a ba3c
00000140: 9029 483d 58cc b5bd 80ca 5fbb fefb c03d
00000150: 8097 c2bd 5c6e 3c3d 9825 ae3c 981a 5e3d
00000160: 088a 0b3d c0a3 08bb 98aa f4bd 2820 843c
00000170: c815 6abd ce0e fb3d 90de 8c3d 4094 98bc
00000180: ec9f cbbd 72bb bd3d a46c b83d 3445 083d
00000190: cc9c 663d e494 f33d 0009 fbbd 00bc 573a
000001a0: 90c8 03bd 5e39 e83d 2827 e1bd ec7c c63d
000001b0: 7ca1 84bd fe9d a2bd e897 bbbd d2f8 983d
000001c0: 1862 c03d 10d7 c73d 022f 873d 803a 2d3b
000001d0: 404f 223b 5ae4 a93d a63e d6bd 062e b13d
000001e0: 6618 e8bd e0cf ebbd 289c 213d 2077 133c
000001f0: 041a 843d 50da 243c 8896 aabc 1239 aabd
00000200: 8b5c 61bd 8d0f 2dbd 057a 8e3d f46e 1ebc
00000210: 497f aabb e74b ae3c 91ec 483d b3b5 943d
00000220: 5ca7 99bd 5f01 cfbd 4d3a b7bd 0c69 00be
00000230: 91fc 77bc 2db8 83bd c6af 433c d6e7 dbbd
00000240: 3a89 d03d eefc c1bd 5068 a2bb 07e3 c43d
00000250: bb84 cbbd 11f7 f53d 8855 123d b40b 11bd
00000260: e904 853d 142e 203d 69b6 5c3d cf6e e2bd
00000270: 8dc2 9d3d b074 063d 153c 243d fefa c83d
00000280: 650e aebd 2c7c b5bd 6808 543c 4ace 903c
00000290: cf72 a83c 2ac0 adbd 3405 07bd 1c73 7fbd
000002a0: c700 03bc 1993 91bc 5900 8cbd 2faa c93d
000002b0: 5715 f5bc 4eb9 66bc 28a8 f13c 0da3 1ebd
000002c0: d4ef f83d 9957 503d 2b90 c63d ee8a e33d
000002d0: f4e6 e6bd 7e94 c5bc 8f06 6e3d be1d 67bd
000002e0: fdba bc3d ff77 863d 540d 913d d16e 573d
000002f0: 33c4 6cbd f168 ffbb 554e 03bc 3eaa a4bd
00000300: caac 36bd 8f9f ab3b 3dfe 1fbc 0f70 d63d
00000310: 2faf c6bd 59e3 8cba 4f39 ec3b e8a2 6e39
00000320: e7e8 163d 0b3c f43d 6a42 bebd 2193 e23d
00000330: 22c9 89bd bde7 b1bc 1f33 b73d b265 b23c
00000340: 9fa9 253d fb5c 5dbd 416b c63d 506c 7fbd
00000350: a047 57bd d525 ecbb 5bf9 843d 9d4f c1bd
00000360: 24ed b43c 3cf9 9c3d 9d28 03be fc3f 5c3d
00000370: e772 463b 24be b5bd 5637 5dbd 73ff e2bd
00000380: f078 84bc f446 bcbb 0fcd ccbd 57ee 95bd
00000390: 9688 1ebd e5c5 f53d 632d 973d a6e3 f03c
000003a0: 5376 cdbd d3e0 023d dc4a 093d cfc4 f1bd
000003b0: 130d 8f3d 0f30 7c3d 4d55 f7bc 6c53 a63d
000003c0: d61f 51bd f49e fe3c 9bb4 f7bd 79e6 d43d
000003d0: cc18 e1bc 3d2e b6bd 4334 b33d 87e4 6b3d
000003e0: de44 59bd 309a 8fbd 7ea2 94bd 2292 9cbc
000003f0: 95c6 8d3c 3489 c93d 4581 9dbd b802 9f3c

emb_model.convs.0.lin_rel.bias f4 [64]
-0.0637365 -0.11561759 0.075135976 0.11612586 0.05790487 0.018737243 0.03253743 0.052571923
0.080337554 0.08297963 0.07630917 -0.080686346 0.105162494 0.09680572 0.054602772 -0.113136955
-0.102131985 0.0018785192 0.09904319 0.09370632 0.096537605 -0.116264224 0.11734737 -0.12239495
-0.019965451 0.028070949 -0.042087097 -0.11865514 0.030863136 -0.020701796 -0.09782606 0.09510064
0.07048497 -0.0047174664 -0.0023951977 0.11652878 -0.0036456664 0.0094489455 0.08724156 -0.033661276
-0.0074403314 0.10770331 -0.04269071 0.009814316 0.097805955 0.064504415 -0.039214924 -0.005720153
0.09938176 -0.028214859 -0.09331841 -0.10755153 -0.07418309 0.02309911 -0.01733218 -0.0019725792
0.068969816 0.044601917 0.052083958 -0.11743964 -0.016381517 -0.0806025 0.037295673 0.03132966
00000000: 4888 82bd eac8 ecbd e4e0 993d 65d3 ed3d
00000010: a82d 6d3d d97e 993c f845 053d a855 573d
00000020: 0488 a43d 39f1 a93d fb47 9c3d e23e a5bd
00000030: 6f5f d73d 1442 c63d 28a7 5f3d 59b4 e7bd
00000040: 932a d1bd a538 f63a 28d7 ca3d 19e9 bf3d
00000050: 82b5 c53d f01b eebd d153 f03d 34aa fabd
00000060: 968e a3bc 0cf5 e53c 8563 2cbd 7701 f3bd
00000070: b0d4 fc3c d096 a9bc 0859 c8bd 20c4 c23d
00000080: 6d5a 903d fa94 9abb c0f8 1cbb a4a6 ee3d
00000090: 22ec 6ebb c0cf 1a3c b4ab b23d 68e0 09bd
000000a0: 06ce f3bb 8e93 dc3d 74dc 2ebd 3acc 203c
000000b0: 7d4e c83d e41a 843d d49f 20bd 1f70 bbbb
000000c0: aa88 cb3d d922 e7bc b91d bfbd fa43 dcbd
000000d0: 4eed 97bd 583a bd3c 37fc 8dbc 6346 01bb
000000e0: 0c40 8d3d 80b0 363d fd55 553d 3284 f0bd
000000f0: 8832 86bc ec12 a5bd 59c3 183d 8853 003d

emb_model.convs.0.lin_root.weight f4 [64, 64]
-0.017514847 -0.13079286 0.02961074 -0.06323632 0.11544324 0.104743645 -0.06146264 0.031687893
-0.060549486 -0.0066477517 -0.06521453 0.0074304817 0.10336007 -0.03481225 0.07975465 0.036773037
0.06418395 0.06949196 0.12387106 -0.06539602 0.0765477 -0.05699733 0.10562327 -0.0048343106
0.00755296 -0.06210751 -0.024758596 -0.08756319 0.06299874 0.08322674 -0.043903705 0.08867332
-0.092023194 0.062828705 0.087665826 0.11864963 0.07689396 0.07905712 -0.097180404 0.016026596
-0.02583897 0.08850848 -0.016361177 -0.11471321 -0.092830524 0.012095648 -0.031875834 -0.055154283
0.042444706 -0.016792865 0.010760564 -0.022528403 -0.044980716 -0.015311211 -0.11807469 0.11315296
-0.114605606 0.064118624 -0.114608504 -0.114066295 0.073916994 -0.02479951 -0.09000846 0.030559488
0.067801565 -0.007437736 0.0071546435 0.050484687 0.11512034 -0.07336141 -0.016161978 0.0036681741
0.11806448 -0.002098918 -0.118062824 0.08316174 0.034263372 0.041810676 0.03315413 -0.060989574
0.11583461 0.11421418 -0.07840358 0.023942247 -0.024832517 0.021411285 0.053435206 0.02779223
0.00030313432 0.016196921 0.0009922683 -0.10031359 0.060152516 -0.06382559 -0.093839705 0.0414401
0.08077149 0.054461896 0.016873166 0.11699639 -0.05119458 -0.03460543 0.102136046 0.09825809
-0.12445684 0.12199226 -0.03021887 0.09107742 0.12124382 -0.06767081 -0.009966329 -0.11624636
-0.010655284 -0.013479665 -0.07337941 -0.116867766 0.023203447 -0.08834024 -0.042618677 -0.03777601
-0.034702256 -0.0042972416 0.017739639 -0.07546094 -0.09091517 -0.043687224 0.0040320605 -0.113066524
0.003986681 0.1044399 0.093504 -0.09681038 0.041287936 -0.059922557 0.035577063 -0.106908605
0.029937712 -0.10400834 -0.11989378 -0.04514474 0.016600305 0.026728306 0.055870086 -0.06777255
0.029649435 0.07295238 -0.10812964 0.09348879 0.031288087 -0.087080136 -0.08378554 -0.068992235
0.052778676 -0.073481925 -0.103243396 0.040739242 -0.06747762 0.092233956 -0.058932547 0.06485583
0.077109024 -0.046402592 -0.049464878 0.025200404 -0.02028958 -0.06792419 0.0807274 -0.04582934
-0.11330662 -0.07086808 -0.08678695 0.07768313 0.10775919 -0.030545633 0.06776415 0.027280401
0.10260046 -0.03302304 -0.07305771 -0.07352193 0.04243518 0.048472013 -0.11220997 0.041021846
0.075491026 -0.029908154 0.11911828 0.05842463 -0.07726016 0.11318367 0.032189608 0.05321982
0.031575684 0.031170875 0.050624277 0.1217784 -0.033574652 -0.04503019 0.041353133 -0.08842546
-0.07061221 0.031667188 -0.07810696 -0.10318193 -0.02244009 0.11096587 -0.12188948 0.0026717095
-0.08217367 -0.07051809 -0.06025779 0.10977696 0.100294 0.06235071 0.08701329 0.025964458
-0.11741683 0.051640525 -0.010330932 -0.12215101 0.067327835 0.04349515 -0.08865442 0.019841626
-0.12504412 0.013981716 0.0649234 0.07469506 -0.08958532 -0.019255826 0.10581705 -0.0028046872
0.058969516 0.015450681 -0.05582134 0.072804496 -0.0024253 0.01939376 -0.051901054 0.019306969
-0.007998821 -0.017570704 0.10407821 0.0006941592 -0.10244668 0.02295022 0.08227799 0.05308062
-0.09313689 0.006092512 -0.038131356 0.025870673 0.06850097 -0.09164364 0.10231806 -0.1180887
00000000: 4c7b 8fbc 90ee 05be 3992 f23c 0b82 81bd
00000010: 816d ec3d d683 d63d 40c0 7bbd 2acb 013d
00000020: bd02 78bd 62d5 d9bb 328f 85bd 667b f33b
00000030: 72ae d33d 4a97 0ebd 6856 a33d 539f 163d
00000040: e072 833d cd51 8e3d 1cb0 fd3d 59ee 85bd
00000050: 0ac5 9c3d 0876 69bd 0351 d83d 2369 9ebb
00000060: d27e f73b 7264 7ebd 8ad2 cabc 5454 b3bd
00000070: 7c05 813d c872 aa3d 5fd4 33bd 5c9a b53d
00000080: a876 bcbd 56ac 803d 248a b33d 94fe f23d
00000090: 957a 9d3d b3e8 a13d 8506 c7bd 354a 833c
000000a0: 3fac d3bc ef43 b53d e007 86bc c2ee eabd
000000b0: ee1d bebd d32c 463c 3c90 02bd 75e9 61bd
000000c0: 80da 2d3d 3191 89bc 144d 303c 7c8d b8bc
000000d0: b33d 38bd e0db 7abc 25d1 f1bd bdbc e73d
000000e0: 58b6 eabd a050 833d ddb7 eabd 979b e9bd
000000f0: cb61 973d 5828 cbbc 5b56 b8bd e457 fa3c
00000100: 8cdb 8a3d 40b8 f3bb 8071 ea3b 08c9 4e3d
00000110: 36c4 eb3d 823e 96bd 2066 84bc c065 703b
00000120: cacb f13d 008e 09bb ecca f1bd b450 aa3d
00000130: c057 0c3d ac41 2b3d a0cc 073d 34d0 79bd
00000140: b23a ed3d 20e9 e93d 0e92 a0bd 8822 c43c
00000150: 906d cbbc b866 af3c e0de 5a3d 88ac e33c
00000160: 00ee 9e39 68af 843c 000f 823a 3671 cdbd
00000170: 7c62 763d feb6 82bd 082f c0bd 18bd 293d
00000180: 866b a53d 7013 5f3d 9839 8a3c ce9b ef3d
00000190: 68b1 51bd 6cbe 0dbd b42c d13d 8a3b c93d
000001a0: 3ae3 febd 14d7 f93d 908d f7bc cc86 ba3d
000001b0: ae4e f83d fe96 8abd d049 23bc 9212 eebd
000001c0: 8093 2ebc d0d9 5cbc f247 96bd 5e58 efbd
000001d0: 2815 be3c baeb b4bd ec90 2ebd 04bb 1abd
000001e0: f423 0ebd e0cf 8cbb b852 913c 448b 9abd
000001f0: bc31 babd 60f1 32bd 601f 843b 6c8f e7bd
00000200: b4a2 823b 96e4 d53d 067f bf3d 8544 c6bd
00000210: 8a1d 293d 5b71 75bd 41b9 113d e6f2 dabd
00000220: ef3f f53c 5302 d5bd df8a f5bd b1e9 38bd
00000230: 5dfd 873c 52f5 da3c 08d8 643d 56cc 8abd
00000240: 5fe3 f23c 0f68 953d 1373 ddbd 0d77 bf3d
00000250: f027 003d 1257 b2bd c197 abbd cd4b 8dbd
00000260: 742e 583d b17d 96bd 4671 d3bd 31de 263d
00000270: b531 8abd 28e5 bc3d 4163 71bd 22d3 843d
00000280: 56eb 9d3d a510 3ebd af9b 4abd 1471 ce3c
00000290: 5536 a6bc d61b 8bbd 6854 a53d 8cb7 3bbd
000002a0: 4d0d e8bd 4923 91bd 5bbd b1bd 5518 9f3d
000002b0: dab0 dc3d d63a fabc eec7 8a3d 267b df3c
000002c0: 3120 d23d 2b43 07bd 489f 95bd aa92 96bd
000002d0: 83d0 2d3d 978a 463d 57ce e5bd 8606 283d
000002e0: 0a9b 9a3d f201 f5bc 49f4 f33d aa4e 6f3d
000002f0: 933a 9ebd d7cc e73d 40d9 033d 07fd 593d
00000300: 8155 013d 105a ff3c 675b 4f3d f466 f93d
00000310: 9385 09bd 9471 38bd e761 293d 6818 b5bd
00000320: 229d 90bd 74b5 013d 8bf6 9fbd 0c51 d3bd
00000330: 48d4 b7bc 1342 e33d 31a1 f9bd d917 2f3b
00000340: ab4a a8bd ca6b 90bd dfd0 76bd bed2 e03d
00000350: f166 cd3d 7563 7f3d 0634 b23d 6ab3 d43c
00000360: 3c78 f0bd 0485 533d 1243 29bc 4f2a fabd
00000370: 2de3 893d f827 323d 7390 b5bd e88a a23c
00000380: 910b 00be 9113 653c 8ff6 843d b9f9 983d
00000390: 8278 b7bd 65be 9dbc 9cb6 d83d d8ce 37bb
000003a0: 058a 713d da24 7d3c eba4 64bd 861a 953d
000003b0: c8f1 1ebb aadf 9e3c 3396 54bd a629 9e3c
000003c0: 7d0d 03bc 70f0 8fbc f526 d53d 3cf8 353a
000003d0: 91cf d1bd 1a02 bc3c 5d81 a83d 106b 593d
000003e0: 8ebe bebd b2a3 c73b a02f 1cbd bcee d33c
000003f0: 3d4a 8c3d a9af bbbd 228c d13d 7dd8 f1bd

emb_model.convs.1.lin_rel.weight f4 [64, 128]
-0.031108985 -0.07404701 0.08752144 -0.088869326 0.04331256 -0.026004372 0.031106455 0.016050933
0.054432057 0.024937546 0.04587542 -0.018258328 0.057754073 0.059620723 -0.05163406 -0.050250847
0.026948866 0.04806266 0.00954435 -0.08456122 0.015162788 -0.04830622 0.026761467 0.03480397
-0.06712524 0.08478939 0.086402655 -0.024913672 -0.07809258 0.004463758 0.03284874 -0.07988052
-0.05792198 -0.07593164 -0.06363877 0.062127635 0.019958435 -0.017720018 0.042255025 0.005536653
-0.00880019 -0.053654004 -0.011516078 0.032114126 0.0667473 0.034864627 -0.022383057 -0.013268453
0.006643459 0.01686268 0.02150285 -0.039205182 0.084642254 -0.039125424 -0.06755519 -0.028300703
0.025360385 -0.06808534 -0.039709534 0.055328883 -0.022618165 0.07038368 -0.035049662 0.06359831
0.03965129 -0.0027073238 0.018749962 -0.0044830414 -0.029130494 -0.028210893 0.0051263534 0.020070992
0.04491535 -0.042205617 0.02636123 -0.06771774 -0.0076528806 0.065423094 0.033671666 -0.048657455
0.04065332 -0.017124154 -0.044113055 -0.049747232 -0.02200824 -0.049761847 -0.08479084 0.032371003
0.016605066 0.06248064 -0.031393256 -0.004548042 0.054297086 -0.08314494 -0.0071676485 -0.012261593
0.08279944 0.01862629 0.0021233687 0.05455491 0.047361273 -0.058840718 -0.06544787 0.08395315
0.017981552 0.046780366 0.051880714 0.032781817 0.058314662 0.052595347 -0.013154411 0.061895855
-0.016783267 -0.07494584 0.051227223 0.014238035 0.029850688 -0.009734015 0.0248365 0.0050675306
0.02578372 -0.04411279 -0.027622813 0.030274713 0.0019939567 0.05662383 -0.086890005 0.04460854
-0.04855929 0.05364925 0.007326176 -0.021732517 0.059010446 -0.052622985 -0.07970164 0.014402695
-0.034286745 -0.06801291 0.036646094 -0.065495126 -0.0028374733 -0.01981139 -0.028090283 -0.006402338
0.02420054 -0.025357777 -0.025089566 -0.0479034 0.041376468 0.03388336 0.056077234 0.00429763
-0.022801297 -0.060005214 0.08836235 0.010262504 0.085681304 -0.08455428 0.07050738 0.07924621
0.05512342 -0.0071026604 0.05008057 -0.07303511 0.0036410766 -0.018478747 -0.057367675 0.023414344
0.08107028 -0.0027016446 -0.043929808 -0.00096438307 -0.07619213 -0.0864443 0.078071006 0.03869638
0.0657652 0.08638456 -0.046178784 -0.023003202 0.061358836 0.0042228084 -0.06487797 -0.05411964
0.0018746601 0.047826387 0.018202139 0.03346766 -0.039070792 0.06716369 -0.071110964 0.049144845
-0.05478064 0.049905155 0.07364624 -0.0011637799 -0.020359952 -0.08041319 0.069585785 -0.03989161
-0.057280157 0.013993912 0.04790595 0.00095331954 -0.06016275 -0.057461135 0.0024174168 0.017674692
-0.067261174 -0.06258163 -0.08016131 -0.025529958 -0.03688769 0.004390648 0.043339804 -0.0767078
0.08093342 -0.017322881 -0.07947672 0.004798429 -0.029252462 -0.071882345 0.03387335 -0.040028274
0.03928987 -0.069423385 0.07999326 -0.07053635 -0.0037241692 0.013825146 0.08569005 0.016707579
0.060237773 -0.0722639 -0.08054937 -0.07134195 0.0671127 0.058870252 -0.012063313 0.035550106
0.02939218 -0.043941807 -0.0046629272 0.07661591 -0.008236516 -0.04662967 -0.07771727 0.03879722
0.06715663 -0.05468744 -0.057539456 -0.06505438 -0.075661644 -0.033417244 -0.0016026866 -0.025619099
00000000: 45d8 febc f5a5 97bd 713e b33d 1f01 b6bd
00000010: 8368 313d 1f07 d5bc f7d2 fe3c 3f7d 833c
00000020: 26f4 5e3d d349 cc3c dde7 3b3d 7d92 95bc
00000030: 898f 6c3d dc34 743d 3c7e 53bd d5d3 4dbd
00000040: dec3 dc3c 5add 443d e85f 1c3c 6f2e adbd
00000050: 586d 783c bedc 45bd dd3a db3c 9c8e 0e3d
00000060: f578 89bd 0fa6 ad3d e0f3 b03d c217 ccbc
00000070: 01ef 9fbd b744 923b 678c 063d 6698 a3bd
00000080: 993f 6dbd 0c82 9bbd 0b55 82bd 8c79 7e3d
00000090: df7f a33c 9229 91bc 9b13 2d3d d06c b53b
000000a0: ac2e 10bc 4dc4 5bbd efad 3cbc 1a8a 033d
000000b0: cfb2 883d 36ce 0e3d ac5c b7bc ed63 59bc
000000c0: 60b1 d93b 9a23 8a3c bf26 b03c 9d95 20bd
000000d0: eb58 ad3d fb41 20bd 605a 8abd e0d6 e7bc
000000e0: 95c0 cf3c 5470 8bbd 77a6 22bd 8aa0 623d
000000f0: bb49 b9bc 5225 903d 3c90 0fbd d53f 823d
00000100: 6469 223d 5b6d 31bb 8599 993c 7ae6 92bb
00000110: 13a3 eebc 881a e7bc f8fa a73b ec6b a43c
00000120: 28f9 373d ccdf 2cbd 82f3 d73c 99af 8abd
00000130: 04c5 fabb 8bfc 853d 4deb 093d 0a4d 47bd
00000140: 1884 263d f447 8cbc e4af 34bd c1c3 4bbd
00000150: a04a b4bc 14d3 4bbd d2a6 adbd 7597 043d
00000160: 5907 883c b3eb 7f3d 3796 00bd be07 95bb
00000170: 9f66 5e3d e547 aabd 98de eabb d9e4 48bc
00000180: c192 a93d 2996 983c 3728 0b3b f874 5f3d
00000190: e5fd 413d f702 71bd 8809 86bd a1ef ab3d
000001a0: 0c4e 933c c59c 3f3d df80 543d 3a46 063d
000001b0: 5bdb 6e3d 386e 573d 9985 57bc 8286 7d3d
000001c0: 107d 89bc 347d 99bd a3d3 513d a646 693c
000001d0: 6e89 f43c 6b7b 1fbc ea75 cb3c 870d a63b
000001e0: 6138 d33c 9daf 34bd 3d49 e2bc ad02 f83c
000001f0: 0bad 023b 64ee 673d 63f3 b1bd 72b7 363d
00000200: 1be6 46bd 51bf 5b3d 6b10 f03b 6408 b2bc
00000210: f0b4 713d 338b 57bd 9d3a a3bd 48f9 6b3c
00000220: 4270 0cbd 5a4a 8bbd 371a 163d 4f22 86bd
00000230: e7f4 39bb 7f4b a2bc 981d e6bc b4ca d1bb
00000240: 3640 c63c 1dbb cfbc a288 cdbc 5b36 44bd
00000250: 5f7a 293d 47c9 0a3d 3eb1 653d 22d3 8c3b
00000260: c9c9 babc 07c8 75bd 52f7 b43d 1024 283c
00000270: ae79 af3d cb2a adbd 2c66 903d d64b a23d
00000280: 18c9 613d 6fbd e8bb 4921 4d3d 6f93 95bd
00000290: 219f 6e3b be60 97bc 5efa 6abd 70cf bf3c
000002a0: 2d08 a63d 130e 31bb beef 33bd a7ce 7cba
000002b0: 9f0a 9cbd b609 b1bd b1e3 9f3d 1880 1e3d
000002c0: e8af 863d 63ea b03d f725 3dbd 3671 bcbc
000002d0: 6753 7b3d 7c5f 8a3b bede 84bd 8eac 5dbd
000002e0: 28b7 f53a 9ae5 433d a71c 953c 6315 093d
000002f0: b208 20bd 1e8d 893d a0a2 91bd 1b4c 493d
00000300: aa61 60bd 5969 4c3d d7d3 963d f989 98ba
00000310: eac9 a6bc acaf a4bd fe82 8e3d 6365 23bd
00000320: 999e 6abd b946 653c 0839 443d 31e8 793a
00000330: 376d 76bd 5e5c 6bbd 866d 1e3b 84ca 903c
00000340: 3ac0 89bd cc2a 80bd 9d2b a4bd 3424 d1bc
00000350: 8c17 17bd 6ddf 8f3b 1485 313d fb18 9dbd
00000360: 6cc0 a53d b7e8 8dbc b1c4 a2bd 243c 9d3b
00000370: dca2 efbc 0d37 93bd c8be 0a3d b0f4 23bd
00000380: 6aee 203d d92d 8ebd 82d3 a33d 5d75 90bd
00000390: 3111 74bb dd82 623c 447e af3d 55de 883c
000003a0: e2bb 763d 18ff 93bd 11f7 a4bd ba1b 92bd
000003b0: 6272 893d ef21 713d 34a5 45bc fd9c 113d
000003c0: dec7 f03c 53fc 33bd 78cb 98bb cde8 9c3d
000003d0: 74f2 06bc c1fe 3ebd 3b2a 9fbd d5e9 1e3d
000003e0: 6a89 893d f0ff 5fbd 7eae 6bbd 3b3b 85bd
000003f0: 7ef4 9abd 85e0 08bd 3d11 d2ba 25df d1bc

emb_model.convs.1.lin_rel.bias f4 [64]
-0.07242575 0.0442261 0.022608772 -0.076155104 -0.04097284 -0.04335382 0.03677544 0.01807245
0.031463522 -0.07610844 -0.0029155347 0.067118466 -0.044958074 0.0409171 -0.04871387 -0.08071908
-0.024587955 0.042276904 0.007948994 -0.0699223 -0.047302675 -0.023930833 -0.08450639 -0.013930033
-0.05121096 -0.035632696 -0.040084224 0.041382316 0.0771723 -0.03489776 0.080444686 -0.036557596
-0.029255468 0.08427395 -0.033946432 -0.079834834 0.054529607 -0.003428321 -0.029598836 0.08733486
0.04754023 -0.05456498 0.024625748 -0.051562317 -0.082923785 0.026161429 -0.054415647 -0.07701522
0.036884926 0.036040165 0.06141973 0.028812837 0.055224814 -0.03623078 -0.03552045 0.015601077
-0.013023388 -0.03972258 -0.015508925 0.04796251 -0.031972215 0.02885514 0.06460088 -0.07989918
00000000: f453 94bd 6d26 353d 0836 b93c 35f7 9bbd
00000010: 23d3 27bd c693 31bd d8a1 163d ad0c 943c
00000020: e5df 003d bede 9bbd 8e12 3fbb 6875 893d
00000030: f525 38bd b098 273d 3288 47bd 0c50 a5bd
00000040: ae6c c9bc 8c2a 2d3d 7f3c 023c 6c33 8fbd
00000050: 73c0 41bd 980a c4bc b011 adbd cb3a 64bc
00000060: 95c2 51bd 97f3 11bd 5b2f 24bd 8180 293d
00000070: 830c 9e3d f4f0 0ebd 2fc0 a43d 6bbd 15bd
00000080: 2aa9 efbc d297 ac3d 6a0b 0bbd 7280 a3bd
00000090: 705a 5f3d afad 60bb 4279 f2bc 9edc b23d
000000a0: 8bb9 423d 877f 5fbd f0bb c93c 0233 53bd
000000b0: f2d3 a9bd 7e50 d63c f1e2 5ebd 28ba 9dbd
000000c0: a614 173d da9e 133d 4193 7b3d e608 ec3c
000000d0: 6a33 623d ba66 14bd e47d 11bd a99b 7f3c
000000e0: 0c60 55bc 25b4 22bd 2519 7ebc 5674 443d
000000f0: 4cf5 02bd 9d61 ec3c 774d 843d 2ea2 a3bd

emb_model.convs.1.lin_root.weight f4 [64, 128]
0.06554159 0.026590437 0.050862502 -0.08123106 -0.0045102993 0.009647611 0.045019764 0.07723756
0.026965845 -0.042123843 -0.08481003 -0.000929883 -0.054580845 0.05797494 -0.06584485 -0.05224579
0.059529748 0.07377344 -0.01950087 0.025658285 -0.0014926494 -0.016115015 -0.005391439 -0.05634155
-0.020261502 0.0026178942 0.048801403 0.05021949 -0.0874236 0.080855206 -0.04458245 0.04326347
-0.047522984 -0.086309575 -0.013497418 0.02077797 0.05367445 -0.030744651 -0.061711986 -0.04670802
0.03176089 -0.05281375 -0.041791335 -0.033094108 -0.008447184 -0.06635323 0.059339616 -0.05749345
0.06990413 0.033724066 -0.022997994 -0.047823753 -0.075738095 -0.025416292 -0.062006924 -0.031108646
0.08783758 -0.0025984638 0.05183002 -0.004806974 0.032350406 -0.0724022 0.026270548 0.035694733
-0.087845325 -0.078332625 -0.04086811 0.012568041 -0.06683938 -0.08979856 -0.0062771067 0.04767803
0.028613247 0.056753963 0.028794795 -0.066464365 -0.08766204 -0.09124517 0.0048676343 0.040070776
-0.08226873 0.0575613 -0.054091725 0.035768446 0.08531531 0.046139345 -0.026198737 -0.061467268
-0.014061 0.08715279 -0.062368833 -0.053774834 -0.005443105 -0.04846856 -0.063296035 0.017722096
0.017725993 -0.032465454 -0.04349715 0.020196924 0.07667261 0.047392245 0.014737614 0.07788662
0.01008388 -0.00029260863 0.037168197 0.056704886 0.031526443 0.05646388 -0.055709947 0.08227441
0.035036433 -0.00045201197 -0.041269828 -0.09480363 0.007957922 -0.04088945 -0.009056873 0.05084692
0.045414068 -0.07150024 0.009153837 0.03935115 -0.06202801 0.077715166 0.07752441 0.07418294
0.049133487 0.07329203 -0.07322666 -0.014285516 0.030105272 0.049616806 -0.056803152 0.064512156
0.0020966264 0.053165384 -0.067484446 -0.010779246 0.01315636 -0.07917981 0.030935735 -0.030581342
-0.018949466 0.0013361077 0.03979674 0.033527598 0.02986946 -0.04861721 -0.06465957 -0.03623241
-0.021438025 0.03835597 -0.0054028253 -0.034740213 -0.0019930506 -0.010672246 0.010859094 -0.04805199
0.07639828 0.02635278 0.07352859 -0.0065036695 -0.052920435 -0.04523382 0.012417473 0.0339835
0.035794295 -0.0660314 0.06078809 0.07608336 -0.008801547 0.04688413 0.035171375 0.013072488
0.02666141 -0.0019046477 -0.040407795 -0.018864086 0.011758138 -0.03450767 -0.07844715 0.047831763
-0.0273927 -0.070120595 -0.005501997 0.036301933 0.045108117 -0.05652222 -0.07748806 0.06347624
0.08677592 -0.08294309 -0.049286008 0.0628711 -0.046246745 -0.0043032668 0.0865562 -0.015620149
-0.066983946 -0.0027631472 -0.07749435 -0.022159517 -0.0019528636 0.08704125 0.0826476 0.07899335
-0.04103433 -0.072122194 -0.031457543 0.0017502743 -0.017911546 -0.08036982 -0.046267122 -8.47257e-05
0.08545483 -0.054367665 0.064245276 -0.028222952 0.04821611 0.0094575 0.0319496 0.06892087
0.05527461 0.046785012 0.060363684 0.039989002 0.08440487 -0.010797306 0.013212541 0.00037067098
0.08271738 0.059964597 -0.018409701 0.007098151 -0.08505037 0.015864559 0.070680894 0.06017703
-0.06275495 0.071571596 -0.07098388 0.0029842707 0.0015155795 -0.03691127 0.052855454 -0.014420449
0.0325496 0.07725379 -0.0077180993 -0.053177428 -0.0697174 0.03314095 -0.045029197 0.038237654
00000000: ab3a 863d 30d4 d93c 3355 503d 785c a6bd
00000010: 22cb 93bb 0311 1e3c a566 383d ba2e 9e3d
00000020: 7ae7 dc3c 0d8a 2cbd e2b0 adbd 64c3 73ba
00000030: 2a90 5fbd 2177 6d3d aad9 86bd aeff 55bd
00000040: 77d5 733d 8816 973d 4ac0 9fbc 5331 d23c
00000050: 01a5 c3ba a303 84bc abaa b0bb 66c6 66bd
00000060: 73fb a5bc fa90 2b3b fbe3 473d f4b2 4d3d
00000070: 250b b3bd 6a97 a53d 169c 36bd 0935 313d
00000080: 76a7 42bd 13c3 b0bd 4624 5dbc 9036 aa3c
00000090: bdd9 5b3d 35dc fbbc b5c5 7cbd e950 3fbd
000000a0: b517 023d 3b53 58bd 642d 2bbd b08d 07bd
000000b0: 0f66 0abc 34e4 87bd 190e 733d 407e 6bbd
000000c0: e629 8f3d 3f22 0a3d 4a66 bcbc d7e2 43bd
000000d0: 931c 9bbd d435 d0bc f9fa 7dbd 8fd7 febc
000000e0: 30e4 b33d fd4a 2abb b74b 543d d283 9dbb
000000f0: dc81 043d 9b47 94bd 5535 d73c a434 123d
00000100: 40e8 b3bd db6c a0bd 5265 27bd 2fea 4d3c
00000110: 16e3 88bd 4fe8 b7bd 30b0 cdbb 0a4a 433d
00000120: 5466 ea3c d876 683d 10e3 eb3c 781e 88bd
00000130: 2888 b3bd bfde babd ad80 9f3b 4121 243d
00000140: 827c a8bd 66c5 6b3d 498f 5dbd ef81 123d
00000150: cbb9 ae3d 9cfc 3c3d bc9e d6bc 1ac5 7bbd
00000160: 1c60 66bc 297d b23d 7676 7fbd 0043 5cbd
00000170: 135c b2bb f886 46bd 5aa1 81bd ee2d 913c
00000180: 1a36 913c 7ffa 04bd 112a 32bd 0574 a53c
00000190: 8806 9d3d 5f1e 423d 0976 713c 0583 9f3d
000001a0: dc36 253c 4469 99b9 ae3d 183d 6243 683d
000001b0: df21 013d ab46 673d 1d30 64bd 7c7f a83d
000001c0: 5d82 0f3d 05fc ecb9 8d0a 29bd 6828 c2bd
000001d0: f261 023c b27b 27bd 4763 14bc dc44 503d
000001e0: 1a04 3a3d b86e 92bd faf9 153c ac2e 213d
000001f0: 1511 7ebd 2129 9f3d 1ec5 9e3d 3aed 973d
00000200: 3240 493d 221a 963d dcf7 95bd cc0d 6abc
00000210: 559f f63c fe3a 4b3d 6caa 68bd f31e 843d
00000220: 8e67 093b f2c3 593d 4935 8abd 6f9b 30bc
00000230: c68d 573c 0629 a2bd f06c fd3c b985 fabc
00000240: e93b 9bbc 5620 af3a e801 233d 3c54 093d
00000250: ccb0 f43c d722 47bd 3d6c 84bd 7068 14bd
00000260: cc9e afbc 261b 1d3d 2f0a b1bb c14b 0ebd
00000270: d79d 02bb a5da 2ebc 57ea 313c 2ad2 44bd
00000280: b476 9c3d c9e1 d73c 2896 963d bc1c d5bb
00000290: 19c3 58bd 1947 39bd a872 4b3c 4832 0b3d
000002a0: 0a9d 123d 783b 87bd effc 783d 98d1 9b3d
000002b0: 5d34 10bc 9309 403d dc0f 103d fd2d 563c
000002c0: 0869 da3c 5fa5 f9ba a582 25bd db88 9abc
000002d0: 35a5 403c ea57 0dbd e6a8 a0bd 3deb 433d
000002e0: a866 e0bc 639b 8fbd 194a b4bb 56b1 143d
000002f0: 4ac3 383d d883 67bd 0fb2 9ebd d5ff 813d
00000300: 93b7 b13d 11de a9bd 20e0 49bd 90c2 803d
00000310: 3a6d 3dbd 6b02 8dbb 6144 b13d a7eb 7fbc
00000320: e12e 89bd eb15 35bb 5cb5 9ebd e087 b5bc
00000330: 3bf7 ffba af42 b23d 2543 a93d 44c7 a13d
00000340: 9d13 28bd cdb4 93bd a0d9 00bd 7669 e53a
00000350: 3cbb 92bc ef98 a4bd 9882 3dbd c4ae b1b8
00000360: f102 af3d a1b0 5ebd 0793 833d d233 e7bc
00000370: 417e 453d a1f3 1a3c 95dd 023d 6326 8d3d
00000380: a167 623d a4a1 3f3d e93f 773d 82cb 233d
00000390: 76dc ac3d 2fe7 30bc 6a79 583c 9e56 c239
000003a0: bb67 a93d 709d 753d f1cf 96bc 9b97 e83b
000003b0: e32e aebd 64f6 813c 25c1 903d 307c 763d
000003c0: ab85 80bd 2194 923d ff5f 91bd c193 433b
000003d0: 69a6 c63a 4630 17bd f67e 583d bf43 6cbc
000003e0: bb52 053d 3c37 9e3d 1ce8 fcbb 93d0 59bd
000003f0: ffc7 8ebd cebe 073d 8970 38bd 169f 1c3d

emb_model.convs.2.lin_rel.weight f4 [64, 192]
0.031119043 0.028086383 0.010490625 -0.03284426 -0.055854045 -0.06261622 0.046244364 -0.049361933
-0.0669008 -0.029458044 -0.018794674 0.019583015 -0.0031234534 0.012810614 -0.038650904 -0.032722365
0.031705018 -0.058278132 -0.051196303 0.036633644 -0.043186672 -0.03180599 0.0586276 0.027816363
0.0016906345 -0.062758245 0.06714388 0.037356745 -0.015847737 0.00030994034 0.002606053 -0.044656456
-0.005160837 0.047595836 -0.06754307 -0.07021249 -0.031931274 -0.06611605 -0.05433024 -0.05570012
0.0017416581 0.02106618 -0.009318232 -0.028327245 -0.020802129 -0.038337134 0.0660689 0.035154488
0.053921774 -0.051045176 -0.055983167 -0.06193603 -0.024071235 0.022082554 -0.052621752 -0.0018382721
-0.069475845 0.019352825 0.018585788 -0.04420521 -0.05152483 0.00056183944 0.008181741 0.05075014
-0.051617324 -0.00807651 0.034199856 -0.03506457 0.04323113 0.0005707712 -0.031993527 -0.0028150582
0.037941877 -0.051169313 -0.034122318 0.06458124 0.058621325 -0.05883988 -0.015819347 -0.053512573
0.0145920655 0.042076286 0.026004791 0.06391546 -0.0009189905 0.010688904 -0.06385987 0.020264288
-0.06124742 0.06122349 -0.053002484 0.025602302 -0.006401063 -0.06883426 -0.0002892397 -0.002301353
-0.015101551 -0.024218071 0.0009929027 0.07050172 0.050094612 0.029617218 -0.0019725994 -0.020816732
-0.03872781 0.0199141 -0.060610104 0.076188214 0.059086185 0.01407419 0.03613325 0.05211882
-0.059671797 -0.013283189 0.02042423 0.06781706 0.010985506 -0.0012429716 -0.06822321 -0.050237752
0.050101805 -0.041031864 0.0167384 0.03324764 0.022231089 0.057332866 0.05962153 -0.020261372
-0.026609333 -0.02097079 -0.062281847 -0.022170067 -0.0067246137 -0.020959599 0.0683676 0.015985252
-0.074203 0.0011667904 0.04120738 -0.05509053 -0.0037650568 -0.059401453 0.030082854 0.059319455
0.016041817 -0.07048212 -0.031256694 0.016652713 0.025264883 0.007818096 -0.0075182067 -0.062005844
0.031203732 -0.033337634 -0.0038531104 0.017765207 -0.06814175 -0.070964076 -0.01753036 -0.058527064
-0.039642207 0.023035616 0.02901044 -0.0012297399 -0.034650773 0.013739553 0.04409457 0.01859272
0.008180844 -0.0010374995 -0.014419768 -0.056600012 0.061200604 0.036725435 -0.051190905 -0.037228633
-0.029714512 -0.017310996 0.05244922 0.009818375 0.06496762 0.009845705 0.046579786 0.04421486
0.007843816 0.056777656 0.0014724253 0.007949445 -0.008505844 0.008831815 -0.06951888 -0.056360666
-0.007023636 -0.006599307 0.06511979 -0.048444424 -0.0052664406 0.021309212 -0.036992326 0.010073655
0.003970098 0.019560173 0.038010463 -0.052048553 0.060509484 0.03559066 0.010647732 0.058634833
-0.008071186 -0.056286696 0.027026588 0.025471818 0.056723244 -0.06721281 -0.010374103 -0.06479381
0.04240172 0.0026026655 0.0008365844 0.02374225 0.048839692 -0.0061464133 -0.0032274663 0.0015079114
-0.039019477 -0.03487119 -0.058367223 0.04677924 0.047364462 0.0061435187 0.060846213 0.031337474
-0.045544237 0.06494118 -0.04095952 -0.03328272 0.050653145 -0.028993016 0.035265815 0.0014829104
0.019756969 -0.057260487 -0.05073053 0.067713834 -0.04914633 -0.042767707 -0.059663698 0.05036004
0.014764268 -0.018025255 -0.061681446 0.054456167 -0.06550354 0.0006362831 -0.045267995 -0.023932163
00000000: 5ded fe3c 6a15 e63c dfe0 2b3c b487 06bd
00000010: 36c7 64bd ef3c 80bd bb6a 3d3d bd2f 4abd
00000020: 4903 89bd ff51 f1bc 4af7 99bc 8f6c a03c
00000030: dab2 4cbb 9ce3 513c 6950 1ebd e307 06bd
00000040: 1fdd 013d 0db5 6ebd 37b3 51bd 290d 163d
00000050: 82e4 30bd ff46 02bd 7f23 703d 24df e33c
00000060: 4898 dd3a 6587 80bd bb82 893d 6303 193d
00000070: 1dd3 81bc 7d7f a239 50ca 2a3b b0e9 36bd
00000080: 3d1c a9bb daf3 423d 0554 8abd 91cb 8fbd
00000090: 5eca 02bd da67 87bd 6389 5ebd cf25 64bd
000000a0: 5948 e43a fb92 ac3c 7fab 18bc 8a0e e8bc
000000b0: 3a69 aabc 6607 1dbd 224f 873d 27fe 0f3d
000000c0: 14dd 5c3d bf14 51bd 9b4e 65bd a2b0 7dbd
000000d0: 0a31 c5bc 79e6 b43c e889 57bd 2df2 f0ba
000000e0: 5a49 8ebd d189 9e3c 3941 983c 8610 35bd
000000f0: b30b 53bd 6848 133a b60c 063c 61df 4f3d
00000100: b06c 53bd 5753 04bc 2615 0c3d de9f 0fbd
00000110: 2013 313d cf9f 153a a50b 03bd d77c 38bb
00000120: f168 1b3d ea96 51bd d8c3 0bbd 2b43 843d
00000130: ea1c 703d 1602 71bd 9397 81bc 0030 5bbd
00000140: 8f13 6f3c 2f58 2c3d 0008 d53c 1ce6 823d
00000150: 69e8 70ba 8320 2f3c f7c8 82bd 4b01 a63c
00000160: 93de 7abd 7bc5 7a3d 2219 59bd ebbb d13c
00000170: 02c0 d1bb faf8 8cbd 18a5 97b9 4cd2 16bb
00000180: 7f6c 77bc fa64 c6bc 4924 823a 3563 903d
00000190: 0230 4d3d cf9f f23c ba46 01bb da87 aabc
000001a0: 0da1 1ebd e522 a33c 4d42 78bd 9108 9c3d
000001b0: 5b04 723d 6e97 663c 7500 143d 8b7a 553d
000001c0: 6a6a 74bd bca1 59bc b750 a73c ace3 8a3d
000001d0: 8dfc 333c 35eb a2ba 9cb8 8bbd 1ac6 4dbd
000001e0: 8d37 4d3d 0711 28bd f81e 893c ad2e 083d
000001f0: f91d b63c ded5 6a3d b535 743d 2dfb a5bc
00000200: d1fb d9bc efca abbc 401b 7fbd 009e b5bc
00000210: 265a dcbb 77b3 abbc 5004 8c3d 81f3 823c
00000220: bef7 97bd fdee 983a 12c9 283d 9ca6 61bd
00000230: 2cbf 76bb f04e 73bd 5170 f63c f5f8 723d
00000240: 216a 833c ee58 90bd 0507 00bd 456b 883c
00000250: 4df8 ce3c 7917 003c 4a5b f6bb d7f9 7dbd
00000260: f89e ff3c 0b8d 08bd 7784 7cbb 5788 913c
00000270: e78d 8bbd 9d55 91bd d49b 8fbc 13ba 6fbd
00000280: de5f 22bd 30b5 bc3c 4da7 ed3c 392f a1ba
00000290: f8ed 0dbd dd1b 613c 829c 343d c34f 983c
000002a0: f208 063c b5fc 87ba e440 6cbc 6ad5 67bd
000002b0: 7cad 7a3d 696d 163d 8ead 51bd 0d7d 18bd
000002c0: d96b f3bc cacf 8dbc fed4 563d 40dd 203c
000002d0: be0d 853d e14f 213c 72ca 3e3d a41a 353d
000002e0: 5983 003c b08f 683d 65fe c03a 643e 023c
000002f0: 185c 0bbc 51b3 103c ea5f 8ebd 71da 66bd
00000300: 8726 e6bb 003f d8bb 865d 853d a96d 46bd
00000310: 1b92 acbb a890 ae3c 4485 17bd f90b 253c
00000320: 9917 823b a83c a03c dcb0 1b3d dd30 55bd
00000330: cbd8 773d 83c7 113d d373 2e3c 142b 703d
00000340: 023d 04bc e18c 66bd dd66 dd3c 46aa d03c
00000350: a256 683d dfa6 89bd 24f8 29bc 9eb2 84bd
00000360: 6dad 2d3d 7b91 2a3b 3b4e 5b3a 1b7f c23c
00000370: 210c 483d da67 c9bb e683 53bb 1ca5 c53a
00000380: e3d2 1fbd 18d5 0ebd 7812 6fbd 979b 3f3d
00000390: 3d01 423d 924f c93b e139 793d b95b 003d
000003a0: 988c 3abd e2ff 843d 2bc5 27bd 7653 08bd
000003b0: ac79 4f3d c382 edbc e372 103d 375e c23a
000003c0: 5ed9 a13c f989 6abd d1ca 4fbd 8dad 8a3d
000003d0: aa4d 49bd 312d 2fbd ec61 74bd 5446 4e3d
000003e0: d4e5 713c b3a9 93bc afa5 7cbd 6e0d 5f3d
000003f0: b826 86bd 3ccc 263a ef6a 39bd 620d c4bc

emb_model.convs.2.lin_rel.bias f4 [64]
-0.0043202876 -0.029486397 0.0091009345 -0.054578003 0.007789954 0.0308115 0.0015010351 -0.041536905
0.017655488 -0.041994017 -0.00043643304 0.012025546 0.057966042 -0.0028875056 -0.055052146 -0.034108415
-0.047882993 0.0107548 -0.047531527 -0.04744239 0.03604726 -0.016311392 -0.037439607 -0.016957626
0.050658565 -0.041746575 -0.037230432 -0.06786779 0.03273655 -0.056011975 0.057015188 0.041236605
-0.04580015 -0.04464962 0.017845934 0.051710617 -0.00496638 -0.053981695 -0.042989284 -0.0076034595
-0.02227407 0.06934587 -0.0038403997 -0.0013045744 -0.060334086 -0.056666844 -0.014314268 -0.059752245
-0.031614956 -0.015715977 0.047898643 -0.04571021 0.05480631 -0.016772294 -0.03923532 -0.051156398
-0.036399618 -0.045907248 -0.011374464 -0.053645078 0.044602282 -0.0034917255 0.03900993 0.06091335
00000000: 3391 8dbb 758d f1bc 161c 153c 2f8d 5fbd
00000010: df42 ff3b 6668 fc3c 61be c43a 9a22 2abd
00000020: 3ea2 903c eb01 2cbd 0dd1 e4b9 cc06 453c
00000030: cd6d 6d3d 4e3c 3dbb 5c7e 61bd 44b5 0bbd
00000040: f520 44bd e734 303c 6bb0 42bd f452 42bd
00000050: 4ba6 133d 789f 85bc 465a 19bd b8ea 8abc
00000060: 5b7f 4f3d 75fe 2abd f07e 18bd 45fe 8abd
00000070: c316 063d d06c 65bd c288 693d b7e7 283d
00000080: f098 3bbd 85e2 36bd a331 923c 83ce 533d
00000090: 04bd a2bb e91b 5dbd 8815 30bd 7126 f9bb
000000a0: 1c78 b6bc 3505 8e3d 37af 7bbb 41fe aaba
000000b0: e020 77bd 7e1b 68bd 6486 6abc c5be 74bd
000000c0: af7e 01bd cbbe 80bc 5e31 443d a13a 3bbd
000000d0: 957c 603d 0d66 89bc 37b5 20bd 5f89 51bd
000000e0: c417 15bd 3d09 3cbd f65b 3abc f1ba 5bbd
000000f0: e2b0 363d 6fd5 64bb e0c8 1f3d 4780 793d

emb_model.convs.2.lin_root.weight f4 [64, 192]
-0.07434397 -0.07644358 0.06402922 0.048838004 -0.059522454 0.060407538 0.07195249 0.020873835
0.025404222 -0.070716724 0.06401699 0.017311279 -0.005768533 0.012872201 0.028961193 0.057961576
-0.0584219 0.050141394 0.06864675 -0.016401134 0.045898736 0.019813666 -0.022443596 -0.066635646
0.029803017 0.009660501 0.0010641726 0.016641397 0.06722152 0.014523019 -0.015858697 0.00734555
0.02748998 -0.040441815 -0.030600684 -0.065882735 0.07285942 0.020910393 0.046042334 -0.03644423
0.014580006 0.062291563 -0.059345923 -0.044173993 0.053663917 -0.033508077 -0.07361341 0.058428567
0.009352065 -0.030575722 -0.0053364607 0.051271893 -0.063501514 0.04997891 -0.014873084 0.053994574
-0.031385604 -0.03371811 0.031793933 0.060029496 0.065656915 0.03516902 -0.008161175 -0.062003475
-0.03712347 -0.0027308932 0.033334687 -0.062079955 -0.0022495184 -0.011322392 0.06643439 0.01465789
0.04528189 -0.00928857 0.032164264 -0.028776286 0.044195082 -0.036824357 0.044483893 -0.0007373536
-0.02154121 0.053143326 -0.0005471373 0.031685796 -0.06871197 0.056596916 0.053506095 -0.013295601
-0.055547006 -0.06672985 -0.021273501 -0.028996922 0.037025407 -0.01889614 0.0059861667 0.04897404
-0.029251166 -0.022508731 -0.060489487 -0.06580362 -0.03364107 0.045385342 -0.042391174 -0.030994985
-0.019449867 -0.013711452 -0.03205477 0.076447226 0.068343766 0.07167021 0.011149208 0.058808822
0.041734587 0.046957333 -0.024886841 -0.00450436 0.032475818 0.05519031 0.04783433 -0.0063211503
-0.052964494 -0.014399261 0.0063037383 0.058333322 0.031089053 0.010201067 -0.069322154 -0.03373284
0.063624956 -0.05844389 -0.06405694 0.008823888 -0.056298845 0.038693946 0.06335655 -0.018071746
-0.028140897 0.0708787 0.023405286 0.0724084 -0.06642102 -0.059164442 0.05251084 0.05599354
0.024661792 0.06158922 -0.0046708444 0.032725412 0.016937925 -0.04364682 0.036542375 0.040642276
0.06160539 -0.020693768 -0.07044383 0.0026378168 -0.020454763 -0.037658907 0.006615168 -0.06315796
0.047258396 0.05416009 -0.0074902866 -0.059374455 0.0058426214 -0.018049268 -0.053705927 0.026751457
0.044720348 -0.022137789 0.056217454 -0.018400596 -0.038821366 0.06778797 0.031718045 -0.0067799413
-0.06916225 0.017285561 0.028581537 0.059980713 -0.05084223 -0.06785763 0.008812823 -0.012431419
0.0015882335 -0.045136534 0.054256238 -0.06042157 -0.0024819456 -0.028197084 0.05524081 0.0018174625
-0.03675828 0.017791174 -0.05104786 -0.0021304386 -0.008343367 0.02164705 0.040091217 -0.05580326
0.03388312 -0.07748627 0.026643682 -0.037483633 0.063220374 0.05289562 -0.048255067 -0.019900294
-0.063410416 -0.0030903583 -0.025639495 0.022782937 -0.04361699 0.036539838 0.050826795 -0.056658752
-0.02053325 -0.058412082 0.03634996 0.04877064 0.09388729 0.016122852 0.0041483217 0.06715911
0.010028418 0.013665696 0.022466693 0.016872544 -0.06496116 0.017920503 -0.048866957 -0.030172454
-0.0204781 0.028110122 0.027199011 -0.06812514 -0.0045109754 -0.055268716 0.034232512 0.022983192
0.04688803 -0.0024405217 -0.024432147 0.0424182 -0.0057576513 0.051881947 -0.0746504 -0.03972765
0.030376628 -0.01726435 -0.02820457 -0.031500354 -0.06525344 -0.031154802 -0.054698035 0.03272202
00000000: a741 98bd 748e 9cbd c021 833d 5c0a 483d
00000010: d1cd 73bd e56d 773d d45b 933d 9bff aa3c
00000020: 841c d03c eed3 90bd 571b 833d 62d0 8d3c
00000030: f605 bdbb ede5 523c 0640 ed3c 1e69 6d3d
00000040: cd4b 6fbd 1061 4d3d ab96 8c3d ac5b 86bc
00000050: 5000 3c3d 4550 a23c a2db b7bc 4578 88bd
00000060: 7525 f43c 1447 1e3c b57b 8b3a 8a53 883c
00000070: 70ab 893d f5f1 6d3c 19ea 81bc f1b2 f03b
00000080: ab32 e13c 51a6 25bd 49ae fabc 87ed 86bd
00000090: 5237 953d 464c ab3c e396 3c3d 8b46 15bd
000000a0: fae0 6e3c 7025 7f3d b614 73bd caef 34bd
000000b0: b2ce 5b3d c43f 09bd a1c2 96bd cb52 6f3d
000000c0: 6739 193c f079 fabc 7add aebb 7a02 523d
000000d0: 150d 82bd afb6 4c3d 3cae 73bc 6a29 5d3d
000000e0: 318e 00bd 001c 0abd 5b3a 023d 7de1 753d
000000f0: 2277 863d 640d 103d 73b6 05bc 5bf7 7dbd
00000100: c80e 18bd c9f8 32bb f489 083d 8d47 7ebd
00000110: a86c 13bb 8e81 39bc c10e 883d a627 703c
00000120: 8179 393d 162f 18bc adbe 033d 3fbc ebbc
00000130: e705 353d 23d5 16bd be34 363d f64a 41ba
00000140: 3177 b0bc d1ac 593d c36d 0fba f7c8 013d
00000150: dcb8 8cbd 2bd2 673d 3529 5b3d cbd5 59bc
00000160: 4285 63bd a9a9 88bd c445 aebc f48a edbc
00000170: f4a7 173d 14cc 9abc 9b27 c43b 0199 483d
00000180: 24a0 efbc 3b64 b8bc d3c3 77bd 0cc4 86bd
00000190: 38cb 09bd fbe5 393d 5ea2 2dbd 32e9 fdbc
000001a0: 5455 9fbc ffa5 60bc dd4b 03bd 5d90 9c3d
000001b0: d1f7 8b3d d5c7 923d 2bab 363c 85e1 703d
000001c0: e3f1 2a3d 5556 403d 7ddf cbbc 4f99 93bb
000001d0: 5d05 053d 3c0f 623d eeed 433d a721 cfbb
000001e0: 4cf1 58bd e1ea 6bbc 978f ce3b ecee 6e3d
000001f0: 78ae fe3c 6022 273c c6f8 8dbd 722b 0abd
00000200: cd4d 823d dc62 6fbd 4930 83bd 1292 103c
00000210: 9e99 66bd 8b7d 1e3d 14c1 813d 330b 94bc
00000220: bd87 e6bc da28 913d 71bc bf3c db4a 943d
00000230: be07 88bd 6a56 72bd 9b15 573d 7b59 653d
00000240: 8707 ca3c fa44 7c3d e20d 99bb 150b 063d
00000250: 67c1 8a3c 02c7 32bd 75ad 153d 8478 263d
00000260: ef55 7c3d fa85 a9bc db44 90bd 39df 2c3b
00000270: bf90 a7bc 3a40 1abd 0dc4 d83b f658 81bd
00000280: 0592 413d f8d6 5d3d 1471 f5bb a132 73bd
00000290: 7673 bf3b 0fdc 93bc bffa 5bbd df25 db3c
000002a0: af2c 373d 4f5a b5bc 4644 663d d9bc 96bc
000002b0: 2703 1fbd 6bd4 8a3d c8ea 013d 452a debb
000002c0: f0a4 8dbd 739a 8d3c d423 ea3c 56ae 753d
000002d0: f13f 50bd f1f8 8abd a963 103c 27ad 4bbc
000002e0: 462c d03a 16e1 38bd ca3b 5e3d 9c7c 77bd
000002f0: 23a8 22bb 92fd e6bc 3044 623d ec37 ee3a
00000300: da8f 16bd ccbe 913c 9017 51bd d49e 0bbb
00000310: 9eb2 08bc 2755 b13c b036 243d f691 64bd
00000320: 07c9 0a3d 1fb1 9ebd da43 da3c 7088 19bd
00000330: af79 813d 14a9 583d 1ba7 45bd f105 a3bc
00000340: 52dd 81bd 9c87 4abb eb09 d2bc 48a3 ba3c
00000350: bba7 32bd ccaa 153d c22f 503d 0213 68bd
00000360: 5935 a8bc 8241 6fbd b2e3 143d b9c3 473d
00000370: fb47 c03d 1214 843c a5ee 873b b78a 893d
00000380: 3c4e 243c 15e6 5f3c 120c b83c 4a38 8a3c
00000390: 5b0a 85bd 05ce 923c b828 48bd 392c f7bc
000003a0: b0c1 a7bc 3347 e63c 76d0 de3c 3285 8bbd
000003b0: ced0 93bb 7361 62bd 6437 0c3d 3f47 bc3c
000003c0: aa0d 403d 29f1 1fbb ed25 c8bc b5be 2d3d
000003d0: aeaa bcbb 2a82 543d 4fe2 98bd 76b9 22bd
000003e0: 68d8 f83c f76d 8dbc 450d e7bc 8406 01bd
000003f0: 98a3 85bd 5b38 ffbc 0c0b 60bd 8607 063d
