matching/src/ckpt/model.pt (torch, 568017 bytes, 25 tensors)

emb_model.learnable_skip f4 [4, 4]
1.0082381 1.0 1.0 1.0 1.0056597 1.0083768 1.0 1.0
1.0021105 1.002382 1.0064355 1.0 0.99502754 1.0018826 1.0207629 1.00521
00000000: f20d 813f 0000 803f 0000 803f 0000 803f
00000010: 75b9 803f 7e12 813f 0000 803f 0000 803f
00000020: 2845 803f 0e4e 803f e1d2 803f 0000 803f
00000030: 20ba 7e3f b03d 803f 5ca8 823f b9aa 803f

emb_model.pre_mp.0.weight f4 [64, 1]
-0.3039998 -0.18269397 0.84205294 -0.7516464 0.8532089 -0.53956187 0.5681777 0.4949866
-0.598614 0.4597687 -0.08228572 -0.44639754 -0.2830778 0.8923768 -0.3525246 0.33534372
0.81047976 -0.21993956 0.94542074 -0.16745433 -0.9524359 0.64397043 -0.100652024 0.62436116
0.65610397 -0.69961834 -0.8524123 0.5405124 0.7194562 0.38487226 -0.08526776 0.916171
-0.6986279 0.7635382 -0.251797 -0.054423787 0.08899679 -0.82950723 0.89991385 -0.6083106
-0.09487554 0.88987124 -0.8448417 -0.3293949 0.42094406 0.24972053 0.5871861 0.8445461
-0.13639612 -0.6310466 0.5167681 -0.3263252 0.88246197 -0.35038665 0.8308123 0.68763345
-0.6843033 -0.48036668 0.19924486 -0.6716454 0.7930042 0.54417175 0.35486498 -0.035867993
00000000: dda5 9bbe 2114 3bbe c890 573f e66b 40bf
00000010: e66b 5a3f ba20 0abf 1874 113f e26e fd3e
00000020: c43e 19bf ce66 eb3e 6a85 a8bd 388e e4be
00000030: 93ef 90be ce72 643f 1b7e b4be 2cb2 ab3e
00000040: 9a7b 4f3f d637 61be 1807 723f 2679 2bbe
00000050: d7d2 73bf 3fdb 243f a622 cebd 22d6 1f3f
00000060: 6ef6 273f 301a 33bf b137 5abf 055f 0a3f
00000070: 482e 383f fa0d c53e dda0 aebd 2f8a 6a3f
00000080: 47d9 32bf 3d77 433f 89eb 80be 7aeb 5ebd
00000090: f343 b63d 965a 54bf c160 663f 3eba 1bbf
000000a0: 1b4e c2bd 9ace 633f 8c47 58bf 73a6 a8be
000000b0: fb85 d73e bdb6 7f3e d451 163f 2c34 583f
000000c0: 6dab 0bbe 458c 21bf ea4a 043f 1914 a7be
000000d0: 07e9 613f e165 b3be 1db0 543f bf08 303f
000000e0: 802e 2fbf 9ff2 f5be d806 4c3e f4f0 2bbf
000000f0: 5302 4b3f d74e 0b3f ddb0 b53e 51ea 12bd

emb_model.pre_mp.0.bias f4 [64]
-0.025420288 -0.80233514 0.014362549 -0.37125644 0.26511976 -0.7837604 0.6985031 -0.6659572
-0.29423946 -0.10013466 -0.08009192 0.5950541 0.11087928 0.51958954 -0.31467822 -0.5625132
-0.2127702 -0.8545978 0.9945374 -0.8945075 -0.5773967 -0.3485855 -0.20812288 0.48966193
0.79053724 0.40398076 0.9082143 0.7350175 0.35044408 -0.36043796 0.9346457 -0.44217247
-0.010184559 0.7859426 0.5360237 0.5661885 -0.58471483 0.5694181 -0.28880093 -0.67479813
0.43016434 -0.95785165 0.74016166 0.790161 0.9680747 -0.18068056 -0.8036354 -0.33447543
-0.3222409 -0.3832999 0.23632385 -0.6982808 -0.77344847 0.6757234 -0.43771413 -0.4118284
0.93713176 -0.3130378 -0.78272885 0.912469 -0.09669844 0.61073035 -0.31484288 -0.58825934
00000000: 353e d0bc d665 4dbf e650 6b3c 5315 bebe
00000010: c7bd 873e 86a4 48bf 19d1 323f 2c7c 2abf
00000020: 8ea6 96be 6713 cdbd 3c07 a4bd 7755 183f
00000030: ad14 e33d d203 053f 811d a1be dd00 10bf
00000040: 6ee0 59be ecc6 5abf 019a 7e3f 72fe 64bf
00000050: 45d0 13bf cc79 b2be 2a1e 55be f8b4 fa3e
00000060: a660 4a3f 91d6 ce3e bb80 683f 1b2a 3c3f
00000070: 686d b33e 538b b8be f144 6f3f 6e64 e2be
00000080: 23dd 26bc 8933 493f d938 093f bbf1 103f
00000090: dfaf 15bf 62c5 113f b7dd 93be 92bf 2cbf
000000a0: 803e dc3e c435 75bf 3c7b 3d3f fe47 4a3f
000000b0: bed3 773f 5304 39be 0dbb 4dbf 5d40 abbe
000000c0: c2fc a4be e23f c4be e1fe 713e 88c2 32bf
000000d0: b800 46bf 35fc 2c3f 111c e0be 2cdb d2be
000000e0: dee7 6f3f 7e46 a0be eb60 48bf 9297 693f
000000f0: d509 c6bd d358 1c3f 1633 a1be 2a98 16bf

emb_model.convs.0.lin_rel.weight f4 [64, 64]
-0.011919703 -0.040375352 0.05056273 0.05065203 -0.06504306 -0.057347298 0.03634451 0.0050153877
0.059551205 -0.1087237 0.092175715 0.089584716 -0.022299876 -0.08647257 -0.11107342 -0.11852782
-0.020371616 -0.04532445 0.058146074 -0.08945879 0.09504428 -0.006983833 0.048371796 0.06660711
0.0034435762 -0.12767805 0.039597496 -0.112484105 -0.10337503 -0.084020354 0.11138868 -0.05195472
0.060727797 0.020299047 0.06742869 -0.12173702 0.0044071535 -0.08203468 0.059080295 -0.036443383
0.028543862 -0.028235858 -0.1082532 -0.026289199 0.03698333 -0.024745915 0.090441726 0.07718118
-0.08327541 0.017234312 -0.09219957 0.08239042 -0.04889087 0.030615157 0.12446929 -0.094807796
-0.08194219 0.07836229 0.03211064 0.042836566 0.08319905 0.017388348 -0.028185 0.127914
0.060651377 0.0009036511 -0.020524442 0.04478015 0.09502928 0.0024192035 -0.01164408 -0.07781702
0.01364395 -0.021648541 0.07468599 0.09941694 -0.09683597 0.021048948 0.12162891 0.05446671
0.0014021844 -0.089230865 -0.12254408 -0.037081063 -0.02490981 0.01503785 -0.0030615628 -0.11903724
-0.0590892 0.011563942 -0.09908657 -0.046633437 0.0045134276 -0.098439276 -0.024736673 0.07607871
-0.018689752 -0.10863739 -0.043565482 -0.08783753 -0.1086171 0.064210355 -0.03164585 0.013285935
-0.061396986 0.043966487 -0.05471249 0.11158964 0.038275376 -0.09575011 0.07576449 0.041305825
-0.09079391 0.09213263 0.013486281 -0.11143209 0.11052987 -0.11800754 0.1143647 -0.09570289
0.11578284 -0.0006418675 -0.10963556 0.079294026 -0.10886967 0.005905807 0.0777079 -0.09147376
-0.084548704 -0.111754626 0.10070907 0.0758283 0.11170885 0.062494826 0.10758805 0.02125234
0.06003037 -0.04563101 -0.034163054 0.03714857 -0.06930079 0.09488156 0.09320043 -0.09808403
0.042843435 0.10926159 0.055936966 -0.10009684 -0.09675201 0.039559424 0.002006889 0.1138382
-0.11389821 -0.05557584 -0.0061301147 0.09625848 -0.10190272 0.055553515 0.032934774 0.07606734
-0.11248604 0.03067734 0.078843765 -0.057615906 0.105916455 0.07474995 0.110877976 0.066695414
-0.107633725 0.036069892 0.0021727302 0.08567424 -0.08348246 -0.009540009 0.115045205 0.09785105
-0.07189737 0.05236738 0.1256825 0.08582974 -0.0018026487 -0.1051183 -0.10270704 0.039876897
-0.07855618 -0.10705609 -0.10121238 -0.04522096 -0.036184147 0.03669065 -0.024158396 -0.014882814
-0.083706096 -0.04446055 -0.036122218 -0.08580743 -0.026075542 -0.055629402 0.032472223 -0.014162824
-0.03314367 0.06750587 0.11345932 -0.06656368 -0.119215816 0.10212931 -0.07984294 0.04361303
-0.09542787 -0.093465105 -0.04147254 0.03146209 -0.023121417 0.054918587 -0.04595907 -0.073621914
-0.10545775 0.12321018 -0.09370263 -0.057281837 0.004757941 -0.054974705 -0.036208227 0.05488807
0.086512044 -0.11674808 -0.0039550513 0.110202625 0.0035818517 -0.03801532 -0.0077456534 0.045210093
-0.018947035 -0.00797531 -0.034180477 -0.12070887 0.09969631 -0.111851335 -0.09679374 -0.08798315
0.06292614 0.090570405 0.054317504 0.08641806 0.053309917 0.059415802 -0.10290733 0.11774717
0.01412043 0.045937225 0.10202289 -0.045546398 0.021403477 0.10407196 -0.07746881 0.04051058
00000000: dc4a 43bc a060 25bd dd1a 4f3d 8178 4f3d
00000010: 4c35 85bd 00e5 6abd fbdd 143d 1f58 a43b
00000020: f7eb 733d 88aa debd 9fc6 bc3d 3178 b73d
00000030: 3bae b6bc 8818 b1bd 767a e3bd b7be f2bd
00000040: 60e2 a6bc 21a6 39bd 942a 6e3d 2c36 b7bd
00000050: 93a6 c23d a3d8 e4bb 8121 463d 4f69 883d
00000060: 9fad 613b 09be 02be fc30 223d 115e e6bd
00000070: 4ab6 d3bd dd12 acbd c01f e43d 79ce 54bd
00000080: b6bd 783d 304a a63c 0e18 8a3d 4251 f9bd
00000090: e269 903b cc01 a8bd 2efe 713d a845 15bd
000000a0: d1d4 e93c e34e e7bc dbb3 ddbd 725c d7bc
000000b0: d57b 173d f2b7 cabc 8339 b93d 2b11 9e3d
000000c0: 4c8c aabd f92e 8d3c 21d3 bcbd 4fbc a83d
000000d0: cb41 48bd a3cc fa3c c1e9 fe3d 972a c2bd
000000e0: 4fd1 a7bd 697c a03d 7286 033d 6575 2f3d
000000f0: 4364 aa3d 0272 8e3c 3be4 e6bc e3fb 023e
00000100: 946d 783d 00e3 6c3a e022 a8bc 646b 373d
00000110: b69e c23d 808b 1e3b d0c6 3ebc 885e 9fbd
00000120: e08a 5f3c 4858 b1bc f8f4 983d 1c9b cb3d
00000130: f051 c6bd d86e ac3c 9418 f93d 7c18 5f3d
00000140: 80c9 b73a acbe b6bd 64f8 fabd 50e2 17bd
00000150: a80f ccbc 5061 763c 80a4 48bb ccc9 f3bd
00000160: 8407 72bd b076 3d3c e6ed cabd b402 3fbd
00000170: 60e5 933b 889a c9bd 90a4 cabc 28cf 9b3d
00000180: 401b 99bc 487d debd b871 32bd 2ae4 b3bd
00000190: a472 debd b880 833d 149f 01bd 40ad 593c
000001a0: 687b 7bbd 3416 343d 341a 60bd 1c89 e43d
000001b0: a4c6 1c3d a218 c4bd 6a2a 9b3d 4c30 293d
000001c0: 28f2 b9bd 08b0 bc3d 90f5 5c3c 8236 e4bd
000001d0: 7c5d e23d f0ad f1bd 0a38 ea3d e0ff c3bd
000001e0: 8e1f ed3d 0043 28ba 9c88 e0bd e864 a23d
000001f0: 10f7 debd 8085 c13b 5225 9f3d 9856 bbbd
00000200: df27 adbd 9cdf e4bd 8f40 ce3d de4b 9b3d
00000210: 9cc7 e43d 93fa 7f3d 2057 dc3d 6319 ae3c
00000220: 68e2 753d 95e7 3abd 8fee 0bbd 1929 183d
00000230: 93ed 8dbd 4351 c23d dedf be3d 48e0 c8bd
00000240: 997c 2f3d 8ac4 df3d 291e 653d 92ff ccbd
00000250: eb25 c6bd 1009 223d 0386 033b 0124 e93d
00000260: 7743 e9bd 7ea3 63bd 21df c8bb 2a23 c53d
00000270: 60b2 d0bd 158c 633d 9de6 063d 32c9 9b3d
00000280: 155f e6bd 0c4f fb3c d778 a13d a8fe 6bbd
00000290: baea d83d 8016 993d fe13 e33d 9b97 883d
000002a0: 126f dcbd 06be 133d 5d64 0e3b fa75 af3d
000002b0: daf8 aabd b34d 1cbc d29c eb3d 2266 c83d
000002c0: ee3e 93bd 2e7f 563d eab2 003e 81c7 af3d
000002d0: da46 ecba 4348 d7bd 1258 d2bd f555 233d
000002e0: 10e2 a0bd 3940 dbbd 7048 cfbd 9d39 39bd
000002f0: d435 14bd ef48 163d d4e7 c5bc 0cd7 73bc
00000300: 1a6e abbd 441c 36bd e4f4 13bd cebb afbd
00000310: 609c d5bc a8db 63bd 9801 053d 300b 68bc
00000320: a8c1 07bd 8440 8a3d 5c5d e83d 8a52 88bd
00000330: 6c27 f4bd 2c29 d13d b284 a3bd 94a3 323d
00000340: b06f c3bd a26a bfbd 1cdf 29bd 64de 003d
00000350: 2069 bdbc 50f2 603d 943f 3cbd 16c7 96bd
00000360: 3cfa d7bd 9e55 fc3d 2ae7 bfbd 5ca0 6abd
00000370: 80e8 9b3b 282d 61bd 144f 14bd 50d2 603d
00000380: 3a2d b13d 9e19 efbd 6099 81bb eab1 e13d
00000390: 80bd 6a3b f4b5 1bbd 40cf fdbb 382e 393d
000003a0: d036 9bbc e0aa 02bc d400 0cbd 3636 f7bd
000003b0: 942d cc3d 5012 e5bd cc3b c6bd 8230 b4bd
000003c0: 6cdf 803d fa7c b93d 087c 5e3d f4fb b03d
000003d0: 805b 5a3d fc5d 733d 14c1 d2bd 6e25 f13d
000003e0: 6059 673c ac28 3c3d 60f1 d03d dc8e 3abd
000003f0: 5856 af3c ae23 d53d f8a7 9ebd 6cee 253d

emb_model.convs.0.lin_rel.bias f4 [64]
0.10158112 -0.11990529 0.02241597 -0.094624 -0.08897539 0.0761154 0.066235706 0.04323642
0.07207523 -0.065040804 0.030868288 0.0026915967 -0.1198107 -0.03591257 -0.0796458 0.016749483
-0.076160915 -0.062394947 0.019298002 0.020256758 -0.1200062 0.09594943 -0.039525077 0.10281253
-0.117811516 0.0076532885 -0.065787524 0.025962234 0.06922078 0.076918066 -0.027918931 -0.089530714
-0.043180235 0.04924424 0.030235969 0.10755136 -0.015190308 0.06128424 -0.078032695 -0.063546345
-0.010122875 0.031271134 0.047695965 -0.06731378 -0.0012390465 -0.098561 0.03240785 -0.04101276
-0.05659738 -0.09580759 -0.106925696 0.049950816 0.02056326 0.0130113885 0.09674763 0.08633126
0.08570233 0.059300244 -0.07404257 -0.13303876 0.11186559 0.024586037 0.008946439 0.115971595
00000000: c309 d03d e890 f5bd b2a1 b73c 3aca c1bd
00000010: bb38 b6bd 64e2 9b3d 96a6 873d ac18 313d
00000020: 2e9c 933d 1d34 85bd 7edf fc3c 8065 303b
00000030: 505f f5bd 0f19 13bd 561d a3bd 3636 893c
00000040: 41fa 9bbd d891 7fbd d816 9e3c 80f1 a53c
00000050: d0c5 f5bd 2281 c43d 0ce5 21bd 608f d23d
00000060: 2a47 f1bd 70c8 fa3b 9cbb 86bd c0ae d43c
00000070: a0c3 8d3d 3887 9d3d 3eb6 e4bc e15b b7bd
00000080: c2dd 30bd 54b4 493d 6cb1 f73c e343 dc3d
00000090: c5e0 78bc 2f05 7b3d 9bcf 9fbd 9624 82bd
000000a0: 6ada 25bc 2916 003d d85c 433d cfdb 89bd
000000b0: 8067 a2ba 59da c9bd 18be 043d fffc 27bd
000000c0: a8d2 67bd c536 c4bd dcfb dabd 3a99 4c3d
000000d0: 4874 a83c b82d 553c 9f23 c63d 72ce b03d
000000e0: b484 af3d d0e4 723d a2a3 97bd 503b 08be
000000f0: c919 e53d a868 c93c 1694 123c 8482 ed3d

emb_model.convs.0.lin_root.weight f4 [64, 64]
0.08549978 -0.10639215 0.046323087 0.009624118 0.035729244 0.017913243 -0.09799116 0.037302565
-0.054746114 0.010752218 0.04693351 -0.04246321 -0.003838184 0.036880124 0.027504865 -0.05862169
-0.1144737 0.043200687 -0.007061375 0.08548242 0.07065936 0.06293852 -0.0018554716 -0.032326277
-0.080201335 0.04780469 -0.0891851 0.0038923956 -0.080029994 0.010492789 0.030596921 0.11650671
-0.07136849 -0.07130568 0.00406409 -0.0776458 -0.081132814 0.06801973 -0.0048664142 -0.0043127453
0.08610225 0.05514008 0.076603554 0.07234785 -0.046761323 -0.07551583 -0.091788985 -0.12015563
-0.02615587 0.030147715 -0.010112585 0.005225409 -0.03125943 -0.020653894 0.06983207 0.1235944
-0.02474672 0.05109163 -0.0064505525 0.0447388 -0.011777435 -0.12451161 -0.1058901 0.10663498
0.03402376 -0.03599909 -0.10313009 0.07603109 0.11393458 0.032882184 0.03502734 0.09165372
0.060922533 -0.034162626 0.118310794 -0.03261827 -0.07057187 -0.12044357 0.09726508 0.0020188987
0.08994064 -0.046413377 0.031013966 -0.07058351 0.030303136 -0.08225626 0.05101466 -0.07218851
-0.0679028 -0.07626553 -0.042179912 -0.10760762 -0.08699657 -0.09066498 -0.041974217 0.03838025
0.035418183 0.025694028 -0.106455326 -0.08272812 -0.11782417 0.013184398 0.096262395 -0.008293331
0.045899287 0.06849775 0.080619276 -0.033096105 0.007737726 -0.09645629 -0.026438445 -0.03748423
-0.0064959675 -0.12493509 -0.05207406 0.09710114 0.028278142 -0.008130252 -0.034405738 -0.073482946
-0.06914443 -0.016641572 -0.024789825 0.11043449 -0.11922212 -0.07871114 0.10256569 -0.12302336
-0.05001785 -0.02572866 -0.079692006 -0.040594477 -0.09692196 -0.12453472 0.103548124 -0.03532844
-0.08764779 -0.07515625 -0.09526535 0.075896 0.06644237 0.051223937 0.09556086 0.059631478
0.08227718 0.113948345 -0.026506623 0.060837064 -0.11564256 -0.075625986 0.05757023 -0.106093906
0.06105771 0.037893165 0.06422664 -0.011856428 0.12013757 0.085674524 -0.10806228 0.11993909
-0.049199045 -0.05947819 -0.09025028 -0.04954403 0.029979283 0.015286566 0.063093156 -0.001650216
-0.042497817 -0.12582694 0.091695614 -0.044601135 0.052920807 -0.12813354 -0.019712232 0.09611712
-0.0626962 -0.08801669 0.046289615 -0.0689929 0.0424676 -0.09453966 -0.1097513 -0.014998952
-0.039951745 -0.1332635 -0.050950054 0.045291364 -0.04963884 -0.035063766 0.11451111 -0.11342883
0.09842035 -0.10495767 0.08549398 0.03509569 0.11152524 0.04600127 0.061303005 -0.0014176667
-0.11841504 -0.073013365 0.10768491 0.12007797 0.031670958 0.03413783 0.0194311 -0.09334725
-0.060614824 0.10259949 0.024950087 0.07841113 -0.0041134804 -0.008367971 -0.12307967 0.08833085
0.085140884 -0.06427522 -0.049602687 -0.11607197 -0.028144583 -0.111025706 0.0591688 -0.01902008
0.10057427 -0.006970361 -0.117972 -0.11865403 -0.029190883 0.048952118 -0.120568484 0.04566282
-0.028343275 -0.08627075 -0.10475515 0.0037744343 -0.010167316 0.044182226 -0.0067042857 -0.018960133
-0.08751802 0.06987104 0.11334726 -0.045388564 0.124589145 -0.018714517 -0.11836293 -0.11680345
-0.07062505 0.029354766 0.010130808 -0.06526418 -0.12117125 0.067773014 0.014963448 0.101937056
00000000: 821a af3d 21e4 d9bd 47bd 3d3d 7aae 1d3c
00000010: d458 123d cbbe 923c 97af c8bd 93ca 183d
00000020: 763d 60bd 122a 303c 5a3d 403d e7ed 2dbd
00000030: 0b8a 7bbb 9d0f 173d e251 e13c 4c1d 70bd
00000040: 3071 eabd 34f3 303d 1b63 e7bb 6811 af3d
00000050: dbb5 903d e9e5 803d 4c33 f3ba 8f68 04bd
00000060: 9940 a4bd dace 433d ada6 b6bd 9017 7f3b
00000070: c4e6 a3bd f2e9 2b3c 65a6 fa3c 129b ee3d
00000080: a529 92bd b608 92bd 0f2c 853b c304 9fbd
00000090: f628 a6bd ee4d 8b3d 7176 9fbb ee51 8dbb
000000a0: 6056 b03d 91da 613d 53e2 9c3d 1c2b 943d
000000b0: cd88 3fbd 0ba8 9abd ddfb bbbd 2814 f6bd
000000c0: d644 d6bc 57f8 f63c 41af 25bc e839 ab3b
000000d0: e309 00bd 5b32 a9bc 1e04 8f3d 101f fd3d
000000e0: a2b9 cabc 7545 513d 285f d3bb 0840 373d
000000f0: 25f6 40bc f1ff febd e9dc d8bd 7163 da3d
00000100: 805c 0b3d c873 13bd de35 d3bd 30b6 9b3d
00000110: 8856 e93d 78af 063d d478 0f3d f2b4 bb3d
00000120: e889 793d 1cee 0bbd ee4c f23d bc9a 05bd
00000130: fc87 90bd 1eab f6bd ea32 c73d 804f 043b
00000140: cc32 b83d f41b 3ebd 0011 fe3c 168e 90bd
00000150: 483e f83c f875 a8bd c0f4 503d 92d7 93bd
00000160: a010 8bbd 1a31 9cbd d8c4 2cbd 6261 dcbd
00000170: 422b b2bd 90ae b9bd 28ed 2bbd 9c34 1d3d
00000180: a812 113d 487c d23c 4005 dabd 5c6d a9bd
00000190: cc4d f1bd 6003 583c 3825 c53d c0e0 07bc
000001a0: e400 3c3d 8c48 8c3d b81b a53d c88f 07bd
000001b0: c08c fd3b e08a c5bd 7095 d8bc 1089 19bd
000001c0: 20dc d4bb f8dd ffbd 9c4b 55bd f6dc c63d
000001d0: 90a7 e73c c034 05bc 08ed 0cbd 3a7e 96bd
000001e0: 989b 8dbd e853 88bc 0814 cbbc 7a2b e23d
000001f0: ba2a f4bd 4e33 a1bd f60d d23d acf3 fbbd
00000200: 84df 4cbd e9c4 d2bc 9035 a3bd 6546 26bd
00000210: 057f c6bd 0f0c ffbd 0a11 d43d 8eb4 10bd
00000220: af80 b3bd 85eb 99bd 7b1a c3bd 5d6f 9b3d
00000230: f012 883d 31d0 513d 6ab5 c33d 2340 743d
00000240: f080 a83d c05d e93d 6b24 d9bc 4930 793d
00000250: 02d6 ecbd cce1 9abd c3ce 6b3d c347 d9bd
00000260: a617 7a3d dd35 1b3d 4289 833d 7741 42bc
00000270: b00a f63d 2076 af3d c24f ddbd a0a2 f53d
00000280: f084 49bd 679f 73bd 24d5 b8bd aeee 4abd
00000290: 1d97 f53c 8174 7a3c fc36 813d 104c d8ba
000002a0: 3112 2ebd c7d8 00be e9ca bb3d aeaf 36bd
000002b0: 7dc3 583d 7035 03be 8c7b a1bc 0dd9 c43d
000002c0: de66 80bd 1842 b4bd 2e9a 3d3d 264c 8dbd
000002d0: 82f2 2d3d 029e c1bd 4ac5 e0bd 2abe 75bc
000002e0: 71a4 23bd 3a76 08be 01b1 50bd 7083 393d
000002f0: 1952 4bbd 069f 0fbd cd84 ea3d 604d e8bd
00000300: 9c90 c93d 0cf4 d6bd 7817 af3d 80c0 0f3d
00000310: 5867 e43d d46b 3c3d dc18 7b3d 00d1 b9ba
00000320: 9683 f2bd 0888 95bd e889 dc3d 70eb f53d
00000330: 68b9 013d 1cd4 0b3d f82d 9f3c d82c bfbd
00000340: 4047 78bd ae1f d23d 2064 cc3c 0496 a03d
00000350: 60ca 86bb d019 09bc 3211 fcbd cee6 b43d
00000360: 585e ae3d baa2 83bd 302c 4bbd 24b7 edbd
00000370: 788f e6bc 7261 e3bd fc5a 723d 00d0 9bbc
00000380: e2f9 cd3d a067 e4bb 4e9b f1bd e200 f3bd
00000390: b821 efbc 0482 483d 9cec f6bd f008 3b3d
000003a0: 2830 e8bc b8ae b0bd de89 d6bd 805c 773b
000003b0: d094 26bc 6cf8 343d a0af dbbb 4852 9bbc
000003c0: a63c b3bd 8c18 8f3d 9c22 e83d 5ce9 39bd
000003d0: 9828 ff3d 304f 99bc 4468 f2bd a636 efbd
000003e0: dea3 90bd 6879 f03c b0fb 253c 3aa9 85bd
000003f0: a228 f8bd 94cc 8a3d 4029 753c 60c4 d03d

emb_model.convs.1.lin_rel.weight f4 [64, 128]
-0.013022204 -0.06278393 -0.01448141 -0.059827417 -0.02671359 0.04793665 -0.08731431 0.08689308
0.009806627 0.03427769 -0.0070065754 -0.05473126 0.0729259 -0.059519503 -0.03766058 -0.00931888
0.04752419 -0.042495653 -0.06835371 -0.016081324 -0.079777144 0.046163443 -0.014969132 -0.02121682
0.067343436 0.019719573 -0.0071670464 -0.023006763 0.0351033 -0.033297166 -0.056566138 -0.059701853
0.043732584 -0.014703956 -0.0144012505 -0.024445709 0.021404969 -0.07764189 -0.04784177 -0.031685196
-0.010993226 -0.022249557 -0.035446726 -0.01842048 -0.010836405 -0.059638765 0.06056253 -0.080440775
0.08063846 -0.07402879 0.036208488 -0.044083163 0.049910758 0.01507329 -0.0015025954 0.02997314
0.035693016 -0.075222515 -0.04776904 -0.036479156 -0.020210825 0.072318695 0.03407619 0.06421601
0.043871626 0.053148396 0.06459233 0.033236455 0.033046983 0.051768795 0.014088664 0.044854205
-0.07104864 0.08506867 -0.08078239 -0.018727204 0.034818787 0.045623276 0.050575532 0.075874686
0.039332364 0.036714926 0.013849896 0.044831235 0.004826018 -0.003298739 -0.05320478 -0.029853107
0.05024338 -0.007081055 -0.042096186 0.0670517 -0.007944723 -0.056491695 -0.0014591778 -0.037939817
-0.054303303 -0.08896285 -0.056001697 0.06282986 0.058971018 0.059907775 -0.059165858 0.004725792
0.08631929 0.08507048 0.04656624 -0.01937443 -0.035217885 0.09011524 -0.04620812 0.016048325
0.038722362 0.053075574 0.08942474 0.041831657 -0.018785926 0.08969542 -0.052386012 0.044843055
0.05635982 -0.033564147 -0.002261238 0.07532757 0.041792344 0.021998474 0.07412855 0.0015365039
0.0027931032 -0.0032048463 0.056382988 -0.06398139 -0.05044949 0.07047713 -0.01270051 0.085488
0.03692245 0.08680652 0.074187346 -0.037812907 -0.018454155 0.0016783612 -0.02905553 -0.02585533
0.08144241 -0.007386709 -0.038793243 -0.0873908 0.016760316 -0.0793622 0.07493464 -0.004753954
-0.013655368 0.061311673 0.081882864 -0.08585067 0.04154413 -0.04363818 -0.017974693 -0.073316336
0.017356452 0.08262351 0.0040450543 0.06602701 0.08470747 -0.00054691854 -0.019230258 0.031187551
0.06898242 0.045150064 -0.06694954 -0.008761466 0.005014706 -0.009987612 0.08261868 -0.03224433
-0.03148554 0.021650193 -0.08603657 0.06530889 0.042112023 -0.05302594 0.0130341975 -0.009489215
-0.06492109 -0.020798163 0.022957008 -0.0020235123 -0.0883437 0.0055472627 -0.059924167 -0.0072794454
0.081962645 -0.028740631 -0.035238095 -0.008296228 0.0034056865 -0.042992853 0.048226435 0.05786269
0.038285386 -0.02734104 -0.021937624 0.064304434 -0.067964904 -0.017972922 0.053579032 -0.0038970662
-0.04633163 0.017719978 -0.087059215 -0.07939652 0.034289327 -0.010057913 0.06560516 -0.0407927
-0.08321825 -0.06504511 0.079248816 0.053657982 -0.017154748 -0.06014278 -0.050607037 -0.08563001
-0.005675252 -0.08387425 0.07087635 0.013619459 -0.02759077 0.020966265 0.04763069 0.021536112
-0.018142195 0.033936504 0.060233336 0.048059206 0.016438114 -0.037198123 -0.0867275 -0.0739925
0.03080452 -0.05768309 -0.029227711 0.06785554 -0.0828237 -0.011155122 -0.08676562 0.02486212
-0.052954048 -0.0785739 0.06385273 0.068146564 0.056230817 -0.04300929 -0.053582437 -0.015833221
00000000: 155b 55bc dc94 80bd 7043 6dbc 980d 75bd
00000010: 75d6 dabc 3959 443d d8d1 b2bd 00f5 b13d
00000020: faab 203c c366 0c3d 6a97 e5bb e32d 60bd
00000030: 2d5a 953d b9ca 73bd fb41 1abd 37ae 18bc
00000040: baa8 423d ec0f 2ebd 08fd 8bbd fbbc 83bc
00000050: 3362 a3bd e115 3d3d 1741 75bc e6ce adbc
00000060: 5beb 893d f18a a13c 8bd9 eabb ae78 bcbc
00000070: 7ac8 0f3d 9c62 08bd e5b1 67bd ee89 74bd
00000080: f020 333d dde8 70bc 39f3 6bbc 5e42 c8bc
00000090: 7959 af3c b602 9fbd bbf5 43bd 56c8 01bd
000000a0: ef1c 34bc b444 b6bc 9630 11bd 8ce6 96bc
000000b0: 2d8b 31bc c747 74bd 6a10 783d 22be a4bd
000000c0: c725 a53d 689c 97bd 5a4f 143d 8c90 34bd
000000d0: 396f 4c3d f6f5 763c bcf2 c4ba 3b8a f53c
000000e0: d732 123d 430e 9abd 78a9 43bd 2b6b 15bd
000000f0: 2c91 a5bc d31b 943d 7a93 0b3d af83 833d
00000100: bcb2 333d 22b2 593d fc48 843d f322 083d
00000110: 465c 073d 840b 543d 24d4 663c 0bb9 373d
00000120: f381 91bd 7c38 ae3d 3d71 a5bd cb69 99bc
00000130: 259e 0e3d 79df 3a3d 4a28 4f3d 3064 9b3d
00000140: f91a 213d 6462 163d adea 623c f5a0 373d
00000150: 9323 9e3b a82f 58bb 41ed 59bd 818e f4bc
00000160: 01cc 4d3d 3208 e8bb 0d6d 2cbd 6752 893d
00000170: 952a 02bc d663 67bd e241 bfba c866 1bbd
00000180: 246d 5ebd 2832 b6bd 0962 65bd f1ac 803d
00000190: 988b 713d db61 753d e657 72bd d1da 9a3b
000001a0: 2bc8 b03d 6f39 ae3d 3ebc 3e3d 20b7 9ebc
000001b0: a140 10bd 578e b83d ba44 3dbd c777 833c
000001c0: 579b 1e3d c665 593d 5124 b73d ac57 2b3d
000001d0: f1e4 99bc 3bb2 b73d b792 56bd 5aad 373d
000001e0: 8ed9 663d 8f7a 09bd 4731 14bb 5745 9a3d
000001f0: 732e 2b3d 2536 b43c b6d0 973d 8464 c93a
00000200: 7f0c 373b 6608 52bb d9f1 663d ad08 83bd
00000210: 20a4 4ebd 5056 903d cd15 50bc 5514 af3d
00000220: ff3b 173d 9ec7 b13d 89ef 973d b5e1 1abd
00000230: 2b2d 97bc 75fc db3a dd05 eebc 8fce d3bc
00000240: 47cb a63d 350c f2bb aae5 1ebd f3f9 b2bd
00000250: ee4c 893c a688 a2bd 5577 993d 0ec7 9bbb
00000260: c4ba 5fbc f321 7b3d 34b2 a73d 7ad2 afbd
00000270: 2d2a 2a3d f3bd 32bd aa3f 93bc e026 96bd
00000280: 1e2f 8e3c 8436 a93d 608c 843b 2b39 873d
00000290: 1c7b ad3d 155f 0fba c688 9dbc 097d ff3c
000002a0: a846 8d3d 46ef 383d d71c 89bd 408c 0fbc
000002b0: 6752 a43b 15a3 23bc fc33 a93d a112 04bd
000002c0: fbf6 00bd bf5b b13c f133 b0bd abc0 853d
000002d0: a87d 2c3d ba31 59bd 638d 553c a778 1bbc
000002e0: 59f5 84bd e960 aabc 5610 bc3c e79c 04bb
000002f0: 8bed b4bd d0c5 b53b 0b73 75bd 6a88 eebb
00000300: 08dc a73d 7971 ebbc d255 10bd e7ec 07bc
00000310: f031 5f3b 4619 30bd 1589 453d 6e01 6d3d
00000320: 23d1 1c3d 51fa dfbc 88b6 b3bc 0bb2 833d
00000330: 2f31 8bbd f33b 93bc b075 5b3d ec65 7fbb
00000340: 3cc6 3dbd 7d29 913c 1a4c b2bd a59a a2bd
00000350: f772 0c3d f2c9 24bc 005c 863d 3f16 27bd
00000360: 546e aabd 5f36 85bd 344d a23d 79c8 5b3d
00000370: 1d88 8cbc 4758 76bd 5349 4fbd c95e afbd
00000380: 77f7 b9bb 43c6 abbd 9f27 913d 2724 5f3c
00000390: 0a06 e2bc 72c1 ab3c 6618 433d 806c b03c
000003a0: f19e 94bc 0101 0b3d 3bb7 763d bbd9 443d
000003b0: 39a9 863c 0f5d 18bd 309e b1bd 6189 97bd
000003c0: c359 fc3c 1b45 6cbd f46e efbc d8f7 8a3d
000003d0: 799f a9bd f9c3 36bc 2cb2 b1bd a5ab cb3c
000003e0: 58e6 58bd 5aeb a0bd 38c5 823d 6d90 8b3d
000003f0: 4952 663d 822a 30bd 4279 5bbd acb4 81bc

emb_model.convs.1.lin_rel.bias f4 [64]
-0.004262863 0.0065866145 0.037056234 0.048576098 -0.033444297 0.026007835 -0.0012791171 0.082955025
-0.03841059 0.013815024 0.080761224 -0.05629535 -0.0848924 0.05135592 0.014256826 0.07761067
-0.047909576 -0.074515834 0.038246576 -0.019071175 -0.014437413 -0.024090905 -0.007966952 0.026007388
-0.054838065 -0.018103914 0.03467087 -0.08164591 0.03749583 0.013470184 0.025295107 0.027825125
0.022295406 0.08979636 -0.07992229 -0.033394318 -0.08815111 0.0044056643 -0.020706557 -0.010445306
-0.07501157 0.0833057 -0.038018763 -0.01902458 -0.062292606 -0.08873506 -0.035793923 0.02077564
0.0031654602 -0.04483668 0.045140985 0.013546239 -0.05549558 -0.06485463 -0.026077753 -0.042843033
-0.0052778036 -0.0637108 0.038566213 0.0127968695 -0.05478112 -0.009482431 0.052233055 -0.06811494
00000000: 7daf 8bbb 87d4 d73b 47c8 173d bbf7 463d
00000010: e3fc 08bd 620e d53c 0ca8 a7ba 53e4 a93d
00000020: 6c54 1dbd 6958 623c 2466 a53d f495 66bd
00000030: 11dc adbd 965a 523d 7695 693c 58f2 9e3d
00000040: d53c 44bd c29b 98bd 71a8 1c3d 273b 9cbc
00000050: e68a 6cbc 4a5a c5bc d287 02bc 720d d53c
00000060: e19d 60bd a94e 94bc 0b03 0e3d f935 a7bd
00000070: 3a95 193d 0cb2 5c3c af37 cf3c 84f1 e33c
00000080: dba4 b63c 27e7 b73d 4cae a3bd 7bc8 08bd
00000090: 9288 b4bd 645d 903b cca0 a9bc ca22 2bbc
000000a0: aa9f 99bd 2e9c aa3d 90b9 1bbd 70d9 9bbc
000000b0: 8826 7fbd baba b5bd a69c 12bd ad31 aa3c
000000c0: 9c73 4f3b aba6 37bd c1e5 383d 0bf1 5d3c
000000d0: 554f 63bd 81d2 84bd 03a1 d5bc 2d7c 2fbd
000000e0: 6df1 acbb cf7a 82bd 9bf7 1d3d f6a9 513c
000000f0: 2b62 60bd 335c 1bbc 54f2 553d d87f 8bbd

emb_model.convs.1.lin_root.weight f4 [64, 128]
-0.043935407 -0.07768803 0.040961694 -0.052043237 0.04972333 0.040491607 -0.06897295 0.009168375
-0.058329053 0.06738168 -0.013675196 -0.046648365 -0.045835525 -0.055768818 0.07931596 -0.07617108
-0.015712509 0.081819326 -0.00814765 -0.012120915 -0.026749311 0.07651995 0.048925597 0.07637138
0.020695645 -0.03948527 -0.056788087 -0.031716872 -0.036686968 -0.038714938 -0.030979391 -0.028689025
-0.06594707 0.040292263 0.0149756735 0.04519372 0.061814908 -0.011024855 -0.07120552 -0.017581446
0.023024173 -0.059868775 0.00650072 0.06504169 -0.080042735 0.067550264 0.04480742 0.047585525
0.08723121 -0.0027248752 -0.04611816 -0.083779514 -0.03535863 -0.08674678 -0.0020106072 0.017273132
0.055438526 0.07785446 -0.081840076 0.06602468 -0.034707926 0.037056662 0.06325746 0.031987898
0.018402673 0.0153980665 0.03917149 0.055611733 -0.087167166 -0.03185892 0.09075025 -0.064673565
-0.029621057 0.05665592 -0.062702306 0.016329091 -0.047121122 0.074488424 -0.051235035 0.0005566178
-0.0761901 -0.0087343315 0.026076112 -0.08592426 -0.037244175 -0.062958635 -0.032178897 0.03044308
0.012127906 0.05443585 0.029208582 0.07194137 -0.040922966 0.034261722 -0.039125405 0.10679379
-0.021239283 -0.05004076 0.07693562 -0.0032992072 0.044533953 -0.087091096 0.073843926 -0.05860118
0.076270595 0.009962029 -0.08144753 0.075668216 0.04728794 0.09840021 -0.07872518 0.030930748
0.071026154 -0.06694306 -0.061505582 -0.04249059 -0.0050487076 0.018508906 0.0065787015 0.072272256
-0.051913552 -0.07592645 -0.06764328 0.043956906 0.073221184 -0.057163917 0.08431634 -0.02254601
-0.016317837 0.0008617239 0.0433256 -0.025500886 -0.04822141 -0.05182149 -0.036784947 -0.013158625
0.06493394 0.04139148 0.07284637 0.02245702 0.052672476 0.012566651 0.07234105 -0.034623213
-0.008892163 -0.0037551788 -0.07364208 -0.03551262 -0.04925897 -0.041557804 0.030493066 0.012400499
0.012173358 0.052077245 -0.031709675 -0.074811034 -0.0017680075 -0.04547239 -0.081759244 -0.034667026
0.043977927 0.085324146 0.04388831 -0.058159582 -0.059173618 0.05724838 -0.047662754 0.07321041
-0.016736386 -0.067548774 -0.059500612 -0.043790165 0.026363296 0.025165271 -0.047669075 0.024645254
-0.05209775 0.009761126 0.045793995 -0.015603237 -0.08202293 0.035519466 0.06095254 0.056994118
0.058598563 -0.028934423 0.052349094 -0.08059439 0.0017037125 0.06870384 -0.025007159 0.023413617
0.022628095 0.028782124 0.05111041 -0.03899889 0.07462796 0.05899706 -0.015244715 0.06533028
0.022460118 -0.030686552 -0.059233844 0.0019681314 0.049966596 0.016400244 -0.05554495 0.037331495
-0.045552336 -0.07922006 0.061508276 0.07925155 -0.06892301 0.042625763 0.06424073 -0.082035795
-0.072679624 0.0007649126 -0.04311764 -0.065565534 0.045884 0.04081741 0.015386002 0.08301528
-0.06673144 0.06771705 -0.015377668 0.019938271 0.081389286 -0.00769691 -0.08663783 0.034083966
-0.026684286 0.050859287 0.03191689 -0.023974802 0.0013047189 0.07726867 0.04979316 -0.056843158
-0.048401956 -0.004938631 -0.033837914 -0.06532098 -0.054022238 0.050650775 0.00393032 -0.024431506
0.062757656 0.042476203 -0.0609392 0.07069228 0.07510088 -0.029397406 -0.01569163 0.075338446
00000000: 9df5 33bd e71a 9fbd 73c7 273d 4a2b 55bd
00000010: b1aa 4b3d 87da 253d b141 8dbd f436 163c
00000020: 72ea 6ebd 68ff 893d ee0d 60bc 5b12 3fbd
00000030: 08be 3bbd d86d 64bd 6870 a23d 95ff 9bbd
00000040: 85b7 80bc e490 a73d b97d 05bc cd96 46bc
00000050: 5f21 dbbc 7eb6 9c3d 3566 483d 9968 9c3d
00000060: ea89 a93c 4ebb 21bd a09a 68bd 8de9 01bd
00000070: 1345 16bd 8e93 1ebd 7ec8 fdbc 3f05 ebbc
00000080: 420f 87bd 8009 253d 875c 753c 0d1d 393d
00000090: a131 7d3d 98a1 34bc 33d4 91bd f706 90bc
000000a0: 319d bc3c f638 75bd fe03 d53b 9434 853d
000000b0: 72ed a3bd cb57 8a3d fc87 373d 0ae9 423d
000000c0: 47a6 b23d d293 32bb 65e6 3cbd 9894 abbd
000000d0: 36d4 10bd 4ca8 b1bd 64c4 03bb 6280 8d3c
000000e0: 8213 633d 2972 9f3d c59b a7bd f337 873d
000000f0: e629 0ebd bac8 173d 218d 813d be05 033d
00000100: 34c1 963c 2c48 7c3c 4972 203d 21c9 633d
00000110: b384 b2bd 807e 02bd 44db b93d 9373 84bd
00000120: dca7 f2bc 0a10 683d 116a 80bd 96c4 853c
00000130: 1402 41bd 638d 983d d4db 51bd fde9 113a
00000140: 8e09 9cbd 711a 0fbc 929d d53c 0ff9 afbd
00000150: 598d 18bd 75f0 80bd 05ce 03bd c463 f93c
00000160: 20b4 463c 20f8 5e3d d646 ef3c ff55 933d
00000170: d79e 27bd 0556 0c3d f641 20bd b4b6 da3d
00000180: 01fe adbc 8af7 4cbd 6c90 9d3d 8337 58bb
00000190: 3c69 363d d15c b2bd 7c3b 973d ca07 70bd
000001a0: c233 9c3d c737 233c f6cd a6bd f0f7 9a3d
000001b0: 00b1 413d 0d86 c93d ab3a a1bd 7b62 fd3c
000001c0: 2976 913d 7119 89bd 47ed 7bbd 9d0a 2ebd
000001d0: a16f a5bb fd9f 973c 2692 d73b 7a03 943d
000001e0: 4ea3 54bd 547f 9bbd 8f88 8abd 280c 343d
000001f0: fdf4 953d b624 6abd 0cae ac3d 69b2 b8bc
00000200: fcac 85bc 50e5 613a 2f76 313d 3ce7 d0bc
00000210: d083 45bd c542 54bd d0ab 16bd 4697 57bc
00000220: 16fc 843d 1d8a 293d 7a30 953d c9f7 b73c
00000230: 18bf 573d 5be4 4d3c 8b27 943d 12d1 0dbd
00000240: 6fb0 11bc 7219 76bb a9d1 96bd ae75 11bd
00000250: c6c3 49bd 8438 2abd 98cc f93c 762b 4b3c
00000260: c472 473c f34e 553d 01e2 01bd 8736 99bd
00000270: 7dbc e7ba 4241 3abd 6471 a7bd 03ff 0dbd
00000280: 3322 343d 6dbe ae3d 3bc4 333d be38 6ebd
00000290: 0960 72bd 477d 6a3d 053a 43bd 57ef 953d
000002a0: bf1a 89bc 0357 8abd eab6 73bd 515d 33bd
000002b0: d7f7 d73c 6627 ce3c a640 43bd d8e4 c93c
000002c0: 7364 55bd 21ed 1f3c 7c92 3b3d b8a4 7fbc
000002d0: a3fb a7bd dc7c 113d 5fa9 793d aa72 693d
000002e0: 0c05 703d e207 edbc 016c 563d ac0e a5bd
000002f0: 1b4f df3a 99b4 8c3d d0db ccbc eacd bf3c
00000300: 8e5e b93c 7dc8 eb3c 2659 513d 4dbd 1fbd
00000310: 8bd6 983d e7a6 713d f8c4 79bc e2cb 853d
00000320: 48fe b73c 5d62 fbbc 309f 72bd c4fb 003b
00000330: c6a9 4c3d ce59 863c 1a83 63bd e9e8 183d
00000340: 1695 3abd 203e a2bd 1af0 7b3d a34e a23d
00000350: 8227 8dbd 5a98 2e3d a590 833d 6202 a8bd
00000360: 0ed9 94bd 6a84 483a 1f9c 30bd 3947 86bd
00000370: dcf0 3b3d 2830 273d 9215 7c3c ea03 aa3d
00000380: 7eaa 88bd 3daf 8a3d 9df2 7bbc 9655 a33c
00000390: 6daf a63d 5c36 fcbb 2d6f b1bd a19b 0b3d
000003a0: 0199 dabc d451 503d 49bb 023d ce66 c4bc
000003b0: 1a03 ab3a 093f 9e3d eaf3 4b3d 5fd4 68bd
000003c0: 2141 46bd 3dd4 a1bb a099 0abd 02c7 85bd
000003d0: 6c46 5dbd 3077 4f3d eac9 803b 9524 c8bc
000003e0: 1687 803d 87fb 2d3d 629b 79bd 1dc7 903d
000003f0: 7dce 993d d4d2 f0bc bc8b 80bc 0b4b 9a3d

emb_model.convs.2.lin_rel.weight f4 [64, 192]
0.055343315 0.028299041 0.046950225 -0.015999999 0.047142666 0.0059544463 0.017039888 0.016113691
-0.06541706 0.049047913 0.063380875 -0.046381664 -0.046265725 0.055630103 -0.014391566 0.024317276
-0.017979776 -0.05906681 0.048451945 -0.013402439 -0.054787807 -0.006118072 0.04840532 -0.055742968
-0.013563637 0.045577124 0.06857858 0.035730865 0.026656292 0.06559493 -0.02002524 -0.07123132
0.07891454 0.016508136 -0.010266081 0.0638113 0.0038827127 0.006939584 -0.040366214 0.020217624
0.061387554 0.041196864 0.04303759 0.0071504246 -0.0060928105 0.034825858 -0.040076368 -0.06184662
0.054688502 -0.06353941 0.04741306 -0.04845875 -0.07291576 -0.0016088688 0.067979686 -0.021456817
0.045368604 -0.05810918 0.010177922 0.052034203 0.037751693 -0.0032513717 0.068911135 -0.038281877
-0.036268007 0.011071496 -0.06269132 0.040690675 0.01779236 0.04271694 -0.0138924355 -0.043750547
0.035445217 0.048423287 0.07104365 -0.035613358 0.009194297 -0.007757189 -0.047935456 -0.022453291
-0.0053735804 0.07096668 -0.0100679975 0.0524349 0.06019123 -0.00667278 0.05518354 0.057409752
0.062332842 -0.06748981 0.03134939 0.017798148 0.03348462 0.022508085 0.0092635425 0.028515
0.066304296 -0.054104112 -0.041699767 -0.031707216 0.004760088 -0.061237123 -0.022549625 -0.029074399
0.014154549 -0.03509126 -0.06569078 -0.025319865 0.034336947 -0.061873328 -0.0067667575 0.03790235
-0.016030874 -0.0334695 -0.056268174 0.046349514 0.062151726 0.024719737 0.011902029 0.017760674
0.06866986 -0.0430985 0.012764579 0.041688763 -0.064795144 -0.0628327 0.038713273 -0.0148190465
-0.035290673 -0.029924663 0.015257155 -0.050994586 -0.011596813 -0.07705935 -0.044006422 -0.055711053
-0.07040263 -0.040038403 -0.035537932 0.04355801 0.024375558 0.033422507 -0.06463394 0.029429507
0.04893454 0.032576885 -0.064296305 0.055407606 0.05297037 0.01083021 -0.053392433 -0.027013965
0.0017114622 -0.07938467 0.022869442 -0.0568965 -0.055104174 0.066570155 0.04110572 0.065773875
0.06832489 -0.07007807 0.07424424 0.0664516 -0.03492199 0.015414071 -0.0665883 -0.06955196
-0.048067342 0.03352861 0.052550156 0.058212843 -0.00039674176 -0.001615073 -0.03991801 -0.014821819
-0.0025909794 -0.027974032 -0.0062908796 -0.030606834 0.06680204 -0.022610357 0.052357066 0.030129619
0.07374957 -0.07291505 -0.054551043 -0.08213306 0.040979885 0.043858606 0.06018291 -0.027989162
-0.05311924 0.049781855 -0.057518505 0.0049059945 -0.051709063 -0.023347791 -0.033072717 -0.008786067
0.04242436 0.01116336 -0.023120994 0.029279165 -0.041783135 -0.02854231 -0.062007453 0.011919143
0.04107116 0.060691897 -0.029979844 -0.04788111 -0.03954297 0.047735456 -0.04612014 -0.008496433
-0.04737519 0.07208104 -0.04382401 0.03486266 -0.06653102 -0.058233507 -0.059527032 -0.015346309
-0.053813603 0.01984114 -0.052584335 0.06564781 0.030130098 -0.020931972 -0.03794908 0.05458837
0.03013606 0.04008652 -0.058485057 -0.07194983 -0.014941675 -0.0016078673 -0.03739305 -0.0625636
-0.022974301 -0.029137023 -0.055350408 -0.029812898 0.06315307 -0.07055413 -0.02369775 0.05064794
0.013314829 0.020379838 0.052896813 -0.067958705 -0.06903554 -0.05092904 -0.06689923 -0.007014851
00000000: acaf 623d 64d3 e73c e14e 403d 6e12 83bc
00000010: ab18 413d 841d c33b 3c97 8b3c dc00 843c
00000020: 61f9 85bd 77e6 483d d5cd 813d b3fa 3dbd
00000030: 2181 3dbd 64dc 633d 9aca 6bbc 0635 c73c
00000040: 534a 93bc 0af0 71bd 8c75 463d e795 5bbc
00000050: 2e69 60bd 1c7a c8bb a844 463d bd52 64bd
00000060: 043a 5ebc 14af 3a3d ed72 8c3d 875a 123d
00000070: 4c5e da3c a256 863d f90b a4bc bae1 91bd
00000080: f29d a13d 123c 873c 1133 28bc 80af 823d
00000090: 1c75 7e3b 7365 e33b 0b57 25bd 6e9f a53c
000000a0: 8471 7b3d 0bbe 283d 2f48 303d 1c4e ea3b
000000b0: 33a6 c7bb 8fa5 0e3d 1e27 24bd e252 7dbd
000000c0: 0d01 603d f320 82bd 3234 423d af7c 46bd
000000d0: dc54 95bd aee0 d2ba ef38 8b3d 35c6 afbc
000000e0: 6ed4 393d e403 6ebd 4dc1 263c d121 553d
000000f0: 85a1 1a3d f714 55bb 4821 8d3d 75cd 1cbd
00000100: c38d 14bd 3865 353c 4f64 80bd 44ab 263d
00000110: 49c1 913c f5f7 2e3d 199d 63bc c633 33bd
00000120: 012f 113d 7f57 463d 557f 913d 50df 11bd
00000130: ada3 163c 0530 febb f857 44bd f7ef b7bc
00000140: dc14 b0bb fb56 913d 3ef4 24bc fac5 563d
00000150: 148b 763d 56a7 dabb 2308 623d 7d26 6b3d
00000160: b950 7f3d 1938 8abd 3868 003d 6ccd 913c
00000170: 2b27 093d e062 b83c 1dc6 173c 4a98 e93c
00000180: 8cca 873d 469c 5dbd 60cd 2abd 6ddf 01bd
00000190: 83fa 9b3b c7d3 7abd feb9 b8bc 6f2d eebc
000001a0: 7be8 673c dabb 0fbd e388 86bd 9b6b cfbc
000001b0: e6a4 0c3d e36e 7dbd adbb ddbb 7f3f 1b3d
000001c0: 2e53 83bc 5017 09bd 7579 66bd fdd8 3d3d
000001d0: cf92 7e3d 0c81 ca3c ba00 433c d57e 913c
000001e0: c9a2 8c3d 0e88 30bd 8622 513c d6c1 2a3d
000001f0: 51b3 84bd 6eae 80bd cf91 1e3d 96cb 72bc
00000200: f48c 10bd 9124 f5bc 25f9 793c b3df 50bd
00000210: 8f00 3ebc 4bd1 9dbd 1440 34bd 4631 64bd
00000220: 412f 90bd 4fff 23bd 3990 11bd e269 323d
00000230: 40af c73c 0ae6 083d cd5e 84bd 2616 f13c
00000240: 966f 483d 576f 053d c8ad 83bd 16f3 623d
00000250: 75f7 583d 3171 313c 06b2 5abd 644c ddbc
00000260: 2453 e03a 6e94 a2bd b258 bb3c 4e0c 69bd
00000270: eab4 61bd ef55 883d 795e 283d 74b4 863d
00000280: eced 8b3d 1785 8fbd 5d0d 983d c717 883d
00000290: 5c0a 0fbd 4d8b 7c3c 725f 88bd 4271 8ebd
000002a0: 43e2 44bd 4c55 093d d53e 573d 9770 6e3d
000002b0: c701 d0b9 dbb0 d3ba 1181 23bd 37d7 72bc
000002c0: 6ccd 29bb cc29 e5bc b923 cebb 2fbb fabc
000002d0: 82cf 883d 5b39 b9bc 5d74 563d 64d2 f63c
000002e0: 040a 973d 7c54 95bd ea70 5fbd 6135 a8bd
000002f0: 86da 273d 15a5 333d 5b82 763d 8749 e5bc
00000300: 8f93 59bd 0fe8 4b3d 8698 6bbd 77c2 a03b
00000310: e2cc 53bd de43 bfbc 4277 07bd 70f3 0fbc
00000320: 2ac5 2d3d 87e6 363c 3d68 bdbc dcda ef3c
00000330: cb24 2bbd 90d1 e9bc 87fb 7dbd 8248 433c
00000340: 3c3a 283d 1198 783d 4a98 f5bc fc1e 44bd
00000350: cff7 21bd 4186 433d 79e8 3cbd 9f34 0bbc
00000360: 7d0c 42bd 399f 933d ce80 33bd 26cc 0e3d
00000370: 6a41 88bd 4286 6ebd 9ed2 73bd 166f 7bbc
00000380: a76b 5cbd e389 a23c ac62 57bd 5c72 863d
00000390: 65d3 f63c 8779 abbc 7f70 1bbd 0e98 5f3d
000003a0: e6df f63c c331 243d 078e 6fbd 6f5a 93bd
000003b0: edcd 74bc 13bf d2ba 7429 19bd 5821 80bd
000003c0: 9a34 bcbc c4b0 eebc 1cb7 62bd 2e3a f4bc
000003d0: 6656 813d af7e 90bd c921 c2bc 3774 4f3d
000003e0: 7126 5a3c 9ef3 a63c 54aa 583d ef2d 8bbd
000003f0: 8162 8dbd f89a 50bd 7702 89bd d6dc e5bb

emb_model.convs.2.lin_rel.bias f4 [64]
-0.015711395 0.0068341326 -0.018179763 0.03602381 -0.005734555 -0.034738146 -0.061105825 0.060416237
-0.024561081 0.059830826 0.052943155 -0.063258395 0.0115272235 -0.064014755 0.0101762945 0.031050151
-0.053468768 -0.06342571 -0.048260696 0.0064440803 -0.026484283 0.05190731 -0.05140304 0.026122037
-0.039774396 -0.02063765 -0.065653704 -0.06139806 0.023328654 -0.029239565 -0.055926222 0.009431233
0.02827426 0.007733586 -0.000284657 -0.008151485 0.050157584 -0.04357712 -0.0020486831 -0.06787909
-0.02050324 -0.012614263 0.036673043 0.060262438 0.019568799 0.004495356 -0.03211011 0.06209468
0.04935991 -0.014490688 -0.07603059 0.008583292 -0.0515794 -0.052234225 -0.047854885 -0.069707386
-0.040125255 0.050550394 0.03941828 -0.032834664 0.07025085 -0.02418741 0.0034973042 0.05438384
00000000: 2fb5 80bc dcf0 df3b baed 94bc b48d 133d
00000010: efe8 bbbb 9649 0ebd 1a4a 7abd 0477 773d
00000020: 5234 c9bc 2b11 753d ecda 583d 9e8d 81bd
00000030: aedc 3c3c 2b1a 83bd 79ba 263c e35c fe3c
00000040: 1102 5bbd 57e5 81bd 02ad 45bd dd28 d33b
00000050: 91f5 d8bc c29c 543d fe8b 52bd e2fd d53c
00000060: 7aea 22bd 4a10 a9bc 7375 86bd 887c 7bbd
00000070: bc1b bf3c d087 efbc e512 65bd 7585 1a3c
00000080: 6c9f e73c 056a fd3b 043e 95b9 ce8d 05bc
00000090: 0a72 4d3d ec7d 32bd 3343 06bb 3104 8bbd
000000a0: 69f6 a7bc 0eac 4ebc 7936 163d bfd5 763d
000000b0: bf4e a03c c84d 933b e485 03bd fe56 7e3d
000000c0: 9e2d 4a3d 5a6a 6dbc edb5 9bbd f0a0 0c3c
000000d0: ec44 53bd 8ef3 55bd 7c03 44bd bfc2 8ebd
000000e0: 615a 24bd ee0d 4f3d 1075 213d a47d 06bd
000000f0: addf 8f3d ad24 c6bc 0733 653b 97c1 5e3d

emb_model.convs.2.lin_root.weight f4 [64, 192]
0.038978077 0.043842096 -0.025753066 -0.06582088 0.041137394 -0.037106607 -0.017821921 -0.0015110967
0.07396618 0.05713581 -0.05136434 0.054317094 0.030935925 -0.041327216 0.069885224 -0.027734816
0.0008257377 -0.024074659 -0.058304086 0.052285098 0.0038353587 -0.034123607 -0.035850268 0.03752273
-0.048654314 0.00988222 -0.035288543 0.067838155 0.061908726 0.04248257 -0.061225917 -0.049667664
0.08073662 -0.026102593 -0.028082581 0.055078153 0.051256698 -0.042807642 0.039988358 -0.057628844
-0.07423946 -0.043775976 0.04416401 -0.007359712 0.05405086 -0.03118486 -0.052997064 -0.05926611
0.04638629 0.037301973 -0.06588135 -0.051466838 -0.031669438 0.0007491184 -0.05357792 -0.03211421
0.046429433 0.02564706 0.041776717 -0.03474973 -0.069662824 -0.050877355 -0.049030416 0.061525065
-0.06594357 -0.055519797 -0.039880216 -0.01336884 -0.0025383567 -0.07696428 -0.070922524 0.026090952
0.06656715 -0.02269622 -0.028324695 0.03343123 0.06546643 0.012846239 -0.053649247 -0.040425036
0.07483513 0.013815613 -0.033453207 -0.0060667624 0.015074641 0.057300072 0.009616266 -0.012907047
0.030609602 -0.047076054 -0.029069142 -0.057851113 0.049162798 -0.037580974 -0.0720078 -0.08840354
0.05850271 -0.021512387 0.069955915 0.04874667 0.05211906 0.026581943 -0.043602694 0.03429891
-0.031660818 0.0030142316 -0.06816469 -0.04508319 -0.033328917 -0.054494794 -0.019331789 -0.06061743
0.0356574 0.0050154957 0.03099933 -0.07446041 0.06934307 0.031174686 -0.06831749 -0.032759257
0.06581151 0.05518514 0.0008960676 -0.01781043 0.058245167 0.01178735 -0.039012283 -0.0075379475
-0.043617725 5.376133e-05 -0.046848617 0.034088444 -0.019580843 -0.06704566 -0.042533945 -0.025506802
-0.0013878727 -0.01064312 -0.043231744 0.01699523 -0.040907037 0.023559153 0.036440343 0.05184792
0.06559839 -0.027837234 0.026329387 -0.013908942 0.030267585 0.014799947 -0.07863281 0.0095943855
-0.013519563 -0.083023235 0.066516966 -0.030139912 -0.021106536 0.051717073 0.045507047 -0.066341534
-0.071915396 -0.026315069 0.06628702 0.01612401 0.00644181 -0.08784091 -0.017274434 0.06724783
-0.0028844257 -0.025827093 0.050038807 0.05707146 -0.0044908407 0.04032542 0.051736522 0.007511883
-0.009819534 -0.04807926 0.0053721443 0.027258705 0.003817064 0.047093466 0.06438314 -0.032412685
0.05642577 -0.083127946 -0.0156131955 -0.026563441 0.04809688 -0.0053703557 0.04830959 0.03167539
0.004017414 0.014746391 0.016550092 -0.0033420208 0.04095001 0.0077212504 0.0139158135 0.049525723
-0.010486333 0.059638556 -0.03344318 -0.023127643 0.019409122 0.013340329 0.025530498 0.07042893
0.07107931 -0.026774012 -0.052042257 -0.0032096864 0.0539429 -0.003329632 -0.018894324 -0.046231862
0.045047548 -0.014399038 -0.03134718 0.009808952 0.03421355 0.04462804 0.025783328 0.025794676
-0.009248807 0.012264294 0.054834604 -0.029207965 -0.0045251143 -0.047564067 0.0071203867 0.03701285
-0.028688693 0.068886 -0.01789508 0.00015256036 0.024763308 -0.07164325 0.0037128439 -0.041741952
-0.013298027 0.045903772 -0.059226874 0.029945593 -0.018638568 0.02392319 -0.021055868 -0.0359502
0.020824416 0.06235343 0.019306494 0.002489651 -0.04288546 -0.0054987282 -0.026133297 -0.058838073
00000000: 7aa7 1f3d c593 333d 18f8 d2bc 19cd 86bd
00000010: af7f 283d 19fd 17bd 47ff 91bc fe0f c6ba
00000020: 957b 973d 3d07 6a3d 6a63 52bd 9a7b 5e3d
00000030: 566d fd3c ba46 29bd fc1f 8f3d 2034 e3bc
00000040: 5276 583a 3838 c5bc 44d0 6ebd e628 563d
00000050: a45a 7b3b 32c5 0bbd bbd7 12bd 6fb1 193d
00000060: bf49 47bd 09e9 213c b88a 10bd bbee 8a3d
00000070: 0194 7d3d 3402 2e3d 07c8 7abd 5270 4bbd
00000080: 3e59 a53d 1bd5 d5bc 710d e6bc a199 613d
00000090: 8bf2 513d 1157 2fbd d5ca 233d 390c 6cbd
000000a0: dc0a 98bd 704e 33bd 52e5 343d bd29 f1bb
000000b0: 6f64 5d3d 6477 ffbc 7313 59bd 05c1 72bd
000000c0: 8dff 3d3d f4c9 183d cdec 86bd e4ce 52bd
000000d0: d0b7 01bd 7c60 443a 8574 5bbd 318a 03bd
000000e0: ca2c 3e3d c819 d23c 101e 2b3d bc55 0ebd
000000f0: 62ab 8ebd c664 50bd 1ed4 48bd b501 7c3d
00000100: 6c0d 87bd ba68 63bd 7059 23bd fb08 5bbc
00000110: 8f5a 26bb 739f 9dbd d43f 91bd b1bc d53c
00000120: 5c54 883d 6ced b9bc 3109 e8bc 2fef 083d
00000130: 4313 863d 0879 523c 50bf 5bbd b994 25bd
00000140: 2943 993d e25a 623c 3b06 09bd b1cb c6bb
00000150: a1fb 763c 7bb3 6a3d 8b8d 1d3c 1478 53bc
00000160: fdc0 fa3c d2d2 40bd 6922 eebc 4af5 6cbd
00000170: ee5e 493d 82ee 19bd d378 93bd ea0c b5bd
00000180: 8aa0 6f3d bf3a b0bc 0c45 8f3d 97aa 473d
00000190: cc7a 553d 60c2 d93c bd98 32bd 047d 0c3d
000001a0: c6ae 01bd 6a8a 453b ee99 8bbd 27a9 38bd
000001b0: e783 08bd ef35 5fbd b35d 9ebc fb49 78bd
000001c0: 7e0d 123d 0759 a43b 4ff2 fd3c b37e 98bd
000001d0: bd03 8e3d 0e62 ff3c 0aea 8bbd 922e 06bd
000001e0: 2fc8 863d d009 623d 14e6 6a3a 2ee7 91bc
000001f0: 7c92 6e3d bb1f 413c 58cb 1fbd e300 f7bb
00000200: 80a8 32bd ca7d 6138 56e4 3fbd 53a0 0b3d
00000210: 0168 a0bc 3c4f 89bd 1338 2ebd a4f3 d0bc
00000220: 48e9 b5ba 7b60 2ebc c513 31bd 9539 8b3c
00000230: 238e 27bd 20ff c03c 7842 153d 7c5e 543d
00000240: 7358 863d e90a e4bc bab0 d73c 55e2 63bc
00000250: baf3 f73c 7a7b 723c 3d0a a1bd c531 1d3c
00000260: 2881 5dbc 1608 aabd 0c3a 883d fae7 f6bc
00000270: 9de7 acbc 48d5 533d 9965 3a3d 12de 87bd
00000280: 6148 93bd b392 d7bc 7dc1 873d 8016 843c
00000290: d215 d33b efe5 b3bd 1d83 8dbc 3bb9 893d
000002a0: a208 3dbb 5793 d3bc 7ef5 4c3d c3c3 693d
000002b0: e727 93bb 452c 253d ade9 533d 3e26 f63b
000002c0: 1ce2 20bc c2ee 44bd d008 b03b a64d df3c
000002d0: b527 7a3b 14e5 403d 4fdb 833d 2ac3 04bd
000002e0: b51e 673d fc3e aabd 7dce 7fbc 939b d9bc
000002f0: 3c01 453d cff9 afbb 47e0 453d 0ebe 013d
00000300: 83a4 833b d99a 713c 0f94 873c ce05 5bbb
00000310: 33bb 273d 8b02 fd3b 27ff 633c 7cdb 4a3d
00000320: dece 2bbc 8f47 743d b7fb 08bd 2f76 bdbc
00000330: e1ff 9e3c 6591 5a3c 5625 d13c 0b3d 903d
00000340: 0792 913d 2c55 dbbc 432a 55bd 9a59 52bb
00000350: 3bf3 5c3d f535 5abb 45c8 9abc 9f5d 3dbd
00000360: c783 383d f1e9 6bbc e765 00bd bab5 203c
00000370: 8223 0c3d e4cb 363d 8f37 d33c 5b4f d33c
00000380: 4f88 17bc 2df0 483c 409a 603d 8b45 efbc
00000390: 6947 94bb 8ad2 42bd 2252 e93b c99a 173d
000003a0: 8d04 ebbc 1a14 8d3d b498 92bc 9cf8 1f39
000003b0: 6cdc ca3c b2b9 92bd 2f53 733b 9cf9 2abd
000003c0: f8df 59bc 9805 3c3d e197 72bd 7650 f53c
000003d0: e9af 98bc 91fa c33c 5b7d acbc 8440 13bd
000003e0: f797 aa3c 4f66 7f3d a728 9e3c 6a29 233b
000003f0: aaa8 2fbd ad2e b4bb 7f15 d6bc 3100 71bd
