matching/src/ckpt/model.pt (torch, 568017 bytes, 25 tensors)

emb_model.learnable_skip f4 [4, 4]
00000000: 6385 8e3f 0000 803f 0000 803f 0000 803f
00000010: 7d85 613f 1c8e 8e3f 0000 803f 0000 803f
00000020: ae23 573f d8ee 8a3f dde7 8c3f 0000 803f
00000030: 27c2 643f 71f2 7c3f c355 843f aeb2 923f
1.1134456 1.0 1.0 1.0 0.8809431 1.1137118 1.0 1.0
0.8403882 1.0854139 1.1008259 1.0 0.8935875 0.98807436 1.0338672 1.1460779

emb_model.pre_mp.0.weight f4 [64, 1]
00000000: 5db1 6f3f 429e f73c 0ae0 b6be d468 6c3f
00000010: 9c07 8d3e b7bc fabe 2649 753f 6674 efbe
00000020: 7aef 5f3e 3f4e 84bf 8637 7dbf e496 733f
00000030: f113 2d3f 88ae 5bbe 388f 2d3f f226 45bf
00000040: f5e7 543f fe47 88be 1124 d1bd f115 923f
00000050: 6af0 4abe 719c 673f fd87 c23d cabb 783f
00000060: 1bcd 8bbe 1eaa bcbd e0e1 9abe d099 96be
00000070: aaff d8be e19b 80bf 7ccf 5c3f 80c8 2c3f
00000080: 385a 1d3f 34a7 183e 2293 333f 0fbe c8be
00000090: 08a0 8dbe c821 6ebf 3e94 933e db08 8a3f
000000a0: 315d 2d3e 33c3 213f 2fbd 433f 8eee 873e
000000b0: d59c 46bf 9f66 853f bff1 2dbf e89f 06be
000000c0: a384 2fbe 3ac2 7d3f cecd 5cbf 44c8 443f
000000d0: 32ba 713e 83f3 223f d641 5ebf 0b1b c63d
000000e0: 536b 913e 7346 74be ed36 3cbf 14f1 1cbf
000000f0: dd0c 5b3f b94d 5c3f 6814 813f 034d d8be
0.9363001 0.03022683 -0.35717803 0.92347455 0.27544868 -0.48972103 0.9581474 -0.46768492
0.21868697 -1.0336379 -0.9891285 0.95152116 0.67608553 -0.21453297 0.6779666 -0.7701255
0.8316644 -0.26617426 -0.10211957 1.1412946 -0.19818273 0.90473086 0.09498594 0.97161543
-0.2730492 -0.09212135 -0.30250454 -0.29414225 -0.42382556 -1.004757 0.86254096 0.6749344
0.6146579 0.14907533 0.7014638 -0.39207503 -0.27661157 -0.93020296 0.28824037 1.0783952
0.16930081 0.63188475 0.76460546 0.2654919 -0.77583057 1.0421942 -0.67947 -0.13146937
-0.1714044 0.9912449 -0.86251533 0.7686808 0.23606184 0.6365282 -0.8681921 0.09673127
0.28402194 -0.23854999 -0.7352131 -0.61305356 0.855665 0.86056095 1.0084352 -0.42246255

emb_model.pre_mp.0.bias f4 [64]
00000000: 1f77 a03d 8c8f 69bf 4b95 15bf a156 38be
00000010: a8c2 5c3f afe1 febd be39 a03b 153d 263f
00000020: 1b4c 923e 0ab1 473e e270 52bf 0eb2 13bf
00000030: 5e00 dabe 5f0b 743f fcc0 413e 8245 a2bd
00000040: 5c33 963d a213 0abf 837c b53e 6964 ecbe
00000050: 429f c6be ffe3 643f 50ff 673f 0180 09bd
00000060: b5ae 0f3b d276 483f 20c7 b3be f205 ec3e
00000070: 306b 583f 34bf b93e 9eb8 2b3e 7628 953a
00000080: 7a39 1ebf 92a3 3f3f 9221 093f 07cb c33d
00000090: eb15 303f 4924 25bf e29e d43b 93c6 ee3b
000000a0: 4218 5b3f 0df2 993d 13c8 3ebe 09ce 3c3f
000000b0: 3e2f 083f 9c34 68be 89d6 983e 8e5f d83e
000000c0: 50c6 723d 0445 be3e 52a3 b83d 248e b43e
000000d0: e992 04be 7007 babd 7cff a6be 68d4 2fbe
000000e0: c94f 3d3f 4371 e2be ebcb 45bf 6098 3dbf
000000f0: 13e1 213f ac22 04bf bcc9 f1be 944b eabc
0.078352205 -0.9123466 -0.5843093 -0.18001796 0.8623452 -0.124453895 0.004889696 0.64936954
0.2857369 0.19501129 -0.82203496 -0.57693565 -0.42578405 0.9532985 0.18921274 -0.07923414
0.07334015 -0.5393621 0.35446557 -0.46170357 -0.3879338 0.89410394 0.9062395 -0.03356934
0.0021924202 0.78306305 -0.35112858 0.46098286 0.84538555 0.3627869 0.16769645 0.0011379856
-0.6180645 0.74858963 0.5356685 0.09560209 0.68783444 -0.6450849 0.006488667 0.0072868555
0.8558389 0.07516871 -0.1863101 0.73751885 0.53197086 -0.22676319 0.29851177 0.42260402
0.059271157 0.3716203 0.09015526 0.35264695 -0.12946667 -0.0908345 -0.32616794 -0.1717087
0.7394987 -0.44227037 -0.7726428 -0.7406063 0.6323406 -0.51615405 -0.47224224 -0.028600492

emb_model.convs.0.lin_rel.weight f4 [64, 64]
00000000: 43bc 92bd 0b51 bd3d 82fb f8bb 1109 42bd
00000010: 18f6 b53d 0bc7 c6bb acc8 803d e3d1 0d3d
00000020: 0a9d 0d3d 06e8 fb3d 672f b6bd a92e a53d
00000030: 6b2d f6bd 9a26 6abd daf8 063d 82c8 cdbd
00000040: 4b2e ecbd ee10 01bd c7e6 8a3c d4e0 23bd
00000050: 3040 53ba abbd c43d 0d0e d13d ba10 d03d
00000060: 7b99 1cbd f4a3 9bbd db9d c93d 34da 163d
00000070: fadc be3d ec52 52bd 99b2 c5bd 937a 7a3d
00000080: 2327 da3c 4ad5 fc3d 9b06 9a3c 2a7a af3d
00000090: 0c28 573d 0d60 5bbc c408 31bd 58a1 cebd
000000a0: 23fa 513d 852b ecbd a08d c23d 3311 ab3c
000000b0: afab 013d 9d6b 12bd 9bf9 9fbc 0fe7 93bd
000000c0: ae92 d03d b4e6 803d c52d 233d 3075 bd3c
000000d0: 8581 cbbc cd76 c4bd 817c 0d3d 8068 57bd
000000e0: f905 e53d d731 d53c dc0c ae3d 0fb6 a13d
000000f0: 39c7 103d fa22 c33d 0174 fdbd 4ce4 85bd
00000100: 3596 30bd b7b2 82bd 53db 593d c4d0 92bd
00000110: 1536 5e3d 4e40 bf3d 81fd b0bd f52a ad3d
00000120: 7332 153d add3 de3d 730d 21bd 72ba 8a3d
00000130: fb86 be3c d224 8ebc 9ea9 3dbd 6003 29bd
00000140: 994f e03d 587c acbc b0d8 b73d 4b7f d73c
00000150: d7b8 5fbd de68 4d3b 76dc 68bd f59e d73d
00000160: b148 eebc aa84 cc3c 6403 72b8 e41e d1bd
00000170: e8ed 983d d4b9 d8bd 3aa8 953d 9511 a2bd
00000180: 5952 ccbc 885a 4bbd 2294 9b3d 13f0 efbd
00000190: a3b4 9dbd 737d 043d 7075 643d 80e2 e93c
000001a0: ecd3 3bbd f807 c7bc 74c5 7a3d 4af6 cfbd
000001b0: f0f3 fdbd 986e e13d 6a48 b03d c91a 363d
000001c0: a889 ad3d 9ad8 b0bd 0f47 22bd 814b 2bbc
000001d0: 5c87 06bd 5953 cabd 2e5b 8abd b922 a9bd
000001e0: 8e46 a8bd 3ff2 98bd 871d 803d cf63 bebd
000001f0: e38a 9f3d 9443 23bd cc3d 3cbd ab2b c6bd
00000200: a813 543d 203d a5bd 00fe 953a 80f5 f0bb
00000210: 2aec b2bd f0f0 75bd e003 583d 20dd 073d
00000220: 4c54 ad3d 18e1 ae3d 4052 e8bb f8b5 edbc
00000230: 00d6 a2b9 c017 e3bd 60ba bfbd 8070 5c3d
00000240: cc2a 55bd 6ce1 8bbd 8852 9ebc 7e28 9d3d
00000250: 0086 3fba 9ce2 6bbd 6c6a 093d 5a3b a73d
00000260: 6811 90bc 1cce c43d 7ee6 bebd 1015 bbbd
00000270: b029 4d3d 0090 7739 c665 cf3d e033 58bc
00000280: 7aeb 96bd 4071 423b 88ef f5bc c0b4 b1bc
00000290: 9039 87bc 481c eabc b48c 2a3d f2e7 f23d
000002a0: 0670 bfbd 1061 cdbd 7ec1 bbbd ae37 e1bd
000002b0: 543e edbd c821 28bd 0044 543a 540b fe3d
000002c0: 628d afbd 1846 f1bd 5a85 80bd eace 83bd
000002d0: 2427 36bd 3c9a 50bd 40b2 cabd 142f bfbd
000002e0: c44d 103d 20a9 bf3c 947b 883d fa37 cfbd
000002f0: 4054 7abd 6e9c 893d a01b 1ebc 08b0 123d
00000300: ec1a bbbd a8c4 97bd 944f ecbd 6a88 30bd
00000310: 9afe a4bd e2d4 823c 4bb5 d5bc 7fc5 a1bd
00000320: 33e8 823c 4b6e dbbd 7f02 63bc 0d51 97b8
00000330: 431d e53d b029 b7bd 2e73 afbd 4f95 2c3d
00000340: 3235 ecbd 8102 d3bc 6dab fbbb c416 5fbd
00000350: d500 c13d fce9 b0bc 63df 2cbd afef d6bd
00000360: d054 ba3d 3221 8e3d 04a2 2a3d cc8b acbd
00000370: 350d d4bb d477 37bc 845d 04bd 89e0 23bc
00000380: bded 63bd d57d 333b 2db6 0e3d e164 b9bd
00000390: b871 b8bd 5a64 0ebb 4dbc 01bd 88cd c9bd
000003a0: cf5b 4dbd ebc4 4dbd 1ab4 f13d 1138 b73d
000003b0: 6df8 10bd 84db b0bd 2255 953d 6c0a fcbd
000003c0: f2f5 ebbd ad31 e9bd fd93 473c 7886 eebd
000003d0: 70f8 ba3d bf6d 8c3d 555b 11bc aa9b a93d
000003e0: 23e7 833c 0371 bc3d def3 e83d aa11 67bd
000003f0: f4d5 733d f434 ff3d 4a46 a1bd d816 b0bd
-0.07164814 0.09243973 -0.0075983414 -0.047371928 0.08884829 -0.0060662082 0.06288275 0.03462399
0.034573592 0.12300114 -0.0889576 0.0806554 -0.120203815 -0.05716572 0.032952167 -0.100480095
-0.11532267 -0.031510286 0.016955746 -0.040009335 -0.0008058576 0.09606489 0.10207758 0.1015944
-0.038232308 -0.07599631 0.09844562 0.03682919 0.09319492 -0.05134861 -0.096532054 0.061152052
0.02662999 0.12345369 0.018801978 0.08568223 0.052528426 -0.0133895995 -0.04322125 -0.10089368
0.05126394 -0.11531738 0.09499669 0.020882225 0.03165787 -0.03574716 -0.0195282 -0.07221805
0.10184227 0.06294003 0.03983857 0.023127168 -0.024842033 -0.09592972 0.034542564 -0.052589893
0.1118278 0.026024742 0.084985465 0.07896053 0.035346244 0.095281556 -0.123756416 -0.06537685
-0.043112 -0.063817434 0.05318768 -0.07168725 0.054250795 0.09338437 -0.08642102 0.08455459
0.036425065 0.10880218 -0.039319467 0.06773843 0.023257723 -0.017351542 -0.046304338 -0.041262984
0.10952682 -0.021055385 0.08976877 0.026305815 -0.054619636 0.0031343023 -0.056850873 0.105283655
-0.029087396 0.024965603 -5.7700454e-05 -0.1021097 0.07467252 -0.10582319 0.07307477 -0.0791351
-0.02494161 -0.049646884 0.075966135 -0.117157124 -0.07700469 0.0323462 0.05577606 0.028550386
-0.0458564 -0.024295792 0.061223462 -0.10154398 -0.12400043 0.11007422 0.08607562 0.044459138
0.084735215 -0.086350635 -0.039618548 -0.010455013 -0.032843933 -0.098791786 -0.067556724 -0.08258576
-0.08216582 -0.0746808 0.06255632 -0.09296381 0.077901624 -0.03985937 -0.04595737 -0.09676298
0.05177656 -0.08068299 0.0011443496 -0.0073534846 -0.08736451 -0.06004423 0.05273807 0.033169866
0.08463344 0.08539027 -0.007089883 -0.029017434 -0.0003105849 -0.11088514 -0.0936172 0.053818226
-0.052042767 -0.06830105 -0.019326463 0.07673739 -0.00073060393 -0.05758916 0.033548757 0.08165617
-0.017586425 0.09609625 -0.09321307 -0.09134877 0.050088584 0.000236094 0.101268336 -0.013195962
-0.07369132 0.0029669553 -0.030021444 -0.021692634 -0.01650694 -0.028577939 0.04163809 0.11860646
-0.09347539 -0.10028279 -0.09167765 -0.10996948 -0.11584154 -0.04104784 0.0008097291 0.124045044
-0.085718885 -0.117809474 -0.06275435 -0.0643595 -0.04447092 -0.05092834 -0.0989728 -0.09335151
0.035230413 0.023396075 0.06664196 -0.101180986 -0.061115503 0.0671929 -0.009650141 0.035812408
-0.09135994 -0.07410556 -0.11538616 -0.043098845 -0.08056374 0.015970651 -0.026087424 -0.078989975
0.015979862 -0.10714396 -0.013855576 -7.215338e-05 0.11187222 -0.08943498 -0.08566891 0.04213458
-0.11533584 -0.02575803 -0.0076803477 -0.05446507 0.09423987 -0.021595947 -0.042205226 -0.10494935
0.09098208 0.06939925 0.041658416 -0.08425102 -0.006471301 -0.011198003 -0.032315746 -0.010002264
-0.055646647 0.0027388234 0.034841705 -0.09052444 -0.09006065 -0.0021727295 -0.03167372 -0.09853655
-0.050136384 -0.050236624 0.1180193 0.08946241 -0.035393167 -0.08635619 0.072916284 -0.12306675
-0.1152152 -0.11386428 0.012181279 -0.11646742 0.09129417 0.0685687 -0.008871873 0.08281644
0.016101426 0.09201243 0.11374639 -0.05641333 0.059530213 0.12461272 -0.07874735 -0.08598107

emb_model.convs.0.lin_rel.bias f4 [64]
00000000: 4651 19be 340b a53d 80ff b7bb 7ce0 1c3e
00000010: 0c3c 423d 3f78 9f3d 30eb 96bc 200c acbc
00000020: 106e a0bc da0c 2bbe 7453 0d3d 44f4 16bd
00000030: 487f aebc f653 acbd 2a75 303d bb3e 8bbd
00000040: c71d bcbc 004c c5bd fc5c 893d b28d d53d
00000050: 5eaa 89bd c84f 5ebd aaf7 aebd 635c 603d
00000060: f836 f3bd 8297 823d 76b9 8e3c 8321 19be
00000070: 45e7 b9bd c475 debc b587 153d 4139 49bd
00000080: 51c9 08be 82cf 8dbd af80 e23d fcd6 8d3d
00000090: 9cf0 6f3d a759 c23d 1896 79bd 0fbd b73d
000000a0: b22f 4f3d 3e39 953d d995 82bd e0d5 eb3d
000000b0: 2399 26bc 671c b8bd a5a6 393d 0484 7b3d
000000c0: 0cba 18bd 328c b7bd bc99 46bd 19d8 c6bd
000000d0: eaf8 d23d 68e5 40bb 6d5d e83d 1eda 8e3d
000000e0: e847 5e3d 97ea 673b 5a6b 8a3c 9040 8dbc
000000f0: a432 683d 1785 19bd dde3 ccbd 91f9 553d
-0.1497241 0.080587775 -0.005615175 0.15320009 0.047420546 0.07786607 -0.018422693 -0.021001875
-0.019583732 -0.16704121 0.034503415 -0.036854044 -0.021300927 -0.08414452 0.043080486 -0.06799074
-0.022963418 -0.096336365 0.067071885 0.10427417 -0.06721948 -0.054275304 -0.08543332 0.054775607
-0.11875719 0.06376554 0.017422419 -0.1495419 -0.09077314 -0.027155764 0.036506373 -0.049126867
-0.13358046 -0.069243446 0.11059701 0.06925771 0.058579072 0.09489756 -0.060934156 0.08971607
0.050582595 0.07286309 -0.063762374 0.11515403 -0.010168347 -0.08989792 0.04532494 0.061405197
-0.037286803 -0.08962287 -0.048486456 -0.09709186 0.10301383 -0.0029433612 0.113459446 0.06975196
0.054267794 0.003538763 0.016896892 -0.0172427 0.05668892 -0.03748044 -0.10004399 0.05223996

emb_model.convs.0.lin_root.weight f4 [64, 64]
00000000: c77e b33c 9d40 473d 04a9 093e c3a3 31bd
00000010: d60c 7c3c ad95 e53d 16ee 36bc 3533 12be
00000020: fbef febd ce3e 59bc 135d 9a3c 8c18 863d
00000030: 6dc6 af3d c1a7 b2bd f84b f83c d07a 2f3e
00000040: 2dfa 02be 3ea2 713d 7cd4 293d c4d7 1c3e
00000050: af82 93bd 1402 adbd fb0c 1fbd e439 82bd
00000060: be8d b7bc ce2f cbbd 31ce 043e aa05 18bd
00000070: 79d8 c9bc 37c4 3c3d c45f 7d3d 60a9 a3bd
00000080: 8c3c f43d bf4c 533d ef5f 903b 8d49 71bc
00000090: dd6d b93c 3fb5 c93d 8e39 2cbe 6dff 61be
000000a0: 55fc 74bd 718a 4fbd a655 103e 2374 7e3d
000000b0: ed59 e7bd eed4 9fbd 949d 19bd 0022 82bd
000000c0: d207 203d 4218 19be 3db4 16bd 1896 80bb
000000d0: 1c51 15bd 4d2a 76bc b60d c03d 29f8 863d
000000e0: b5d7 d6bd 341d a23d 54cf 79bd 6a2d eb3d
000000f0: 0b03 e5bc ba8b da3b 9bd3 41bc 9929 3bbd
00000100: 4fee babd c78e aabd 44b0 38bd 4f94 c8bd
00000110: c80a 10bd 396c 1fbd e725 e53d 29ac a9bc
00000120: 2a9f c2bc cd95 08be 982e 573d e3ae c9bd
00000130: 555b 97bd 4494 123b 3cac c13d 76e3 a53d
00000140: aac5 0abe 5225 bbbd 8512 673d 2d90 c0bc
00000150: d62f 863d 6b96 06be 19e4 3cbd a0b3 e4bd
00000160: aa5c 923d 6c1f 803d 2c90 3d3d 7500 83bd
00000170: 7e9c 6abc 18d0 05be f3ee efbc c974 debb
00000180: 914e b73d 6a8d 0bbe 195e a13d 8c6b e03d
00000190: 9ab2 27bd 4166 c43c c641 c1bd db23 84bd
000001a0: 55e8 9cbd e6cc e6bd e1c1 7dbd 354d 213d
000001b0: c1c6 ec3c 5802 313b 221d d7bc 4ece 803d
000001c0: 0661 343c cbe4 993d 9526 e9bc 8c56 fdbd
000001d0: bab4 b6bd e774 863b 2d86 92bb 0e15 e03d
000001e0: bb87 dcbc 839c bc3d 19b5 98bd 3821 f33d
000001f0: 9b80 46bd b9b2 e83c d1fd 0d3d 2485 ca3d
00000200: 7222 a63d 62d0 ec3d 9056 46bd d44f 833d
00000210: e01e d53b eaaa b33d 20df e53d 801f da3d
00000220: 7cae 273d 34ff 0bbd fcca ecbd 60b7 5abd
00000230: bc24 2f3d e4ff 1c3d e06b c4bd bcd4 77bd
00000240: e05d 9abc 8c05 75bd 78cd a8bc 12a2 96bd
00000250: 1aba 9e3d 6099 0c3d f0e3 c7bd ecb8 b9bd
00000260: 82cb bfbd 328d c03d 9e33 9b3d 00f7 cd3d
00000270: b035 623c 6c4e 93bd b012 de3d 082f 88bd
00000280: 3605 b23d f0d9 41bd e0b7 c3bc 5813 763d
00000290: 40af 67bc d8d9 923d 806a 20bc b4ac 6d3d
000002a0: d8a2 bebc cafd d23d a4ce f9bd 4e05 c7bd
000002b0: 4004 143b 307c 563c 0001 9d3c aa94 95bd
000002c0: f8a9 98bc fc14 cfbd ccb9 c53d 00d3 173a
000002d0: 40d1 6bbb 68f6 84bd 6874 3f3d 000c 45b9
000002e0: 6c48 8e3d 3021 1c3d dc7f 763d 1e85 8b3d
000002f0: 3c28 db3d 90c2 e4bd c872 b7bd 5007 83bc
00000300: 104f 253e a2d7 29bd a3c4 aebd 6189 dcbc
00000310: f210 263d 8cbf 5bbd fe54 e53d 935d 133d
00000320: d430 2c3d d621 a53d 0c22 c5bd 9da6 7ebd
00000330: b7cc 583c f2a7 e43d 45a2 5e3d a066 503d
00000340: 6fe2 58bd b788 8bbb 714b 35bc a63c fbbd
00000350: ad04 8dbd 9f65 65bd fc82 86bd 2792 86bd
00000360: 55f3 8ebd 098a 093e 54d8 1cbe df13 913d
00000370: ee4b 503c e4ae 053e 783f 143e a6bc 4c3d
00000380: ea58 cfbd e862 ac3c bd61 20bd 5cff 1abc
00000390: 3434 973c c331 20be d527 6dbd 609f cf3a
000003a0: f68d bb3d 22b9 063e 7bc7 663d b550 e73c
000003b0: 02a9 b4bc 0709 86bd 0323 0d3e 4401 073e
000003c0: de48 0e3e de4c 113e a393 9f3c 0f36 803d
000003d0: dea6 8abd c860 3fbd 374c ebbc 3f50 473d
000003e0: 360f 1c3e 605d c4bd 20a4 07bd 7a9b dfbc
000003f0: 28e6 ef3d 3cce c7bd 93b8 d0bd e352 47bd
0.021911038 0.048645604 0.1344338 -0.043369066 0.01538392 0.11210189 -0.011165163 -0.14277346
-0.124481164 -0.013259603 0.01884321 0.06547651 0.085827686 -0.08723403 0.030309662 0.17136693
-0.12790747 0.058992617 0.041462407 0.15316683 -0.0720266 -0.08447662 -0.03883074 -0.06358698
-0.022406455 -0.099212274 0.12969281 -0.037114777 -0.024639355 0.046085563 0.061858907 -0.0799129
0.11925611 0.051586863 0.0044059674 -0.0147270085 0.022635395 0.09849023 -0.1681883 -0.22070093
-0.059810955 -0.050669137 0.14095172 0.062122475 -0.11296449 -0.07804285 -0.037503794 -0.06354141
0.039069958 -0.1495066 -0.036792982 -0.0039241426 -0.036454305 -0.015024734 0.09377615 0.065903015
-0.104903616 0.07915726 -0.06098874 0.114832714 -0.027955553 0.0066694887 -0.011830236 -0.045693967
-0.09127485 -0.08328014 -0.045089975 -0.097939126 -0.03516653 -0.03892157 0.1118887 -0.020711975
-0.023757536 -0.13338394 0.05253467 -0.0984781 -0.07390467 0.0022366205 0.09456679 0.08100025
-0.13551965 -0.09137978 0.056414146 -0.023506248 0.06552093 -0.13143317 -0.04611597 -0.11167073
0.071465805 0.06255993 0.04628007 -0.063965715 -0.014319537 -0.13067663 -0.029288745 -0.006788824
0.08950532 -0.13628164 0.07879276 0.10958013 -0.040941812 0.02397454 -0.094363734 -0.064521514
-0.07661501 -0.1126955 -0.061952475 0.03938027 0.028903367 0.0027009454 -0.026259009 0.062893495
0.01100946 0.07514342 -0.02846078 -0.12370023 -0.089211896 0.0041032913 -0.0044715614 0.10941516
-0.02692019 0.0920954 -0.07456417 0.1187157 -0.04846249 0.028405534 0.034665886 0.09888676
0.08112039 0.11563183 -0.048422396 0.064117104 0.0065039247 0.08772834 0.11224198 0.106505394
0.040937886 -0.034178928 -0.11562154 -0.053397536 0.042759642 0.038329974 -0.09590888 -0.060505614
-0.018843591 -0.059819743 -0.020605788 -0.07355131 0.0775034 0.034325957 -0.097602725 -0.09068474
-0.09364988 0.09401931 0.075782046 0.10056877 0.013806745 -0.07192692 0.10843408 -0.066495955
0.086924 -0.047326982 -0.02389139 0.06007704 -0.014140904 0.07170457 -0.009791017 0.05802603
-0.02327101 0.10302313 -0.12197617 -0.09717809 0.002258554 0.013091132 0.019165516 -0.07303746
-0.018635735 -0.10111424 0.096545786 0.00057916343 -0.0035982877 -0.06492311 0.046741873 -0.00018791854
0.06947407 0.038117588 0.06018053 0.068124995 0.107010335 -0.11169922 -0.0895744 -0.015994698
0.16143441 -0.04146541 -0.08533599 -0.026920976 0.040543504 -0.05364947 0.111978516 0.03597791
0.042038754 0.08063094 -0.096256346 -0.062170614 0.013232402 0.111648455 0.05435397 0.05087912
-0.05295032 -0.004258241 -0.01106535 -0.12267427 -0.068856575 -0.056005117 -0.06567952 -0.06570845
-0.06980006 0.13431562 -0.15316898 0.07083868 0.012713416 0.13054997 0.14477336 0.049984597
-0.10124381 0.021043256 -0.03915571 -0.0094602965 0.01845751 -0.15643983 -0.057899315 0.0015840344
0.09157936 0.1315656 0.056342583 0.028236726 -0.022053245 -0.065446906 0.13782887 0.13184077
0.13894984 0.14189479 0.019479578 0.06260311 -0.06770109 -0.046723157 -0.028722866 0.048660513
0.15240178 -0.09588122 -0.033115506 -0.027295817 0.11713821 -0.09756133 -0.10191455 -0.04866303

emb_model.convs.1.lin_rel.weight f4 [64, 128]
00000000: f276 3bbc 9d6d a33c 562f e53b 18e2 143d
00000010: 3361 533d c3bd 13bd 0ec6 cf3c d537 b8bc
00000020: 2620 a63c e5a4 303c 9956 24bd 6e2e 823b
00000030: f6c7 54bd 2116 4e3d b3c9 b13d 16b3 a4bd
00000040: fefe f63c 1348 b8bc 343d 83bd 85fb 4e3c
00000050: 40bb 33bd 5b69 bc39 8cda abbc 7234 813d
00000060: 13c8 a0bb 9409 c73c 6b1d a1bd 1082 423c
00000070: d332 013d 64f9 5f3b 3d8e b93d 6445 12bc
00000080: ae7d 9fbc af6e 553c dd79 2b3d 05bf b9bb
00000090: c425 d4bc d08f afbd 8125 723d 19b5 303d
000000a0: 43ab 9bbd 1268 2c3d 634a 073c d6ea 733d
000000b0: b605 2b39 29a7 a13d 3e3c d7bc 32a6 84bd
000000c0: ffd2 4c3b 14be 84bd b6b8 423d 608b 313d
000000d0: 724a 273d f354 11bd 8ffe c73c 5972 9abd
000000e0: f91a 5dbd 036d 68bd 2f61 883d c5d4 5e3d
000000f0: ab73 3a3c 63a4 b1bb a097 073a ef6e 47bd
00000100: 9bf1 1c39 ef9f 67bd 2f64 4f3c aa7c c1bd
00000110: 9fa3 9fbd 495f f23c 78de 123d 52bf 30bd
00000120: f012 b53d 9c77 9f3d f50f acbc 0843 ee39
00000130: ef84 183c 7312 2b3d 464b b43d 46d3 23bd
00000140: 6592 a7bd e546 64bd 5f42 a63d d2c7 80bd
00000150: 8c4b 42bd 0400 84bb b7bd 3dbd 7707 373c
00000160: 9e66 5fbb c229 903b f44b 873b 2eab 04bd
00000170: b270 82bd 7cc0 3abd 0a9a 8c3d 28e9 8f3c
00000180: 46ce 51bd 2725 a43d 1c57 f33d 9222 59bd
00000190: 626d c5bc c17b ca3c 1945 90bd 235f a4bd
000001a0: 29a1 d93b 6c5d 793c ad80 273d b940 bdbd
000001b0: b03e af3c 26f3 ee3b eac9 04bd 693a 9e3d
000001c0: 5be0 213d b7a5 483d 2c31 bdbc 7904 eb39
000001d0: fde6 9abc e2dc 1c3e caa5 82bb 9376 a53d
000001e0: 21d7 b5bd 79a6 843c 02f0 98bd fe52 25bb
000001f0: 94f0 593d 73a7 d83d c890 5a3d 2499 b93c
00000200: 39ac 853d f3a9 113d ff98 e53b 299e 2d3d
00000210: 9173 8dbd 0752 5cbd e3f6 6c3d 63d0 99bd
00000220: 7ff0 8ebd c63a 34bc 80de 043d b0fe 75bd
00000230: f10e 9d3d e277 24bd 6ef0 4e3d 7cf6 9d3c
00000240: 7916 8c3b 451d 6f3d aa31 763d a1a5 8abd
00000250: de64 3e3d 1408 323d 66cf 963c bc38 acbd
00000260: 97c8 783d 0871 67bd d947 58bd fb4b 003d
00000270: 8831 8dbd efff ccbc d183 d93c 04a8 4a3d
00000280: e7dd 63bd 19f5 b2bc 1449 f53c 73d9 87bd
00000290: 354d babd e42e 9b3c f811 8c3d 129b 52bd
000002a0: 170c 0f3d 670a 70bc ba1e a1bd 7758 0f3c
000002b0: 030d 9f3d 85b7 b1bd 6ea2 6cbc 3897 843c
000002c0: 0b22 b3bd d9c7 59bd 1f5b b2bc 0662 41bd
000002d0: 8b91 66bc 2557 e53c fe6a 603c bf59 1b3d
000002e0: 7e49 b3bd 8ce5 0e3d f778 8cbd 602c 96bd
000002f0: 59b1 893d 1cce 5c3d 574c 6f3d 8ccd 81bd
00000300: ef69 83bd 295a 1bbb 1383 8e3d ab5b a83d
00000310: 3d0b ccbc 7416 9cbd 4109 3e3d 475d 7bbd
00000320: ab46 ec3c 2a62 d53c e3c5 8fbd 91d2 6d3d
00000330: 35ae b03d 7f29 b23d bb7a 483d 5b65 9a3d
00000340: 0cc8 933d abbd 5bbd 718c 7e3d edac cfbc
00000350: 9a2a 573c 91e3 ddbb 69f0 abbd 98af 3ebc
00000360: 9eb7 543d d633 a4bd 9e2e bebd e30e 5c3c
00000370: bb94 a33d 29e0 993d c69f 5fbd b762 75bd
00000380: 55cb 0dbc 0c73 89b9 3529 e9bc 3fd0 9b3b
00000390: 6a24 423a 9d0d aabd 27ee d03c 41f0 993d
000003a0: 771c a2bd ed2e 933d 81a2 593d 487e da3b
000003b0: 55fc 80bc 1abb 89bd 77ef 143c 43b3 a2bd
000003c0: b468 2bbd 844b 6e37 65e7 123d 2799 5bba
000003d0: ef54 003d f113 b3bc 8b07 07bd 711d 813c
000003e0: 3eda 263d c7ea e03c 9cf7 f1bc f012 48bd
000003f0: 34f5 e3bc c007 613b 5dc7 5e3d 9590 8ebd
-0.011441933 0.019949729 0.0069941683 0.036348432 0.05160637 -0.036069643 0.025362995 -0.02248756
0.020279001 0.010781501 -0.04012165 0.00397282 -0.05194851 0.050314073 0.08681049 -0.080419704
0.030150887 -0.022495305 -0.06408158 0.012633209 -0.043879747 0.0003593665 -0.020978235 0.06308831
-0.004906663 0.02429656 -0.07866939 0.01187183 0.03154261 0.0034175748 0.09060333 -0.008927677
-0.019469108 0.013026877 0.041864265 -0.0056685233 -0.025896914 -0.08572352 0.059117798 0.04314146
-0.07601025 0.042091437 0.008257481 0.05955013 0.00016309958 0.078932114 -0.026273843 -0.06477012
0.0031253693 -0.06481567 0.047539435 0.04334581 0.04084248 -0.035481405 0.024413375 -0.07541341
-0.0539808 -0.056744587 0.06659161 0.05440213 0.011380116 -0.0054212078 0.0005172435 -0.04868978
0.00014967324 -0.05654901 0.012658163 -0.09447606 -0.0779488 0.029586451 0.035856694 -0.043151207
0.08841503 0.077864856 -0.021003703 0.0004544484 0.009309038 0.04176564 0.0880342 -0.039996408
-0.081822194 -0.055731673 0.08118128 -0.06288113 -0.04743533 -0.004028322 -0.046323504 0.011171213
-0.0034088264 0.004399509 0.0041289274 -0.032389812 -0.06369151 -0.045593724 0.06865318 0.017567232
-0.05122211 0.08014899 0.11881849 -0.053011484 -0.02410001 0.024717214 -0.07044429 -0.080259584
0.0066415262 0.015220027 0.0408942 -0.092408605 0.021392196 0.007292169 -0.032419123 0.077259846
0.039520603 0.048986163 -0.023094736 0.00044826025 -0.018908972 0.15318635 -0.0039870488 0.08079257
-0.08878923 0.016192662 -0.07467653 -0.002522647 0.05320795 0.105788134 0.05336073 0.022656031
0.065269895 0.035562467 0.007006764 0.04238716 -0.06906808 -0.053789165 0.057852637 -0.0751045
-0.06979465 -0.011000341 0.032438755 -0.060057342 0.076688655 -0.04015339 0.05052226 0.019282572
0.00427514 0.058377523 0.060105957 -0.067698725 0.046482913 0.043464735 0.018409442 -0.08409259
0.060738172 -0.05650428 -0.052802894 0.03132246 -0.06894213 -0.025024382 0.026552113 0.04947664
-0.055631544 -0.021845387 0.029942073 -0.06633272 -0.09096757 0.018943258 0.06839365 -0.051417418
0.03492364 -0.014650918 -0.07867189 0.008749119 0.07766154 -0.08677582 -0.014443023 0.016185388
-0.087467276 -0.053169105 -0.021771966 -0.047212623 -0.014072786 0.027995655 0.013697384 0.037927385
-0.08754252 0.03488688 -0.0685901 -0.073326826 0.067232795 0.0539075 0.058422413 -0.06338033
-0.064166896 -0.0023704863 0.06958594 0.08220609 -0.024907703 -0.0762147 0.046395544 -0.061368253
0.02884229 0.026047785 -0.07020166 0.05806214 0.08626977 0.08699321 0.04894517 0.07538863
0.0721589 -0.05364768 0.062145654 -0.025351012 0.013132716 -0.006771513 -0.08395464 -0.0116385445
0.051932923 -0.080176994 -0.09286235 0.013431284 0.079873525 0.07513458 -0.05459573 -0.059908595
-0.008654435 -0.00026216393 -0.028462032 0.0047550495 0.0007405939 -0.08303378 0.025504185 0.07516528
-0.079155855 0.07186685 0.05313349 0.006667886 -0.015745321 -0.0672514 0.009090296 -0.07944348
-0.0418479 1.4203488e-05 0.035865206 -0.00083770085 0.031331 -0.021860095 -0.032966178 0.01576111
0.040735476 0.0274557 -0.029537015 -0.048846185 -0.027826883 0.0034336895 0.054389346 -0.069611706

emb_model.convs.1.lin_rel.bias f4 [64]
00000000: 2df6 bebd d312 7e3c 31f8 b8bd 756c 58bd
00000010: 78ba 4cbd ed5a 1e3d 2ff5 8b3d 91cc 233c
00000020: 11fd 20bd feff 97bd d35f 883d e4c2 afbd
00000030: 5362 12bc ce2c f0bc d782 2fbd a9f6 ecbc
00000040: 9202 d5bc f67e f6bd 3700 2cbc a89f 89bc
00000050: 626b 603d aea0 4cbd 25c5 f33c b36d 7ebc
00000060: 2105 2b3d e473 b9bd a4f4 89bd f77d 76bd
00000070: 4d8f c13c e590 a6bc e1c7 8a3d 222e 35bd
00000080: 1d3a 5d3d 96f5 83bd 4385 2abc a578 03bc
00000090: f30f 983d 44d6 22bd 5e3e 843d b0b3 71bd
000000a0: dbd6 30bd 6c11 ceb9 70aa 3cbd 5f62 9bbd
000000b0: 1ae7 fc3b 44d8 5bbb f6c7 8c3d 03bb 94bd
000000c0: 06ad 1dbc 2313 c8ba cd36 b13d 8a26 833b
000000d0: 033b 9e3d 6147 093d fcf6 3b3c c63c bfbd
000000e0: 2ecf 3bbc d379 773d d5f7 11bd f856 e93c
000000f0: 5690 083d 7f76 77bc 62de 863d 0321 97bd
-0.09324298 0.015507418 -0.09031714 -0.052837808 -0.049982518 0.038660932 0.068338744 0.009997503
-0.039303843 -0.074218735 0.06658902 -0.08582094 -0.008934575 -0.02931824 -0.042849388 -0.02892621
-0.026002202 -0.120359346 -0.010498098 -0.016799763 0.05478991 -0.049957924 0.029757092 -0.015529084
0.04175294 -0.090553075 -0.067361146 -0.060178723 0.023627901 -0.020332763 0.06776405 -0.04423345
0.0540105 -0.06443326 -0.010407749 -0.008024369 0.07424917 -0.03975512 0.06457208 -0.059009254
-0.043173652 -0.00039304362 -0.04606098 -0.07587122 0.007717979 -0.0033545652 0.06874077 -0.07262232
-0.0096237715 -0.0015264492 0.086530305 0.004002397 0.07726099 0.033515338 0.01147246 -0.093377635
-0.01146297 0.060418915 -0.03563674 0.028483853 0.033340774 -0.015103935 0.06585385 -0.07379343

emb_model.convs.1.lin_root.weight f4 [64, 128]
00000000: b20d 92bb 58da 0cbd ba96 78bc 95ec 843c
00000010: 9ab4 81bd e8eb 19bd d03e 8bbd 8b01 d83c
00000020: f236 7f3c b0f0 c2bc 0d83 99bb bf09 a13d
00000030: d834 d63d c9db cdbd 46ef aabd 91af 47bd
00000040: 6ed8 55bd 2723 9c3d b1b0 2a3d ebff 6cbc
00000050: 53e7 cb3c 5455 1a3c 8e9b 6f3d 4148 273d
00000060: 7b6f 9dbd f9f4 923c 2ef3 e7bc 4ada 1c3c
00000070: 3746 53bd efbd 553c 1206 12bb 62b5 bc3d
00000080: b139 1ebd 5569 2b3d 1a9a 11bb f30e 72bb
00000090: 0c30 13bb eec5 2bbb 1a7c 5bbd 357a b7bc
000000a0: fea0 cf3b 4829 98bc 7720 b73c 08fe 75bd
000000b0: 8cbe 7f3c bebc f23d 0f04 883c 0fde 85bd
000000c0: 2635 2a3d e8de 52bd f4d8 01be 8026 99bd
000000d0: fa55 843d eb7d 9d3d df91 8dbb ba1c 053c
000000e0: 084e 9abd 2e31 24bd 2d97 103d 5a20 e93d
000000f0: 85e2 22bd 8635 283c eba0 af3c 47b3 c03d
00000100: aa7d 1e3d 00cc 933d 69d5 afbd dedd 6fbd
00000110: 5e90 733c 0166 a43c 68cf 1fbd 1abd 323d
00000120: 8f1d 8cbd 3f17 8abd 8303 0b3d b623 7c3b
00000130: ca78 21bd b9f8 b4bd a2e5 aa3c 0305 953d
00000140: 43c6 2ebd 2600 8c3d 1cd8 ad3d b423 213d
00000150: c487 ff3c eb55 1f3d bbed f03c afa9 933d
00000160: 0f5e a8bd 5b67 403d 1e0f 6d3d 06f7 f13d
00000170: a21b 983c 14bb 06bc 4c86 9bbd 50f0 2ebd
00000180: f2eb f43c 4cc4 9dbd aee0 9d3b fe77 8bbd
00000190: 245c 793c abd0 9d3d 398a 21bd 93cc bfbc
000001a0: 941c 173d 3fa9 bbbb 5251 f53c b241 58bd
000001b0: be0a a53a 91d7 79bc bd26 3b3c d86b 81bd
000001c0: e043 9b3d bcb3 533d 3ff6 21bd 1215 a93c
000001d0: 49a6 4d3d 030d 153e 055f 75bd 712c 543d
000001e0: 2518 893c 9db8 813d 39d0 58bd 593a 09bd
000001f0: 9ea9 333b 1a73 b9bc 10c4 a93d 8b96 133d
00000200: 0d6c 6b3d 92a4 77bd 4d05 02bd 95f7 21bd
00000210: b1ae 22bd 3d7c 1a3d e214 abbd 5d76 79bd
00000220: ca54 913d 05ac b3bd 3612 a9bc 4652 fe3c
00000230: 929e f53c 2a65 213d d51c 10bc 86e9 023d
00000240: 3ff5 1dbd 0c2a 11bc 65fe 8b3d 80a3 9fbd
00000250: a9d0 5dbc cda9 76bc e0b5 03bd 7887 503d
00000260: 5a17 0abd 5c09 913c 525c c73c a975 7ebd
00000270: dd36 47bd d417 783c 993b 993c 2342 0bbd
00000280: f475 943d a8d9 db3a cf57 37bd b94a 37bc
00000290: 159c acbd bb94 16bb 5922 81bd 5172 ac3d
000002a0: 3b29 95bd 70dc 033d 5e20 a4bd 5f62 623d
000002b0: 9844 753d dc61 b03d 54ab 623d 571b e2ba
000002c0: 0588 a7bc 9810 003d c4bd d73c 5d2a 343d
000002d0: cbfc 70bd 7320 4f3d 24c2 2c3c 2a26 da3c
000002e0: 113f a1bd 6531 943d e68e 973c c9c5 48bd
000002f0: d95e 9bbd b66c 883d 7330 91bd f763 133d
00000300: 9864 94bd fbad 4dbd dcb0 623d 17b2 243c
00000310: 7d40 ea3b 2209 a0bc 466e 893d 7a7a 883c
00000320: 1eb7 df3c c9e6 d8bb 3048 abbd 0113 00bd
00000330: 8e8b e13c f295 66bd 3e98 86bd 172d 703d
00000340: 39c0 393c 6d4c 063d 4589 8abd 9fc5 d6bb
00000350: 699c b5bd 02a9 eabc a313 6fbc 606d edbc
00000360: f3f3 4f3d 14c0 073d 9d64 85bc 44d5 5c3d
00000370: 1d5f e23b 0c56 61bc 0324 a1bd d023 56bd
00000380: 0a39 99bd dbdc 163d 9bd4 b6bd 279e 2c3d
00000390: 1128 c13c 53f8 dbbc fc55 f3ba 72ec 7e3c
000003a0: a253 afbc f54d 33bd 6ad2 efbc 5165 20bd
000003b0: 4e07 5ebd 9bd7 a03c db1e 4b3c 5c02 2dbd
000003c0: ab84 7b3d 5c54 2cbd b303 89bd 6e00 4b3d
000003d0: 755d a7bd 2c1a ac3c e374 473d ba3e 4b3c
000003e0: dac0 26bd 0441 a0bd 075f b2bd 30d6 9ebd
000003f0: bed5 a4bc 55a2 373d bddf c03c 1e19 153d
-0.004457199 -0.034387916 -0.015172655 0.016226092 -0.06333275 -0.037578493 -0.0679909 0.026367923
0.015577065 -0.02379641 -0.004684812 0.07863187 0.10459298 -0.10051686 -0.08346419 -0.048751418
-0.052208357 0.07623892 0.041672412 -0.0144653125 0.024890577 0.009419758 0.058497958 0.04084039
-0.07687279 0.017939078 -0.0283142 0.009573529 -0.051580634 0.013045772 -0.002228145 0.092142835
-0.038629238 0.0418485 -0.0022217096 -0.003693518 -0.0022459058 -0.0026210505 -0.05358515 -0.02239714
0.0063363304 -0.018574372 0.022354348 -0.060056716 0.015609395 0.11852406 0.016603498 -0.06536495
0.041554593 -0.05148211 -0.12680417 -0.074780464 0.06461711 0.076900326 -0.0043203677 0.008124525
-0.075344145 -0.040085964 0.035300422 0.11383124 -0.039766807 0.010266667 0.021439036 0.094091944
0.03869406 0.07216644 -0.08585627 -0.0585612 0.014865963 0.02006817 -0.039016157 0.043637373
-0.06841575 -0.06742715 0.033938896 0.0038473434 -0.039421834 -0.088365026 0.02086145 0.072763465
-0.042669546 0.06835966 0.08488485 0.03934069 0.031192668 0.038900297 0.029410234 0.07210099
-0.08221065 0.046973567 0.057875745 0.11814694 0.018567864 -0.008223314 -0.075939745 -0.04270965
0.029897664 -0.07703456 0.0048180437 -0.06809996 0.015219722 0.07705816 -0.03943846 -0.023412978
0.03689249 -0.005726963 0.029946003 -0.052797027 0.0012591702 -0.015249149 0.01142281 -0.06319398
0.075813055 0.05168508 -0.03954148 0.02063993 0.05020741 0.14555745 -0.05990507 0.051800195
0.016735146 0.0633404 -0.05293295 -0.03350291 0.0027414332 -0.022637893 0.08289349 0.03603224
0.057476092 -0.06045968 -0.031743336 -0.039542753 -0.03971738 0.03771614 -0.083535925 -0.060903896
0.0709625 -0.087730445 -0.020638566 0.03104509 0.029982839 0.03940312 -0.008795937 0.031960987
-0.038563963 -0.008860122 0.06835631 -0.07794857 -0.013538518 -0.015055132 -0.03215587 0.050910443
-0.033713676 0.017704658 0.024336014 -0.06212393 -0.048636306 0.0151424 0.018705176 -0.03399862
0.0724906 0.0016773241 -0.044761475 -0.011187249 -0.08428208 -0.0022976834 -0.063053794 0.084202416
-0.07283255 0.032192647 -0.08013986 0.055269595 0.05987987 0.08612415 0.055339172 -0.001725058
-0.020450601 0.031265825 0.026335604 0.043985713 -0.058834832 0.050568055 0.010544334 0.026629526
-0.07873357 0.07235984 0.018500756 -0.049016748 -0.0758645 0.0666136 -0.07089319 0.035984006
-0.07245749 -0.05021475 0.055344447 0.010052226 0.007148801 -0.019535605 0.06710486 0.016659964
0.027308997 -0.0066193086 -0.08363378 -0.031268124 0.027532365 -0.056295343 -0.06572007 0.05863675
0.011337333 0.03278773 -0.06764463 -0.00655432 -0.088677235 -0.028645042 -0.014592084 -0.028982818
0.050769757 0.033142164 -0.016283328 0.053914323 0.006908311 -0.013753425 -0.07868197 -0.052280247
-0.074815825 0.036831718 -0.0892727 0.042143013 0.023578675 -0.026851809 -0.0018565054 0.015559303
-0.021402184 -0.043775517 -0.029275138 -0.039159123 -0.054206185 0.019634059 0.012397493 -0.04223858
0.06140582 -0.04207264 -0.06690159 0.049560957 -0.081721224 0.021008573 0.048695456 0.012405092
-0.04071126 -0.07824901 -0.08709531 -0.07755697 -0.020121451 0.044832546 0.023544187 0.036400907

emb_model.convs.2.lin_rel.weight f4 [64, 192]
00000000: 87a3 2abd 816b 663d cbaa 6d3d da2a be3c
00000010: b562 b6bd c69a 8c3d 90af 99bd 243d a0bd
00000020: 53ba 403d ea63 a6bc b725 373c fb58 523d
00000030: 1514 06bc a7dc b7bc 3ef9 cbbc 86ce 3e3d
00000040: 6785 8ebd 92c2 8e3d 8fdf 87bd 2b11 9a3d
00000050: b228 0a3d 4541 2a3d 26f3 233d 9c43 65bc
00000060: 619a 62bd 8557 a2bd 0f31 973d 992c 53bd
00000070: cb49 3a3d ef69 01bb 2811 97bd d22e 93bd
00000080: 0164 2fbc bb76 40bd 42bc abbd f6c2 10bd
00000090: 9462 97bd 3a7d 7d3d 0278 b7bc 17b7 9dbd
000000a0: 012d 6ebd faaf 14ba 926b 8b3d ad00 06bc
000000b0: 81c9 0fbc 5cc5 aa3c d387 fbbc ae33 e63c
000000c0: 1a66 89bd 9aac 99bd 4998 05bd b0f5 37bd
000000d0: 4c0f 883d 6ade a4bc 5346 6d3d c749 07bd
000000e0: c960 5bbd a3a6 653d 1218 59bd d6cc 7b3b
000000f0: 28a6 6abd 81db 893c 4a8d a53d 1567 65bc
00000100: 2106 953d f51a 32bd 2b41 97bc cabd 07bd
00000110: 5cf9 07bd afd1 fb3a 648b 60bd d2f0 f33c
00000120: 596a f7bc 9818 e33c a108 1c3c 4d42 47bd
00000130: cab7 2a3d 18e3 de3b 4716 04bd 3e32 59bc
00000140: 30e5 05bd a1d1 abbc 1e51 6c3d 8d91 163d
00000150: 6288 443d fca0 903c acb8 4b3d fdb1 93bd
00000160: 1b0c 8b3d 0a70 c63b b794 1b3d 840b dabc
00000170: 94e9 8ebd 2c07 3fbd d5a9 f8bc 0114 c6bd
00000180: d592 7abc 152f 703d 3f36 3dbe 696b 9ebc
00000190: 693b 533d 3082 14bd ef37 3f3d 3c15 8e3d
000001a0: e7f8 d23c 29fe 6fbd cd39 7abd d5d3 4bbd
000001b0: f4a0 283d 1cd2 d1bc 283b fcbc bdb9 85bd
000001c0: f086 4bbd be35 44bd d051 673d 6704 1dbd
000001d0: b6bf 01bd 7823 e3bc 3e5e 70bd c192 8e3d
000001e0: 31b2 183d 8fac 87bd 2153 863d 5b6c 843d
000001f0: 2073 edbc 39ca 173d 09c0 193d 9b31 e9bc
00000200: 5b25 34bb 56b4 6fbd 2bf2 be3c bfa9 463d
00000210: 4d58 75bc f4bb 263c 953e 0cbc 1fe7 94bd
00000220: 6764 acbb 6302 7e3c c135 de3c a96c b8bd
00000230: 2967 aabc 0f80 113d 520e fe3c a080 403d
00000240: 27cb 14bd d72c c0bd e2fe 4f3d 969c c23d
00000250: ddf4 ab3b 2a52 e3bc e216 cd3c cb79 5dbd
00000260: 0ebb 73bd b10c 743d e89e 183d f37c 813d
00000270: c251 6ebd 501f 89bd 8fb4 a63d 7f2b 50bd
00000280: beb5 9a3c 04f4 06bd 065e 9abd 3a45 f63c
00000290: 44fd 96bd ecff ab3c cae9 403d 3853 b63c
000002a0: 69ce 703d bed6 cebd 068c 1bbd 4420 043d
000002b0: d8da 6e3c 612f 22bd ee48 8f3d 9f57 693c
000002c0: 769f 6abd fb5a 65bd 6bc0 68bd f2c3 72bd
000002d0: 8907 2ebe 3f85 c6bc 7419 4bbd 8a3f 25bc
000002e0: 6fb3 203d e177 8a3d 3a0a 613d 4e75 0a3c
000002f0: 36db 873d d9aa 373c 3ba5 693d dfb9 163d
00000300: 3ae2 9d3d 1af4 c83c 9f2b 8cbc b9c2 8bbd
00000310: 79e6 febc 20e0 4c3c 05e5 963d 7833 aa3c
00000320: e6bf 123d 5916 323d 9af3 cc3c 60d1 a0bd
00000330: 10cb 463d 5da9 073d 946c 063d ff12 b8bc
00000340: 45c7 c53b b51e 223d c081 d73b f499 a4bc
00000350: 7c5b 60bb 34ee 653d 2b33 1f3b 6f62 d0bc
00000360: 6c63 26bd bd7e 563d 277a 9bbd 1f6a 11bd
00000370: 17c1 733d b11b aebc afe9 00bd 6b5f a33d
00000380: fdb5 02ba d4fd 8a3d ccdf 863d 3253 ca3c
00000390: fde0 ac3c a7e5 74bd 808d a73d d973 04bc
000003a0: 40b9 5bbd 6985 513d cf5c 673d 17cb 933c
000003b0: d1b3 ae3b 9fec 59bd 98e1 633d c288 8b39
000003c0: c005 42bd d95b 68bd 615d f8bc 2966 b53c
000003d0: bacd 703d 67e3 18bd b846 e9bc 40ee 57bd
000003e0: 4c9c 973d 633e fcbc 457a 393d 994e 473d
000003f0: aa3c eb3c 5e3d 0a3c 0b39 023d aab5 48bd
-0.041659858 0.056254867 0.05802421 0.023213793 -0.089055456 0.06865458 -0.07504189 -0.07824162
0.047052693 -0.020311315 0.0111784255 0.05135439 -0.008183499 -0.022444082 -0.024899121 0.046583675
-0.06959038 0.06970705 -0.06634437 0.07522806 0.033730216 0.041566152 0.040026806 -0.01399317
-0.05532301 -0.07926849 0.07382404 -0.051556204 0.04548053 -0.001974698 -0.07376319 -0.07186665
-0.010704995 -0.04698823 -0.08385517 -0.03534218 -0.07391849 0.061887003 -0.022396091 -0.07700937
-0.058148388 -0.00056719745 0.06807627 -0.008178872 -0.00877607 0.020846061 -0.030704414 0.028100815
-0.067089275 -0.07503624 -0.032615934 -0.04491204 0.06643543 -0.020125587 0.057928395 -0.033029344
-0.0535591 0.05606712 -0.05300147 0.0038421652 -0.057287365 0.0168283 0.080835894 -0.014001627
0.072765596 -0.04348274 -0.018463692 -0.03313998 -0.033196792 0.0019212271 -0.054820433 0.029777918
-0.030202078 0.027721688 0.009523542 -0.048647214 0.04167918 0.006801974 -0.032247808 -0.013256608
-0.032689273 -0.020973982 0.057694547 0.0367599 0.047981627 0.017654888 0.049736664 -0.07211683
0.06789418 0.0060558366 0.037983622 -0.02661682 -0.06978145 -0.0466377 -0.03035442 -0.09671784
-0.015293797 0.05863865 -0.18477724 -0.019338327 0.05157033 -0.03625697 0.0466842 0.06937644
0.025753452 -0.058591995 -0.06109028 -0.049762566 0.04116912 -0.025612883 -0.030789927 -0.065295674
-0.049689233 -0.047902815 0.056474507 -0.038334277 -0.03167697 -0.027726874 -0.058683626 0.06961585
0.03727931 -0.0662471 0.06558824 0.0646598 -0.02898556 0.03705809 0.037536655 -0.028466037
-0.0027488086 -0.05852159 0.023308834 0.048501726 -0.014974666 0.010176647 -0.008559843 -0.07270645
-0.0052609923 0.015503499 0.027125241 -0.090051 -0.020801144 0.035522517 0.031012688 0.046997666
-0.036326554 -0.093835525 0.050780185 0.09502523 0.005247696 -0.02774914 0.025035325 -0.05407123
-0.05950456 0.059582416 0.03726092 0.0632266 -0.05818344 -0.066954255 0.081399076 -0.05082273
0.01888549 -0.032947555 -0.07537465 0.030062307 -0.07372525 0.020996056 0.04709796 0.022256479
0.058790598 -0.100995526 -0.037975334 0.032257333 0.014578544 -0.039595965 0.06996332 0.014242082
-0.05728098 -0.05599497 -0.05682413 -0.0592689 -0.16995062 -0.024233459 -0.04958482 -0.01008595
0.03923362 0.06761146 0.054941393 0.008450819 0.06633608 0.011210167 0.05704234 0.036798354
0.07709165 0.02453046 -0.017110644 -0.0682425 -0.031115757 0.012504607 0.07367901 0.020776495
0.03582754 0.043478344 0.025018502 -0.07852435 0.0485335 0.0331205 0.032818392 -0.022469996
0.0060357177 0.039580066 0.0065767467 -0.020092942 -0.0034234216 0.05613537 0.0024291973 -0.025437562
-0.04062216 0.05236696 -0.07591658 -0.035501596 0.059510317 -0.021253439 -0.031472858 0.07977184
-0.0004986225 0.06786695 0.065856546 0.024697874 0.021103377 -0.059789326 0.08181286 -0.008084261
-0.053643465 0.05115262 0.056484994 0.018041177 0.0053314944 -0.053204175 0.055635065 0.00026614039
-0.047368765 -0.056728218 -0.030317964 0.02214344 0.058789946 -0.037326243 -0.028476104 -0.052717447
0.07402858 -0.030791467 0.04528262 0.04865894 0.02871545 0.008437483 0.03179268 -0.049001373

emb_model.convs.2.lin_rel.bias f4 [64]
00000000: 9bd8 583c 4b2e 473d 138f 53bd 8ef7 94bd
00000010: 0843 a83c c033 99bd c683 0ebc d4ba 7e3d
00000020: 28ee 5cbd 0fc2 513c 01c4 4b3b aa4c 873d
00000030: 76e3 243d 4524 e03c 975e 12bd 85ba 84bd
00000040: fcb7 84bc f528 4c3d a003 483d d974 10bd
00000050: 6d16 40bc b3b8 44bc afef 7d3d cbaf ed3c
00000060: 0f2e 9fbd 9069 babb beb3 5fbc 609c 323d
00000070: 8da7 5c3d 1476 9fbd 2cf2 2fbd 1eac 71bd
00000080: a0cc 2bbd 9b80 83bb 253b 69bd cb26 24bd
00000090: d3dd d0bb 8a8c 59bd 59b5 62bb da24 8dbd
000000a0: cadd 82bd 733c 02bd 49fe 133d dc66 44bd
000000b0: ba9f 153d 44e5 c93c 32e7 a03c 9950 afbc
000000c0: f414 263d f6f6 2fbc 0c09 c4bc b798 b43a
000000d0: 0048 0bbd 9a1e 633d 5c1e 323d 74c2 ecbc
000000e0: 74a5 4a3d cbd3 ae3c 1985 b73c b8af 34bd
000000f0: d57d 09be e272 78bb 5c86 d13d 44d0 053b
0.0132352365 0.048628133 -0.051650118 -0.0727378 0.020539775 -0.07480574 -0.008698409 0.062189892
-0.05393806 0.012802615 0.003109217 0.066064194 0.040255986 0.027361045 -0.03573474 -0.06480888
-0.016201012 0.049843747 0.048831582 -0.035267685 -0.011724097 -0.012006926 0.06199616 0.029014489
-0.07772457 -0.0056888536 -0.013653694 0.043606162 0.053870726 -0.077861935 -0.042955562 -0.059002034
-0.041943192 -0.0040131337 -0.05694117 -0.04007606 -0.0063740998 -0.053112544 -0.0034592955 -0.068917945
-0.06389959 -0.03179593 0.036131177 -0.047949657 0.03652928 0.024645455 0.019641493 -0.021400737
0.040547326 -0.010740032 -0.023930095 0.0013778423 -0.03400421 0.055449106 0.043485984 -0.028901316
0.049474195 0.021341225 0.022402333 -0.04411289 -0.13426907 -0.0037910272 0.10230705 0.0020418325

emb_model.convs.2.lin_root.weight f4 [64, 192]
00000000: e7c1 2ebc c1c8 8dbd e430 c3bd b76b b0bc
00000010: 4e8d 063d a665 aabd 20c6 b73d 5f3b 70bb
00000020: 1c23 c43d 50ba c13c b1ea 6fbc f46a babd
00000030: 98b4 f0bc ed67 a93d 1e2e 3a3d 3ade 82bc
00000040: 662c 4abc 4a35 c1bc e427 aabc c5b9 3b3c
00000050: 33f3 babd 9de1 383c 7b4b aa3d 0c3f a73c
00000060: f15a dd3d 17f1 693d e40a c7bc 87fd 213d
00000070: 0d7a d03d 5f79 533d d666 bbbc d151 d3ba
00000080: b6a9 a3bd 5f41 4b3c 91b0 ba3d 3d19 a03d
00000090: 3a56 8a3d 62f6 5dbd c803 833d 8984 cb3c
000000a0: 8ada 93bc 1002 1e3c 790d dabd c44f 1fbb
000000b0: 13d1 d43c 8db1 35bd d5bc 05bc f198 803d
000000c0: 8671 f6bc 4f6d 7e3d 3c1b c53b 209f 4b3b
000000d0: 70f2 023c 46e3 dfbd e799 6bbd 5255 a0bc
000000e0: dbbe a93d 9cbc 6cbd 246f 9bbd cb92 c5bd
000000f0: d366 c63d e691 8bbb d5e8 37bd b0bb d6bc
00000100: 8aa2 0bbd 2183 18bc e201 13bd f415 193d
00000110: 21f4 803c 76d6 8cbc 4c78 413d a102 f5bc
00000120: df6d 4abb 4c23 d5bd 8c70 953c 8d5d e8ba
00000130: 00fa 6c3d 9fa8 94bb d778 a0bd 3e13 14bd
00000140: 6f7a eebb de51 66bd 20b5 7f3d 1ad2 cc3d
00000150: 2f0b a8bd 692a 823d 7f0b 2cbd 9a0f 953c
00000160: 5441 45bd 289d 3c3d 427d 68bd 81ee 6bb8
00000170: 59ec c53c 7588 193e 606b 22bd 0532 e5bc
00000180: 8ba5 c7bd 5a39 02bd 4c74 26bc ad32 45bc
00000190: 5334 80bc aa31 653d 652b 1e3d 73ca 33bd
000001a0: b1b2 a9bd d464 5e3d 8b1a dabb e955 1c3e
000001b0: 23a5 0c3d e054 55bd 7944 e3bc 4d18 c4bd
000001c0: 35b2 533c 8418 823d 80bb d73c cbbc e7bd
000001d0: 815f ba3c f8f6 b4bc 1121 473d 357d 2b3d
000001e0: 1f8e 78bc b414 a43c a3e4 66bd f7d7 3fbd
000001f0: e65a f03c d0b9 8cbc 8ff8 cebd 8e0a 82bd
00000200: 27d9 72bd 7ed5 3a3d e146 9dbc 046f 363a
00000210: 75e1 71bd ddcf 733d 1ab1 903d d0f7 04bd
00000220: b74c 10bd 32c3 f33c 136d 73bd a814 313d
00000230: 7fd2 a83c 6130 c03d 9fc6 ddbc 294a 0ebe
00000240: 5346 913c 6818 3bbd f84e d33d 9ec1 35bd
00000250: 761b 6c3d ed72 2c3d 2c44 debd d709 25bd
00000260: c98c fc3d 32d8 213d 5c4d 82bd 458e 863d
00000270: 4bad f93c 6f4f 4bbd b431 80bd 995f 693d
00000280: b584 533c 70f2 553d 125b 54bd 0442 323d
00000290: ac80 0c3d 5c23 acbc 128c ea3c 4c9f b43d
000002a0: 7663 96bd 76bc 98ba e5d5 9ebd 701b adbd
000002b0: 947f bebd 5f96 fe3c 5180 31bd cc5e d63c
000002c0: 4f0c 3cbc 1a35 acbd 35a8 b1bd 1361 113d
000002d0: 94b8 f53d c6e8 b93d 9a71 73bd dcc7 6a3c
000002e0: 3729 663d 4467 a8bb 376d a03d d36d 963c
000002f0: 405a 4cbd cb40 10bd 6189 8e3b eb0d 27bc
00000300: fa87 a3bc f823 c53b fdff 5abd 6288 62bd
00000310: b5b6 3fbd 4ce5 2ebd 9aec 8c3c f849 063d
00000320: 93c7 4d3d 57b1 913c 7831 5d3d f31a 99bc
00000330: 4ae1 e33c f5dd 603d 3edd 0339 13f3 77bd
00000340: c3fd 2ebd f889 62bc 510a 51bc 4926 863d
00000350: 03e9 e5bb d9c8 063c 46b1 46bd 121c 14bc
00000360: 4fd6 12bb a0b7 81bd f102 a33c 48aa e2bc
00000370: 2054 40bd 015a 5b3d ce27 5f3d b094 5abc
00000380: ad0d 19bc 6cc3 3bbd 6662 db3c 5f49 10bd
00000390: 1e44 88bc 651d 26bd f6a8 4a3d 11f1 41bd
000003a0: f1dd 873b b427 0cbd ab09 17bc 292e 82bc
000003b0: 2479 dbba f496 59bd 622e 833d f884 873d
000003c0: 95e8 5d3c 2b94 33bd 9f61 01bd aed8 713d
000003d0: d497 55bd b2ff 86bd d6c7 ed3a d95d fcbb
000003e0: 58b3 783d ca48 59bc 48f0 8cbd bc0b 843d
000003f0: 7433 febb 2966 98bb 06bd 09bd 2aa2 89bc
-0.010666347 -0.069230564 -0.095308095 -0.021535737 0.032849602 -0.08320169 0.08973336 -0.0036656482
0.09577009 0.023648411 -0.014643357 -0.09102431 -0.029382989 0.082717754 0.045454137 -0.015975107
-0.012339687 -0.02358498 -0.020770974 0.011457865 -0.09128418 0.011284259 0.08315178 0.020415805
0.10808361 0.057114687 -0.024297185 0.039548423 0.10179529 0.05162942 -0.022876184 -0.0016122406
-0.07991354 0.012405722 0.091157086 0.07817314 0.06754728 -0.054190047 0.063972056 0.024843471
-0.018048543 0.009644046 -0.10647101 -0.0024309019 0.0259786 -0.04435878 -0.008162697 0.06279171
-0.030083429 0.062115964 0.0060152095 0.0031070188 0.007992372 -0.10932021 -0.05751982 -0.019571934
0.08288356 -0.05779706 -0.07589558 -0.09647139 0.09687581 -0.004259336 -0.04489978 -0.026212543
-0.034090556 -0.009308607 -0.035890467 0.03737445 0.01574141 -0.017192107 0.047233865 -0.02990848
-0.0030888242 -0.10407123 0.018242143 -0.0017728076 0.057855606 -0.0045367028 -0.07835548 -0.036151163
-0.007277779 -0.05623042 0.062428594 0.10001011 -0.08205258 0.06355745 -0.04200315 0.018195916
-0.048158005 0.046048313 -0.05676008 -5.625049e-05 0.02416055 0.1499346 -0.039653182 -0.027977953
-0.09748372 -0.031792976 -0.010159563 -0.012036008 -0.01564995 0.055955566 0.038615603 -0.043894242
-0.08286036 0.054295376 -0.006655996 0.15267147 0.034337174 -0.052082896 -0.027742611 -0.095749475
0.012920906 0.06352332 0.026334524 -0.11315306 0.022750618 -0.02209042 0.04861552 0.041867454
-0.015170603 0.020029403 -0.05637039 -0.04683682 0.029340219 -0.017178446 -0.101060025 -0.063496694
-0.059289124 0.04561376 -0.019198837 0.00069592916 -0.059052903 0.059524406 0.070650294 -0.032462895
-0.03522941 0.029756162 -0.059430193 0.04323259 0.020608185 0.093842275 -0.027072249 -0.13895477
0.017733729 -0.045677572 0.103177965 -0.0443741 0.057643376 0.04210179 -0.108528465 -0.040292587
0.1233154 0.03951282 -0.063624114 0.065701045 0.03047814 -0.0496363 -0.0625948 0.056975935
0.012910058 0.05223316 -0.051844664 0.04351999 0.0343024 -0.021012954 0.028631244 0.08819446
-0.073431894 -0.0011652845 -0.07755641 -0.08452499 -0.09301677 0.031077562 -0.043335263 0.02616825
-0.011477544 -0.08408566 -0.08674661 0.035492968 0.11998096 0.09077601 -0.05943451 0.014329877
0.05619165 -0.0051392633 0.07833331 0.018362915 -0.049890757 -0.03521804 0.004349873 -0.010196189
-0.0199623 0.0060162507 -0.053466786 -0.055305846 -0.046805102 -0.042699143 0.017202664 0.032785386
0.050239157 0.017784758 0.054002255 -0.018689608 0.027817387 0.054899175 0.00012575553 -0.060534548
-0.042722475 -0.01382684 -0.012758807 0.06550271 -0.0070163026 0.008226597 -0.048508905 -0.009039896
-0.002240557 -0.06333852 0.019898864 -0.027669087 -0.046955228 0.05355263 0.05448132 -0.013341114
-0.0093416395 -0.045840666 0.026780318 -0.035226222 -0.016634043 -0.040555377 0.04947754 -0.04734904
0.0041463305 -0.03421755 -0.009218614 -0.015891152 -0.0016744477 -0.053122476 0.06405331 0.06617159
0.013544221 -0.043842476 -0.03158724 0.059044532 -0.052146748 -0.06591739 0.0018141221 -0.007701617
0.06071791 -0.013261983 -0.068817675 0.06447551 -0.0077575985 -0.0046508503 -0.033627532 -0.016800959
