matching/src/ckpt/model.pt (torch, 568337 bytes, 25 tensors)

emb_model.learnable_skip f4 [4, 4]
0	0x3f800000	1.0
1	0x3f800000	1.0
2	0x3f800000	1.0
3	0x3f800000	1.0
4	0x3f800000	1.0
5	0x3f800000	1.0
6	0x3f800000	1.0
7	0x3f800000	1.0
8	0x3f800000	1.0
9	0x3f800000	1.0
10	0x3f800000	1.0
11	0x3f800000	1.0
12	0x3f800000	1.0
13	0x3f800000	1.0
14	0x3f800000	1.0
15	0x3f800000	1.0

emb_model.pre_mp.0.weight f4 [64, 1]
0	0x3ee73d30	0.4516387
1	0x3ed19394	0.40932906
2	0xbf2b25b6	-0.6685442
3	0x3f1ccb72	0.6124793
4	0xbf613bc6	-0.8798183
5	0x3f401984	0.75038934
6	0xbf71ce54	-0.94455457
7	0xbeb5f17c	-0.355358
8	0x3e5f5850	0.21811032
9	0x3e810da4	0.2520572
10	0xbf21e5f6	-0.6324152
11	0xbf0fe2f0	-0.56205654
12	0x3f1c3542	0.61018765
13	0xbf32e53c	-0.69881034
14	0x3f75ec78	0.9606395
15	0x3f5ef746	0.8709606
16	0x3df8e450	0.12152922
17	0x3ea81298	0.32826686
18	0xbf1cbf0c	-0.61229014
19	0xbf4f22ca	-0.8091246
20	0xbdddead0	-0.108358026
21	0xbeeec22c	-0.46632516
22	0x3e1a25a8	0.15053427
23	0x3f0c042e	0.5469388
24	0xbd6ee600	-0.058324814
25	0xbe8670c8	-0.2625792
26	0xbf002a32	-0.50064385
27	0xbf427bea	-0.7597033
28	0x3f71cd24	0.94453645
29	0x3ecfd190	0.4058957
30	0xbe630ab8	-0.22172058
31	0x3e013b58	0.12620294
32	0xbf06dcf0	-0.52680874
33	0x3e84a828	0.25909543
34	0xbf24915e	-0.6428431
35	0xbf6d896a	-0.927878
36	0xbde8b970	-0.113634944
37	0x3f315d7c	0.6928327
38	0xbe303640	-0.17208195
39	0xbf50ae14	-0.8151562
40	0x3d03a3a0	0.032138467
41	0x3f200132	0.62501824
42	0x3f485dc6	0.78268087
43	0x3e91eadc	0.28499496
44	0x3d6dfc60	0.05810201
45	0x3f5d75b6	0.8650774
46	0xbe99e95c	-0.30060852
47	0xbe595df0	-0.2122724
48	0xbe823b24	-0.25435746
49	0xbeebaaa4	-0.46028626
50	0xbeaea628	-0.34111142
51	0xbd4c8900	-0.04993534
52	0xbf236796	-0.63829935
53	0x3f4ff6b8	0.8123584
54	0x3f656efa	0.8962246
55	0x3f0bbae4	0.5458205
56	0x3f180ea8	0.59397364
57	0x3f038862	0.5137998
58	0xbe2ac540	-0.16676807
59	0x3ec8971c	0.39177787
60	0xbf66659a	-0.8999878
61	0x3e935cf4	0.28781855
62	0x3e934c68	0.2876923
63	0x3be4cf00	0.006982684

emb_model.pre_mp.0.bias f4 [64]
0	0x3ea54f98	0.32287288
1	0x3f70a3e4	0.9400008
2	0x3f54fbe0	0.8319683
3	0xbf73099e	-0.9493655
4	0x3f59db40	0.85100174
5	0x3f67d1b0	0.9055433
6	0xbf5d9b36	-0.8656496
7	0xbf4049c6	-0.7511257
8	0x3f27a008	0.65478563
9	0x3d044b80	0.032298565
10	0x3db14a90	0.086568
11	0x3ee1b3bc	0.4408244
12	0x3e77e978	0.24210155
13	0x3f4d5d06	0.8022007
14	0x3e791788	0.24325383
15	0xbeacd278	-0.33754325
16	0x3e90d1ec	0.28285158
17	0xbf765012	-0.9621593
18	0x3ec6aecc	0.38805234
19	0xbf7c52d2	-0.98563874
20	0xbdaa73d0	-0.08322871
21	0x3ec16824	0.37774765
22	0x3f0de10e	0.5542153
23	0xbf5d9930	-0.8656187
24	0xbe407d38	-0.18797767
25	0xbe125478	-0.14290035
26	0x3de8ad50	0.11361182
27	0x3f04e190	0.5190668
28	0x3f2ca012	0.6743175
29	0xbf305f50	-0.68895435
30	0xbf5829dc	-0.8443887
31	0x3f0d5ee6	0.5522293
32	0x3ec2e958	0.38068652
33	0xbef9ccdc	-0.48789108
34	0x3f6788f8	0.9044337
35	0x3cd70fc0	0.026252627
36	0xbe8601ac	-0.2617315
37	0x3ee290c0	0.4425106
38	0xbe5254b0	-0.20540118
39	0xbf0730f6	-0.52809083
40	0x3e97e2a0	0.2966509
41	0xbf411a3a	-0.75430644
42	0xbf4fdc32	-0.81195366
43	0xbf2eb908	-0.68251085
44	0x3f40ffba	0.7539021
45	0xbec4219c	-0.38306892
46	0x3e2710c0	0.16314983
47	0x3dc2e2b0	0.095158935
48	0xbf6300b4	-0.8867295
49	0x3f114c9c	0.5675752
50	0x3e0ff370	0.14057708
51	0xbf0f8ac6	-0.56071126
52	0xbf40ca26	-0.75308454
53	0xbc486300	-0.012230635
54	0x3f5f4fa6	0.8723091
55	0xbf2fb220	-0.6863117
56	0x3ed60128	0.41797757
57	0xbef0a734	-0.47002566
58	0xbf35a146	-0.7094921
59	0x3f7b76a2	0.98227894
60	0xbe5aee78	-0.21380031
61	0x3ec43078	0.3831823
62	0x3f3c9508	0.73664904
63	0x3df3c2f0	0.11902416

emb_model.convs.0.lin_rel.weight f4 [64, 64]
0	0x3d22e660	0.039770484
1	0xbd80f93e	-0.06297539
2	0x3d994268	0.07483369
3	0xbd6b7048	-0.057480127
4	0x3c24e390	0.010064021
5	0xbcbcdc70	-0.023054332
6	0x3dce8a42	0.10084964
7	0xbdaa7734	-0.083235174
8	0x3d294978	0.04132983
9	0xbd05eb14	-0.03269489
10	0xbd2ca8dc	-0.042153224
11	0x3d9a3c8a	0.07531078
12	0xbcf01180	-0.02930522
13	0x3d3cca08	0.04609111
14	0xbdf68fc0	-0.12039137
15	0x3d60d5b8	0.054891318
16	0x3de78a68	0.11305696
17	0xbdf41f3a	-0.119200185
18	0xbd9f6cb4	-0.07784405
19	0xbd15a720	-0.036536336
20	0x3df0568c	0.117352575
21	0x3d2b06c4	0.0417545
22	0xbd69429c	-0.05694829
23	0xbd892f54	-0.0669848
24	0xbdb199aa	-0.08671887
25	0x3dcb5572	0.09928407
26	0x3c218ee0	0.009860724
27	0xbde44102	-0.11145212
28	0xbda882fe	-0.0822811
29	0xbdae70d0	-0.08517611
30	0xbc543050	-0.012950972
31	0x3dcfb290	0.1014148
32	0x3d1a9b8c	0.037745997
33	0x3ce3d6a0	0.027812302
34	0x3dfe0764	0.124037534
35	0xbd1fac14	-0.038982466
36	0x3ddf7dbe	0.10912655
37	0x3d824768	0.06361276
38	0x3d86234e	0.065497026
39	0xbbcc3200	-0.0062315464
40	0xbd877368	-0.06613809
41	0x3d5b6448	0.053562433
42	0xbde6b6e2	-0.11265351
43	0xbd587064	-0.05284156
44	0xbce20688	-0.027591005
45	0xbcd48148	-0.025940552
46	0x3d9dc03e	0.07702683
47	0xbcb64908	-0.02225162
48	0x3c1d2440	0.009591162
49	0xbd18c020	-0.0372926
50	0xbdfea9d0	-0.12434733
51	0xbd57fb30	-0.052729785
52	0xbd523068	-0.051315695
53	0x3dc14eee	0.09438883
54	0xbdff7834	-0.12474099
55	0x3ce5df90	0.028060704
56	0xbda7487a	-0.08168121
57	0x3cc63c00	0.024198532
58	0x3dcf04cc	0.10108337
59	0xbd6ebae4	-0.0582837
60	0xbcdd75c0	-0.027033687
61	0xbd130ac4	-0.03589894
62	0x3d009b90	0.031398356
63	0xbd901776	-0.07035725
64	0x3dbe3e5e	0.09289239
65	0xbcd712a0	-0.026253998
66	0xbd92560e	-0.0714532
67	0x3dc2adbe	0.09505795
68	0xbd2fc06c	-0.042908117
69	0xbda259f8	-0.079273164
70	0x3d890dc0	0.06692076
71	0x3d0ac4f4	0.033879235
72	0xbdbd5424	-0.09244564
73	0xbdea7c1a	-0.11449452
74	0xbce89e90	-0.028395921
75	0x3de027aa	0.10945065
76	0x3d89a01a	0.0671999
77	0x3c8e1c80	0.017347574
78	0x3df916ee	0.121625766
79	0x3d380bf8	0.04493329
80	0xbda25d8c	-0.07927999
81	0xbc86ce08	-0.016455665
82	0xbd645088	-0.055740863
83	0x3dd95560	0.10611987
84	0x3dadfd76	0.084956095
85	0x3d5b8694	0.05359514
86	0xbd822e8c	-0.06356534
87	0xbd9a95a2	-0.075480714
88	0x3de17630	0.110088706
89	0xbc120910	-0.0089132935
90	0xbd2cae6c	-0.04215853
91	0x3d942c16	0.07234971
92	0xbd1fa918	-0.03897962
93	0x3db9b7fa	0.09068294
94	0x3da2afae	0.079436645
95	0xbda0b38a	-0.07846744
96	0xbdf573b8	-0.11984962
97	0x3d5ba47c	0.05362366
98	0x3dccd86e	0.10002218
99	0x3dd405c6	0.10352664
100	0xbdcf4918	-0.101213634
101	0xbdb48e88	-0.08816248
102	0xbdc5db9a	-0.09661026
103	0xbd90d1b8	-0.07071251
104	0xbd934cce	-0.07192384
105	0xbd2be3e0	-0.041965365
106	0xbd7d2878	-0.061806172
107	0x3d9ad40a	0.075599745
108	0x3d4a8aa8	0.04944864
109	0xbdb160fc	-0.086610764
110	0x3d6395f0	0.055562913
111	0x3d891136	0.06692736
112	0x3c060260	0.008179277
113	0xbb46e200	-0.003034711
114	0xbd9f4474	-0.07776728
115	0xbcdaa1f0	-0.026688546
116	0x3dc6489c	0.09681818
117	0xbdeff88e	-0.1171733
118	0x3c1c35c0	0.009534299
119	0xbdb2824e	-0.0871626
120	0x3dc6d560	0.09708667
121	0x3d8127f8	0.063064516
122	0xbcbc6b90	-0.023000509
123	0x3d96c286	0.07361321
124	0xbc27d8a0	-0.0102445185
125	0x3d20d0c0	0.03926158
126	0x39833800	0.0002502799
127	0xbd98e094	-0.0746471
128	0x3df9f920	0.1220572
129	0xbdb0f060	-0.08639598
130	0xbd83b584	-0.06431106
131	0x3d997c02	0.07494356
132	0x3db3b96e	0.08775602
133	0xbdb6651a	-0.08906002
134	0xbda4ea46	-0.080524966
135	0xbc667090	-0.014064923
136	0x3df64fd2	0.12026943
137	0xbca93b40	-0.020658135
138	0xbce33a38	-0.027737722
139	0x3cf3ebf8	0.029775605
140	0xbde2d9b2	-0.11076678
141	0x3de67302	0.11252405
142	0xbdef97b0	-0.11698854
143	0x3da05ea8	0.07830554
144	0xbdd84e34	-0.10561791
145	0x3d8a9f0c	0.06768617
146	0xbdbb10fe	-0.091341004
147	0x3dfd8cde	0.12380384
148	0xbd24ba50	-0.040216744
149	0xbd874676	-0.06605236
150	0x3de31f1a	0.110899165
151	0x3d211af8	0.03933236
152	0xbd96279e	-0.07331775
153	0x3d19b098	0.03752193
154	0xbd2ba704	-0.041907325
155	0xbdd49974	-0.10380831
156	0xbc476d50	-0.012172058
157	0xbd87e904	-0.06636241
158	0x3c58ffc0	0.013244569
159	0xbd14eac4	-0.036356702
160	0xbdb4d998	-0.08830565
161	0xbdf66586	-0.12031083
162	0xbce5a5f0	-0.028033227
163	0x3d8b403e	0.067993626
164	0x397cb800	0.00024101138
165	0x3d9979c2	0.074939266
166	0xbbbc7620	-0.0057513863
167	0x3dc9b564	0.09849051
168	0xbd6a090c	-0.057137534
169	0x3d9717ce	0.07377587
170	0x3d4211ec	0.047380373
171	0x3dd6632e	0.10468136
172	0xbdaea7a6	-0.0852807
173	0x3dc67cd2	0.09691776
174	0x3c02b6f0	0.007978186
175	0xbd50d164	-0.05098094
176	0x3ddb58ca	0.107102945
177	0xbdbd1564	-0.092325956
178	0xbd3e8198	-0.04651031
179	0x3c8343d0	0.016023546
180	0x3a048200	0.0005054772
181	0xbba66c20	-0.0050788075
182	0xbdb2d964	-0.0873287
183	0xbdb0977e	-0.08622645
184	0xbc995ab8	-0.018720016
185	0xbd839bf2	-0.064262286
186	0x3dd4eb90	0.103964925
187	0xbd526450	-0.051365197
188	0x3dedc202	0.1160927
189	0xbd0ee4e8	-0.03488627
190	0x3dadce7a	0.08486648
191	0xb956f800	-0.00020501018
192	0xbd39faf8	-0.045405358
193	0x3db01694	0.085980564
194	0xbdbdddfc	-0.09270856
195	0x3df55428	0.11978942
196	0x3bc10840	0.005890876
197	0xbc3483d0	-0.011017755
198	0x3d2d9b18	0.042384237
199	0xbdf6a088	-0.12042338
200	0xbdedeefa	-0.11617847
201	0xbcb1c7b8	-0.021701679
202	0xbdd85fc0	-0.10565138
203	0x3dd5e198	0.10443419
204	0xbdd50f4c	-0.10403308
205	0x3d0ef508	0.03490165
206	0x3d558ce0	0.052136302
207	0x3d6674b8	0.056263655
208	0x3d289984	0.04116203
209	0x3d8c8a4c	0.068623155
210	0x3df8b84c	0.12144527
211	0xbd4e5a04	-0.050378814
212	0x3dbd761a	0.09251042
213	0xbd90ea74	-0.070759684
214	0x3d174828	0.036934048
215	0xbd6d4ca8	-0.057934433
216	0xbdfcf37a	-0.12351127
217	0xbceeee68	-0.029166415
218	0x3d7705e4	0.060308352
219	0xbdd6604a	-0.104675844
220	0x3d32f57c	0.043691143
221	0xbb867920	-0.0041037947
222	0x3d51b5ec	0.051198885
223	0x3d943e1c	0.07238409
224	0x3d5ed910	0.054406226
225	0xbd0f46c4	-0.034979597
226	0x3b0b3a40	0.0021244437
227	0x3cb414c8	0.021982566
228	0xbd02df0c	-0.031950995
229	0xbdca66c8	-0.09882885
230	0xbdecee68	-0.1156891
231	0x3d9bcc28	0.07607299
232	0x3daab378	0.08335012
233	0xbdd222d6	-0.10260551
234	0x3d02ccb4	0.0319335
235	0x3d941bc2	0.07231857
236	0xbc7c8d40	-0.015414536
237	0xbccb7898	-0.024837777
238	0x3cd74570	0.026278228
239	0xbda9a43c	-0.08283278
240	0x3de151fc	0.110019654
241	0xbcc63038	-0.024192914
242	0x3cfd8ad8	0.030949995
243	0x3b839b00	0.00401628
244	0x3d276758	0.04087004
245	0xbdd6b7b8	-0.1048426
246	0x3c0510c0	0.008121669
247	0x3df4c4f0	0.11951625
248	0xbd67ddf4	-0.056608155
249	0x3d4f5858	0.05062136
250	0x3c4dae70	0.012553796
251	0xbd2e7698	-0.04259357
252	0xbddd1af2	-0.10796155
253	0x3d675610	0.05647856
254	0xbd817e56	-0.06322925
255	0xbdd000b4	-0.10156384

emb_model.convs.0.lin_rel.bias f4 [64]
0	0x3dc9dfd2	0.098571435
1	0x3bfe5860	0.007762
2	0xbd4641ec	-0.04840271
3	0x3ddb035a	0.10693999
4	0x3ca6d628	0.02036579
5	0xbcf87200	-0.030327797
6	0x3db61ff8	0.08892816
7	0x3d0d8f8c	0.034560725
8	0x3d0482a0	0.032351136
9	0x3c2971f0	0.010342106
10	0x3d9b9204	0.0759621
11	0xbdf2f9d0	-0.11864054
12	0x3dc55f3a	0.09637304
13	0x3dff455c	0.12464401
14	0x3d8b46b0	0.06800592
15	0x3ba9ea00	0.0051853657
16	0x3cf3b958	0.029751465
17	0x3d07cc88	0.03315404
18	0x3ddf04f6	0.10889618
19	0x3d16d194	0.036820963
20	0x3da7457c	0.0816755
21	0xbdb79ac6	-0.089650676
22	0xbdec3e08	-0.11535269
23	0xbd5d9434	-0.054096416
24	0xbda28b12	-0.07936682
25	0xbde40bda	-0.11135073
26	0xbd98312e	-0.07431255
27	0xbd7cb014	-0.06169136
28	0xbdc00900	-0.093767166
29	0xbd760e2c	-0.06007211
30	0x3dfe187c	0.12407014
31	0x3dba8c06	0.091087386
32	0x3d27675c	0.040870056
33	0x3dac5cec	0.08416161
34	0x3ce9f840	0.028560758
35	0x3c0d4e30	0.008624598
36	0xbddd9488	-0.10819346
37	0x3db0e2dc	0.0863702
38	0x3dce0f1a	0.10061474
39	0x3cac4578	0.021029219
40	0x3d69820c	0.057008788
41	0x3c0605e0	0.008180112
42	0xbdcd62ec	-0.100286335
43	0xbdb5152e	-0.0884193
44	0xbd6640d4	-0.05621417
45	0xbd38ceb0	-0.045118988
46	0xbdaf69ce	-0.085651025
47	0xbde9fc20	-0.11425042
48	0xbc8f8d48	-0.017523423
49	0x3dd7283e	0.105057225
50	0x3dab19cc	0.0835453
51	0xbdadc89c	-0.08485529
52	0x3c9aded0	0.018905073
53	0x3daff2ca	0.0859123
54	0xbda18d3c	-0.078882664
55	0xbd945fac	-0.072448105
56	0xbcc6a298	-0.024247453
57	0xbdfa2ac4	-0.12215188
58	0xbd6cbcf4	-0.057797387
59	0x3d2bb2c8	0.041918546
60	0xbde0bfd6	-0.1097409
61	0x3dae4a34	0.08510247
62	0x3dbe7920	0.093004465
63	0x3d985282	0.07437612

emb_model.convs.0.lin_root.weight f4 [64, 64]
0	0x3d38797c	0.04503773
1	0xbcda2a58	-0.02663152
2	0xbb0fa500	-0.0021918416
3	0xbc8c9790	-0.017162114
4	0x3d043f20	0.032286763
5	0x3d99e37a	0.07514091
6	0xbbc4a360	-0.006000921
7	0xbd40d310	-0.047076285
8	0xbd1275b4	-0.03575678
9	0x3dcc843e	0.09986161
10	0x3d13c928	0.03608051
11	0x3dd853be	0.105628476
12	0xbaa5b700	-0.0012643039
13	0x3db4fda0	0.08837438
14	0xbd5a2d4c	-0.053265855
15	0xbd3bb72c	-0.045828983
16	0x3c120860	0.00891313
17	0x3dad4e44	0.084621936
18	0xbdbff8ee	-0.093736514
19	0xbd576938	-0.05259058
20	0x3d3deb60	0.04636705
21	0x3cd13d70	0.025541991
22	0x3a34d600	0.00068983436
23	0xbd1a1194	-0.03761442
24	0xbd380050	-0.044922173
25	0xbda5fb76	-0.08104603
26	0x3dff9e3a	0.12481351
27	0x3d527f90	0.051391184
28	0x3b4de080	0.003141433
29	0xbda8c552	-0.08240761
30	0x3dda0638	0.106457174
31	0x3c161400	0.009160042
32	0x3daf4bec	0.08559403
33	0xbd880b2c	-0.06642756
34	0x3d42fa9c	0.04760228
35	0x3dd09364	0.101843625
36	0xbcaaffc8	-0.02087392
37	0x3b9c41a0	0.0047685653
38	0x3df188f2	0.11793698
39	0xbd7c41c4	-0.061586156
40	0x3d857b36	0.06517641
41	0xbc8dd1d8	-0.017311975
42	0x3d6ff798	0.058585733
43	0xbdb6f78e	-0.08933936
44	0xbddca102	-0.10772897
45	0x3d43b690	0.047781527
46	0x3c4e2540	0.012582123
47	0xbd746060	-0.059662223
48	0x3d3e3094	0.046433046
49	0xbdabd696	-0.083905384
50	0xbc385e90	-0.011253014
51	0xbdfec150	-0.12439215
52	0x3d285514	0.04109676
53	0xbdf0f776	-0.117659494
54	0x3dffeec2	0.12496711
55	0xbd0a962c	-0.03383462
56	0xbcb38af0	-0.021916837
57	0xbbf04040	-0.007331878
58	0xbdb0c432	-0.08631171
59	0x3dc5cbfc	0.096580476
60	0x3db1100e	0.0864564
61	0x3dda0420	0.10645318
62	0x3d91a12a	0.07110818
63	0xbdbc6d08	-0.092004836
64	0xbdb86ba4	-0.09004906
65	0x3c118910	0.008882776
66	0xbc4ff680	-0.0126930475
67	0xbda694fe	-0.08133887
68	0x3df1c308	0.118047774
69	0x3d8cb108	0.068697035
70	0xbbb39120	-0.0054799467
71	0x3de15088	0.11001688
72	0x3d6358d4	0.055504635
73	0xbdbe3334	-0.0928711
74	0xbdc9a2a0	-0.098454714
75	0x3dd42240	0.10358095
76	0xbcf6ec00	-0.03014183
77	0xbd072970	-0.032998502
78	0x3d86385e	0.0655372
79	0x3dc1d4ce	0.094644174
80	0x3d47137c	0.048602566
81	0x3d4181fc	0.047243103
82	0xbdff8a06	-0.12477498
83	0x3d8a19fe	0.06743239
84	0x3d5febcc	0.054668233
85	0x3de3940c	0.11112222
86	0xbbdfa5a0	-0.006825164
87	0x3d7846a8	0.060614258
88	0x3dbc1a7a	0.091847375
89	0xbb36d040	-0.0027895123
90	0x3c6f2890	0.014597073
91	0xbdc03414	-0.09384933
92	0xbc74a580	-0.014932036
93	0xbddafd64	-0.10692862
94	0x3dca129c	0.09866831
95	0x3c8380d8	0.016052648
96	0xbb61fb40	-0.0034482032
97	0x3ac02500	0.0014659464
98	0xbd83a8cc	-0.0642868
99	0xbd9f3ac0	-0.077748775
100	0x3cb090a8	0.021553352
101	0x3c43bf10	0.011947408
102	0xbd654000	-0.05596924
103	0x3d894982	0.06703474
104	0x3dc1426c	0.09436497
105	0xbd3a3fc8	-0.045470983
106	0x3cfaafc8	0.030601397
107	0x3df35c7c	0.11882874
108	0x3dce1092	0.10061754
109	0xbd40c5c4	-0.047063604
110	0xbd9ce2da	-0.07660456
111	0xbd4b0cdc	-0.04957281
112	0x3dc8dfba	0.098082975
113	0x3d91e968	0.07124597
114	0xbd4a5bf0	-0.049404085
115	0x3d2756f8	0.040854424
116	0xbcafbc00	-0.02145195
117	0xbd4d4858	-0.05011782
118	0xbdd7e186	-0.10541062
119	0xbdfe37f4	-0.12413016
120	0xbdc3db54	-0.09563318
121	0xbcf19e50	-0.029494435
122	0x3b2c9040	0.0026331097
123	0xbda597b8	-0.08085579
124	0x3d6b04a4	0.057377473
125	0xbdfda926	-0.12385778
126	0x3d20e020	0.039276242
127	0xbda1680e	-0.07881175
128	0x3dbc99be	0.092090115
129	0xbdaf83de	-0.085700735
130	0x3de5088c	0.11183271
131	0x3d4e2bfc	0.050334916
132	0x3db9050a	0.09034164
133	0x3c45b5c0	0.012067258
134	0x3d0bbfdc	0.03411852
135	0x3ceebd90	0.029143125
136	0x3dd7da92	0.10539736
137	0x3cebaaa0	0.028767884
138	0xbdf7a9ec	-0.12092957
139	0x3d75e8c8	0.06003645
140	0xbbff6a80	-0.007794678
141	0xbda4193c	-0.080126256
142	0x3d5be0e8	0.053681284
143	0xbd747eec	-0.059691355
144	0x3abe4e80	0.0014519244
145	0x3d6a6fd4	0.057235554
146	0x3caefe00	0.021361351
147	0x3d1c57a8	0.038169533
148	0xbd7c7984	-0.061639324
149	0x3c55f210	0.0130582005
150	0x3d7a7c9c	0.061153993
151	0xbd8ddc30	-0.06926763
152	0x3d0e90b4	0.03480597
153	0x3ce0b9b8	0.027432308
154	0x3cfa9fc8	0.030593768
155	0x3da1337e	0.078711495
156	0x3d80bdbe	0.062861905
157	0xbc6b1650	-0.014348581
158	0x3c7181b0	0.014740393
159	0xbd077698	-0.033072084
160	0x3bb6ebc0	0.005582303
161	0xbcc3f780	-0.023921728
162	0xbc8b9160	-0.017037094
163	0x3db73914	0.08946434
164	0xbd8f3700	-0.06992912
165	0xbc8ce8f8	-0.017200932
166	0xbc926190	-0.017868787
167	0x3d6ac4c4	0.057316557
168	0x3dca1f0a	0.098692015
169	0x3d3b281c	0.04569255
170	0x3dea6ecc	0.11446914
171	0x3d748e90	0.05970627
172	0xbdc328da	-0.09529276
173	0x3d6d8758	0.057990402
174	0xbd65df2c	-0.056121036
175	0x3d1acdf0	0.037794054
176	0x3d6c918c	0.05775599
177	0xbd9500cc	-0.072755426
178	0xbd8ea07e	-0.06964205
179	0xbdb68532	-0.08912124
180	0x3d26bec8	0.040709287
181	0x3dc30906	0.095232055
182	0x3d6c87f0	0.057746828
183	0x3da73724	0.08164814
184	0xbdaa21d2	-0.08307232
185	0x3d9f51d2	0.07779278
186	0x3d913786	0.070906684
187	0xbdfad7f8	-0.12248224
188	0xbd9f6276	-0.07782452
189	0x3cff4760	0.031161964
190	0x3d8ed97c	0.069750756
191	0xbdfe08e8	-0.124040425
192	0x3dfc2f18	0.1231367
193	0x3d8b642a	0.06806214
194	0x3d8a8b68	0.06764871
195	0x3d903804	0.07041934
196	0x3cc08ad0	0.023503691
197	0xbcc6f3a8	-0.024286106
198	0xbd844838	-0.06459087
199	0xbde53d4c	-0.11193332
200	0x3c52c420	0.012864143
201	0xbc65a3e0	-0.014016122
202	0xbdd12868	-0.10212785
203	0x3d550bac	0.052013084
204	0xbd953ca2	-0.072869554
205	0x3d73790c	0.05944161
206	0x3b84fb60	0.0040582865
207	0xbc9807b0	-0.018558353
208	0x3de54e3a	0.11196561
209	0x3dab55ba	0.083659604
210	0x3d83730e	0.06418429
211	0xbd5a8918	-0.0533534
212	0x3dcf53a8	0.10123378
213	0xbd57fc60	-0.052730918
214	0x3daf1054	0.08548036
215	0x3d8900aa	0.0668958
216	0xbcc55b38	-0.024091348
217	0x3d60bb30	0.054866016
218	0xbd2acc68	-0.041698843
219	0x3a486200	0.00076439977
220	0x3d1f9eb4	0.03896971
221	0x3c0ce2b0	0.008598968
222	0x3ccf4060	0.025299251
223	0x3d081e78	0.033232182
224	0xbda37098	-0.0798046
225	0xbb5d9b80	-0.003381461
226	0xbdeb2994	-0.1148254
227	0xbdd91744	-0.10600141
228	0x3deb111a	0.11477871
229	0x3ba6aa20	0.0050861984
230	0x3dddacf6	0.10824005
231	0xbddae84a	-0.10688837
232	0x3cd01f50	0.025405556
233	0xbca11088	-0.019661203
234	0x3cd4e4f0	0.025988072
235	0x3c703af0	0.014662489
236	0x3d99501a	0.07485981
237	0x3cedaa70	0.029011935
238	0x3dbbabd0	0.0916363
239	0xbd6c652c	-0.057713673
240	0x3da48118	0.08032435
241	0x3d865ae0	0.06560302
242	0xbdff36aa	-0.12461598
243	0x3d5e4f90	0.054275095
244	0x3ca88e38	0.020575628
245	0x3d112fb4	0.035445884
246	0xbd0f35e8	-0.03496352
247	0x3ac3fe00	0.0014953017
248	0x3d65865c	0.05603634
249	0xbccd2150	-0.025040299
250	0x3d6a7b28	0.057246357
251	0xbdfe8e1c	-0.12429449
252	0xbc83a0b8	-0.016067848
253	0x3da599f4	0.08086005
254	0xbca384d0	-0.01996079
255	0x3de4527c	0.11148545

emb_model.convs.1.lin_rel.weight f4 [64, 128]
0	0xbdaa5548	-0.08317047
1	0x3da135e1	0.07871605
2	0xbcf9e38e	-0.030504014
3	0x3d88ec53	0.066857
4	0xbd248dff	-0.04017448
5	0xbc467f18	-0.012115262
6	0xbb715ec0	-0.0036830157
7	0xbd1f2f67	-0.038863566
8	0xbcc6c328	-0.02426298
9	0x3cc8cf54	0.024512924
10	0x3d937cb1	0.072015174
11	0xbc548ec8	-0.012973495
12	0xbd2117e7	-0.039329436
13	0x3b83b250	0.0040190592
14	0xbaf8c140	-0.0018978491
15	0x3db03079	0.086029954
16	0x3b1f8400	0.0024340153
17	0x3d613bd2	0.05498869
18	0xbd86c0c0	-0.06579733
19	0xbd8124db	-0.06305858
20	0xbc7f9970	-0.015600547
21	0xbc1d6d48	-0.009608574
22	0xbcecb5fe	-0.028895374
23	0xbd80ea7c	-0.06294724
24	0xbd095540	-0.033528566
25	0xb9daf400	-0.00041761994
26	0xbd4d2ba0	-0.050090432
27	0xbb2dca40	-0.0026518255
28	0xbaca0180	-0.0015411824
29	0x3d0171b0	0.03160256
30	0xbd08223b	-0.03323577
31	0x3c1ae0c0	0.009452999
32	0xbcaefd7c	-0.021361105
33	0x3dae2feb	0.085052334
34	0x3d24ffca	0.040283002
35	0xbbc94df0	-0.006143324
36	0xbd14e1df	-0.03634822
37	0x3bbfbfd0	0.0058517233
38	0xbb9590b0	-0.0045643672
39	0xbba6d500	-0.0050913095
40	0x3d01f6cc	0.031729504
41	0xbbfdf010	-0.007749565
42	0x3b298480	0.002586633
43	0xbcbe8044	-0.023254521
44	0xbd92a4ab	-0.07160314
45	0xbc591d68	-0.01325164
46	0x3d219dae	0.039457016
47	0xba23c500	-0.0006247312
48	0x3d11bdea	0.035581507
49	0x3d1a780a	0.037712134
50	0x3d99a7a5	0.07502679
51	0xbbce13d0	-0.006288983
52	0xbda9b6cd	-0.082868196
53	0x3d87757f	0.066142075
54	0xbcfc5810	-0.03080371
55	0xbc78d4f0	-0.015187487
56	0x3b949480	0.004534304
57	0x3d36041a	0.044437505
58	0x3c9e1ee0	0.019301832
59	0x3d1ba68e	0.038000636
60	0xbd4772b9	-0.048693392
61	0x3cfe9f44	0.031081803
62	0x3d93ef0d	0.0722333
63	0xbd0339ce	-0.03203755
64	0x3d82e597	0.06391447
65	0xbbc91670	-0.006136708
66	0xbcdd0cb8	-0.026983604
67	0xbd7b0456	-0.061283432
68	0x3d4104ce	0.047123723
69	0x3d785db6	0.060636245
70	0x3c1eb050	0.009685591
71	0x3d42e4ce	0.047581486
72	0xbd8505a6	-0.06495218
73	0xbd832398	-0.06403273
74	0x3d879309	0.066198416
75	0x3d177092	0.03697259
76	0xbd836aa2	-0.06416823
77	0xbb57a720	-0.003290601
78	0xbb732260	-0.0037099347
79	0x3caa0fcc	0.020759486
80	0x3d453316	0.048144422
81	0xbd52f5c7	-0.051503923
82	0xbd13b8c7	-0.03606489
83	0xbd53674d	-0.051612187
84	0xbd93d133	-0.07217636
85	0xbd22b655	-0.039724667
86	0x3d69b896	0.0570608
87	0x3d81235f	0.063055746
88	0x3d404aca	0.046946324
89	0x3d7c92b2	0.061663337
90	0xbd950d4b	-0.07277926
91	0x3d9cc105	0.07654003
92	0x3d2faffa	0.042892434
93	0x3d37d782	0.04488326
94	0xbd0a9718	-0.0338355
95	0x3dab3be3	0.08361032
96	0xbcd3de14	-0.025862731
97	0x3b62f260	0.003462933
98	0x3d368076	0.044556104
99	0xbadcf440	-0.001685746
100	0xbdadcbfb	-0.08486172
101	0x3d83eeab	0.06442007
102	0xbd6cd531	-0.057820503
103	0x3b828080	0.0039826035
104	0x3d8fee11	0.070278294
105	0xbd155f81	-0.036468033
106	0xb975ce00	-0.00023441762
107	0xbb2990e0	-0.0025873706
108	0x3aaa0440	0.0012971237
109	0x3d9c4511	0.07630361
110	0xbd4d0fd1	-0.05006391
111	0xbca2dd98	-0.019881055
112	0xbd92223e	-0.071354374
113	0x3cb741a0	0.02237016
114	0xbcbd34ec	-0.023096524
115	0xbd83013f	-0.06396722
116	0xbce2a4ce	-0.027666476
117	0x3a062080	0.0005116537
118	0x3d2a3e5e	0.041563384
119	0xbccc93cc	-0.024972819
120	0x3ce039f0	0.027371377
121	0xbd79a937	-0.06095239
122	0x3db127b1	0.08650149
123	0xbc217bd0	-0.009856179
124	0xbc9a9464	-0.018869586
125	0xbcfa3fb8	-0.030547962
126	0xbd78167a	-0.06056831
127	0x3db282a5	0.08716325
128	0x3d83d449	0.064369746
129	0xbd710b70	-0.0588488
130	0xbd66bd37	-0.056332793
131	0x3d862209	0.065494604
132	0x3cc91b3c	0.02454912
133	0xbd9db42e	-0.07700382
134	0x3d0d747a	0.03453491
135	0xbc2a77d8	-0.01040455
136	0xbd8040c5	-0.06262354
137	0x3d498252	0.04919655
138	0xbdb462d1	-0.0880791
139	0xbd7986a8	-0.060919434
140	0xbd1834d5	-0.03715976
141	0x3d861309	0.065465994
142	0x3d3e8902	0.04651738
143	0x3d1185a2	0.035527833
144	0x3da252f3	0.079259776
145	0xbd1bf6aa	-0.038077034
146	0xbd0aa537	-0.033848967
147	0x3daee30f	0.08539402
148	0xbbb8ce60	-0.005639836
149	0xbd937042	-0.07199146
150	0x3bfb5f20	0.007671252
151	0xbcf973da	-0.03045075
152	0xbda42cc5	-0.080163516
153	0xbdad9a1c	-0.0847666
154	0x3d46733a	0.048449732
155	0xbda3e7df	-0.0800321
156	0xbd2c411a	-0.042054273
157	0x3d7e027e	0.062014095
158	0x3d6c5c7e	0.057705395
159	0x3d8521c5	0.06500582
160	0x3d14e2e6	0.0363492
161	0xbc952124	-0.01820428
162	0x3d0ff7ce	0.035148434
163	0xbcfe0aee	-0.031011071
164	0xbca96480	-0.020677805
165	0x3d9bc76d	0.07606397
166	0x3d0fc1ba	0.03509686
167	0xbdafde88	-0.08587366
168	0xbca4e940	-0.020130754
169	0x3da1d321	0.07901598
170	0x3d20b68a	0.039236583
171	0x3da3f6f7	0.08006089
172	0xbd2b146a	-0.041767515
173	0x3d02289e	0.031777017
174	0xbd237349	-0.039904866
175	0xbcfd38da	-0.030910898
176	0xbb6ba460	-0.003595613
177	0xbcab2b18	-0.020894572
178	0xbd4d6476	-0.050144635
179	0x3d9beefd	0.07613943
180	0xbd866afb	-0.06563374
181	0x3cf3e490	0.029772073
182	0xbcaa6e68	-0.020804599
183	0x3cc7846c	0.024355136
184	0xbd596c21	-0.053081635
185	0xbd17daeb	-0.03707401
186	0x3d34858e	0.04407268
187	0x3bfbcca0	0.0076843053
188	0xbbe9ead0	-0.0071385875
189	0xbc8f98bc	-0.017528884
190	0x3b746fc0	0.0037298054
191	0xbce3eb62	-0.0278222
192	0xbcc5af4c	-0.02413144
193	0xbda33ab9	-0.07970185
194	0x3d4cb5be	0.04997801
195	0x3d92ef2d	0.071745254
196	0xbdab291d	-0.08357451
197	0xbd4bd5d1	-0.049764458
198	0xbdb49556	-0.08817546
199	0x3d9b7ce7	0.075921826
200	0xbb40b560	-0.0029404983
201	0xbcffb978	-0.031216368
202	0xbd50e43e	-0.05099892
203	0x3cc96a68	0.024586871
204	0xbd6aba68	-0.057306677
205	0x3d1f7662	0.038931258
206	0xbc7c3670	-0.015393838
207	0xbd109f18	-0.035307974
208	0x3c5b5830	0.013387725
209	0x3d94cdeb	0.07265838
210	0x3d40a936	0.047036372
211	0x3da46413	0.080269
212	0x3c9a5988	0.01884152
213	0x3b69b500	0.0035660863
214	0xbcd2bc7c	-0.025724642
215	0x3d65129a	0.055925943
216	0xbce7f942	-0.028317098
217	0x3d19550a	0.037434615
218	0xbcf6c004	-0.030120857
219	0xbd9c29ed	-0.07625184
220	0xbc2504b0	-0.010071918
221	0xbdaf5017	-0.08560198
222	0x3b397aa0	0.002830185
223	0xbca36044	-0.019943364
224	0x3d954d89	0.07290179
225	0x3d3cdc7e	0.046108715
226	0xbadc9600	-0.0016829371
227	0xbccd77d8	-0.02508156
228	0x3d9a3e73	0.075314425
229	0x3d992a69	0.07478792
230	0xbd430d0a	-0.047619857
231	0xbcc8f790	-0.02453211
232	0x3d9049d9	0.07045335
233	0xbb226da0	-0.002478458
234	0x3d86bc6f	0.065789096
235	0x3d6511be	0.055925123
236	0xbd112ac5	-0.03544118
237	0x3d0035fe	0.03130149
238	0xbd9bd280	-0.07608509
239	0x3b8473d0	0.0040421262
240	0x3d6f75a2	0.058461793
241	0x3c9cc388	0.019136205
242	0x3d46c3b6	0.04852649
243	0xbcbb5e08	-0.022871986
244	0xbda4d2fa	-0.08048053
245	0xbd166881	-0.036720756
246	0xbbe1e4e0	-0.006893739
247	0xbd3ee0d6	-0.04660114
248	0x3d8be883	0.068314575
249	0x3d8576a9	0.06516773
250	0x3d92cf4b	0.07168444
251	0x3c0c3b00	0.008558989
252	0x3d695a0e	0.05697065
253	0x3d74e75a	0.059790947
254	0xbb9be600	-0.0047576427
255	0x3d951409	0.07279212

emb_model.convs.1.lin_rel.bias f4 [64]
0	0x3cec5ef8	0.028853878
1	0xbd930dbe	-0.071803555
2	0xbd59b9e4	-0.053155795
3	0x3d9bb161	0.07602192
4	0xbdab2f99	-0.08358688
5	0xbd97cf03	-0.07412531
6	0x3d88e70f	0.06684696
7	0x3ceab62c	0.02865132
8	0x3d13dc82	0.036098965
9	0x3cbf4b78	0.023351416
10	0x3d398a2e	0.045297794
11	0x3d9843a1	0.07434774
12	0x3d6948c2	0.056954153
13	0x3908ac00	0.00013034046
14	0x3d2ee946	0.042702936
15	0xbcc36460	-0.023851573
16	0x3d6754ae	0.05647724
17	0xbc9da398	-0.019243047
18	0x3d4cdfda	0.05001817
19	0x3daf4a4f	0.08559095
20	0x3d06f57a	0.03294895
21	0xbd4e8906	-0.050423644
22	0x3caa428c	0.020783685
23	0xbd74ecc2	-0.059796102
24	0xbda5bd02	-0.08092691
25	0x3d46399a	0.048394777
26	0xbd3af2b6	-0.045641623
27	0x3d8737c3	0.066024326
28	0xbdb08966	-0.08619957
29	0xbd9b55b5	-0.07584707
30	0xbd028515	-0.0318652
31	0x3c3d7bc0	0.011565149
32	0xbdb0f4b9	-0.08640427
33	0xbd9015bc	-0.070353955
34	0x3d9822c7	0.07428508
35	0x3d5b6a6e	0.053568296
36	0x3d98179f	0.0742638
37	0x3cb01a64	0.021496959
38	0xbd00bc56	-0.03142961
39	0xbc3f4bd8	-0.011675797
40	0x3d9f1635	0.077679075
41	0xbd8f6028	-0.07000762
42	0xbdadded0	-0.08489764
43	0x3d1dc766	0.03852024
44	0xbd0564a3	-0.032566678
45	0x3d9a2ec7	0.07528453
46	0xbc67d7b8	-0.014150552
47	0xbd166b50	-0.036723435
48	0xbd3ed12e	-0.046586208
49	0xbd56702b	-0.052353065
50	0xbcf1f518	-0.029535815
51	0xbd998840	-0.07496691
52	0xbcb78a18	-0.022404715
53	0x3d8b9497	0.06815451
54	0xbd8c5342	-0.06851818
55	0x3c9f1478	0.01941894
56	0xbd368075	-0.0445561
57	0xbd43a224	-0.04776205
58	0xbcc6a67c	-0.024249308
59	0xbdab1c72	-0.08355035
60	0xbdb48f92	-0.08816446
61	0xbd5578b7	-0.052117076
62	0x3c580f18	0.013187192
63	0xbdafcd16	-0.08584039

emb_model.convs.1.lin_root.weight f4 [64, 128]
0	0xbd0f3b8d	-0.0349689
1	0xbd5d7cd3	-0.05407412
2	0xbd4adb09	-0.049525294
3	0x3d12b8dc	0.035820827
4	0x3d2af226	0.041734837
5	0x3d443c1e	0.047908895
6	0xbd12d95d	-0.035851825
7	0xbcdf2e7e	-0.027243849
8	0x3c735ec0	0.014854133
9	0xbda50ba4	-0.08058861
10	0xbd5573a2	-0.05211223
11	0x3d21c5ba	0.039495207
12	0xbd88e7ec	-0.066848606
13	0xbd54fd3c	-0.051999316
14	0x3cc25ad0	0.023724943
15	0xbbabdde0	-0.0052449554
16	0x3c920364	0.017823882
17	0x3d8b2e85	0.06795982
18	0x3d5a7c26	0.053341053
19	0xbd033064	-0.03202857
20	0x3d7c84be	0.06165003
21	0x3d88e6ff	0.06684684
22	0x3d190432	0.037357517
23	0xbc7d1198	-0.015446089
24	0x3c4d9ae0	0.012549132
25	0xbd1d5d17	-0.038418856
26	0xbca7fad0	-0.020505339
27	0xbd2530b2	-0.040329643
28	0xbd711630	-0.05885905
29	0x3d1eb716	0.038748823
30	0x3d9ea131	0.077455886
31	0xbdb35762	-0.08756901
32	0x3d59f5f2	0.053213067
33	0xbd85c4db	-0.06531688
34	0xbd3d21d5	-0.046174843
35	0x3cfb0b08	0.030644909
36	0xbd6cc19a	-0.05780182
37	0xbc073660	-0.00825271
38	0xbd11f142	-0.035630472
39	0xbcc6edac	-0.024283253
40	0xbd6e96f7	-0.05824944
41	0x3d9deeeb	0.077115856
42	0x3d9f3365	0.077734746
43	0x3d17890a	0.036995925
44	0xbd7cac59	-0.0616878
45	0x3d3d25be	0.046178572
46	0x3d0bc1f0	0.0341205
47	0x3cd8f008	0.026481643
48	0x3d81b1d5	0.06332747
49	0xbc34bf90	-0.011032
50	0xbd5fdc2d	-0.054653335
51	0xbce89aca	-0.028394122
52	0x3b59aaa0	0.0033213273
53	0x3d8ab059	0.06771917
54	0x3da6da5b	0.08147117
55	0xbd27d478	-0.04097411
56	0x3d912b13	0.07088294
57	0x3d150c60	0.036388755
58	0x3b78b160	0.003794752
59	0xbdb00beb	-0.08596023
60	0x3d07ea04	0.03318216
61	0xbdaf0b49	-0.08547074
62	0x3cfaf300	0.03063345
63	0xbc963d0c	-0.018339656
64	0xbd05ba85	-0.032648582
65	0x3d138bbe	0.03602194
66	0x3d62041e	0.055179708
67	0xbd6e2eb6	-0.058150016
68	0xbdb476e0	-0.08811736
69	0x3a0bb780	0.0005329773
70	0xbd111b9f	-0.035426732
71	0xbcb37a34	-0.021908857
72	0x3d7a75fa	0.061147667
73	0x3d1370e6	0.03599634
74	0xbd18b47f	-0.03728151
75	0xbd9b2550	-0.07575476
76	0x3c620678	0.013795488
77	0xbd2b0991	-0.04175717
78	0x3d6edfce	0.058318906
79	0xbc48aa70	-0.012247667
80	0xbdad1d40	-0.084528446
81	0x3cfd55e8	0.030924752
82	0xbc88cdd0	-0.016699702
83	0xbd880e43	-0.06643345
84	0xbd09d737	-0.03365251
85	0x3d70c5fe	0.05878257
86	0x3d23864e	0.039923005
87	0x3d057b96	0.032588564
88	0x3c948928	0.018131807
89	0x3d7ed32a	0.0622131
90	0x3d97f03b	0.07418867
91	0x3c101790	0.00879468
92	0xbd8ca6d0	-0.068677545
93	0x3d955747	0.072920375
94	0xbcadd02c	-0.021217428
95	0xbd964f4c	-0.073393434
96	0x3c5b72e0	0.013394088
97	0xbd661a53	-0.05617745
98	0x3db228e3	0.08699205
99	0x3d933a89	0.07188899
100	0x3beaf180	0.0071699023
101	0xbd032694	-0.032019213
102	0x3baa8140	0.005203396
103	0xbd78da11	-0.06075484
104	0x3daae213	0.083439015
105	0x3d90857b	0.070567094
106	0x3d92b6a5	0.07163743
107	0x3d291f5a	0.041289665
108	0x3da75ae1	0.08171631
109	0xbd1706aa	-0.03687159
110	0xbcf4bcd8	-0.029875204
111	0x3d825efd	0.06365774
112	0x3c0a94e0	0.008458346
113	0x3d9ea9c1	0.07747222
114	0x3d932f75	0.07186786
115	0xbd503ab4	-0.050837234
116	0xbd91cb0e	-0.07118808
117	0xbd7d5a40	-0.061853647
118	0xbc10f478	-0.008847348
119	0x3d62e512	0.05539424
120	0x3d6ebc06	0.058284782
121	0x3d276b0a	0.040873565
122	0x3d2134aa	0.039356865
123	0x3c884a9c	0.016637139
124	0xbc448200	-0.011993885
125	0xbcad0674	-0.021121241
126	0xbd06b875	-0.032890756
127	0x3d993e3b	0.07482573
128	0x3cdee188	0.027207151
129	0xbc7bedb8	-0.015376501
130	0xbdb474e2	-0.08811356
131	0x3b11e360	0.002226077
132	0x3c199680	0.009374261
133	0x3d2628b6	0.04056617
134	0x3cfa9428	0.030588225
135	0x3d98877d	0.07447717
136	0x3d963a65	0.073353566
137	0xbdb4119c	-0.08792421
138	0x3d136bc2	0.035991438
139	0xbbd91a50	-0.006625451
140	0x3d0c0612	0.034185477
141	0xbcb48f98	-0.022041127
142	0xbc4c7078	-0.0124779865
143	0xbadd17c0	-0.001686804
144	0xbd3ed66a	-0.0465912
145	0xbd81e1f6	-0.06341927
146	0xbda8bb27	-0.082388215
147	0xbd54b6f2	-0.051932283
148	0xbc3bf268	-0.011471368
149	0xbd8ac0e8	-0.06775075
150	0xbd19b04e	-0.037521653
151	0x3baa96d0	0.0052059665
152	0x3b94d900	0.00454247
153	0x3d8450dd	0.06460736
154	0x3b3d7260	0.0028907284
155	0x3d159b96	0.03652533
156	0x3c1067f8	0.008813851
157	0x3c50d5a8	0.012746252
158	0xb98f3d00	-0.00027320534
159	0xbd266107	-0.040619876
160	0x3d39edd6	0.045392834
161	0xba89db40	-0.0010517612
162	0x3c71a250	0.014748171
163	0xbc89d5dc	-0.016825609
164	0x3c7d7ab0	0.0154711455
165	0x3b50fda0	0.0031889454
166	0xbd3120d9	-0.043244217
167	0x3cbf1d98	0.023329541
168	0x3da74043	0.08166554
169	0x3cfb1cf0	0.030653447
170	0xbd8f5a62	-0.06999661
171	0xbccb7a90	-0.024838716
172	0x3d7c9142	0.061661966
173	0x3ceffd60	0.029295623
174	0x3d8bd35d	0.06827424
175	0x3ae6aa40	0.0017598346
176	0xbd6f2020	-0.058380246
177	0x3cd4cf64	0.025977798
178	0x3c83bda8	0.016081646
179	0xbd910c33	-0.07082405
180	0x3d901191	0.070346005
181	0x3c532a90	0.012888566
182	0xbd816b76	-0.06319325
183	0x3c84846c	0.016176425
184	0xbd43009f	-0.047608014
185	0x3d43386e	0.047661237
186	0xbc217568	-0.009854652
187	0xbd618dc4	-0.05506684
188	0x3da7c26d	0.08191381
189	0xbc164bd0	-0.009173349
190	0xbd64daec	-0.055872843
191	0xbd58dd6b	-0.052945536
192	0xbd99afcd	-0.075042345
193	0x3d0873a6	0.033313416
194	0xbbbb9c20	-0.0057253987
195	0x3d8e623d	0.06952331
196	0xbdad36e2	-0.08457734
197	0x3c54d390	0.012989894
198	0xbc384000	-0.011245728
199	0xbdb45303	-0.08804896
200	0xbc4a5920	-0.012350351
201	0x3d851329	0.06497795
202	0x3c823428	0.01589401
203	0xbcd52de8	-0.026022866
204	0xbbd75020	-0.006570831
205	0x3da877fd	0.08226011
206	0xbce96f84	-0.028495558
207	0xbd329959	-0.043603275
208	0x3d39fbfa	0.04540632
209	0xbd52d2fc	-0.05147074
210	0xbda2d3dc	-0.07950565
211	0xbd5dffda	-0.054199077
212	0xbd8da515	-0.069162525
213	0xbd7ff188	-0.0624862
214	0x3d41e856	0.047340713
215	0xbd59d64c	-0.053182885
216	0x3d2a46ce	0.04157143
217	0x3cc74710	0.024325877
218	0x3d91af39	0.07113499
219	0xbcc582bc	-0.02411019
220	0xbd9d6986	-0.076861426
221	0x3d334482	0.043766506
222	0x3c9f0c1c	0.019414954
223	0xbd967bbc	-0.07347819
224	0x3c119f68	0.008888103
225	0xbcbe6030	-0.023239225
226	0x3c1ef2d8	0.009701453
227	0x3d4ad0be	0.04951548
228	0xbd94a976	-0.072588846
229	0xbd5e1f32	-0.05422897
230	0xbbe51670	-0.0069912
231	0x3c622c28	0.013804473
232	0xbd8d697a	-0.06904884
233	0x3d9c4c61	0.076317556
234	0xbda4d78a	-0.08048923
235	0xbca85e44	-0.020552762
236	0x3d4603fa	0.048343636
237	0x3d6e2876	0.058144055
238	0xbd6778f9	-0.056511853
239	0xba5c1c80	-0.0008396581
240	0xbd78ec32	-0.06077213
241	0x3d657b82	0.05602599
242	0xbd76d0cc	-0.060257718
243	0x3cc6ec14	0.024282493
244	0xbdae390b	-0.08506974
245	0x3da20769	0.079115696
246	0xbcbae3f8	-0.022813782
247	0x3d6ccffe	0.057815544
248	0x3d05960c	0.0326138
249	0x3d9e890d	0.07740984
250	0xbdab14e8	-0.08353597
251	0xbbadbae0	-0.0053018183
252	0xbcf3ac90	-0.02974537
253	0xbca5f558	-0.02025859
254	0x3d171632	0.0368864
255	0xbd4bc26a	-0.049745955

emb_model.convs.2.lin_rel.weight f4 [64, 192]
0	0xbd060812	-0.03272254
1	0x3d1b250e	0.037877135
2	0x3d5f2194	0.054475382
3	0x3cc4bc50	0.024015576
4	0x3d0f7b1a	0.03502951
5	0xbd02bc5d	-0.03191792
6	0xbd815c09	-0.063163824
7	0xbd147461	-0.0362438
8	0x3ae4a380	0.0017443746
9	0x3c9b17dc	0.018932275
10	0xbd10f5b6	-0.03539058
11	0x3d69d90c	0.057091758
12	0x3c4a6d60	0.012355179
13	0xbccbf4d0	-0.02489701
14	0x3d2b340a	0.041797675
15	0xbd8b918d	-0.06814871
16	0x3d6e173c	0.058127627
17	0x3d4725ce	0.048620038
18	0x3d1d845c	0.038456306
19	0xbb80f600	-0.0039355755
20	0x3d769184	0.06019737
21	0x3ba766d0	0.0051086918
22	0x3c06a8e0	0.008218974
23	0x3c06fa08	0.008238323
24	0xbcec6c30	-0.028860182
25	0x3d4edc48	0.050503045
26	0xbceaf020	-0.028678954
27	0x3d375c4a	0.044765748
28	0xbce42fda	-0.027854849
29	0x3c83f958	0.016110107
30	0x3cfc704c	0.030815266
31	0x3c7e4938	0.015520386
32	0xbd8b9b92	-0.06816782
33	0xbd6af52c	-0.05736272
34	0xbd130ce6	-0.035900973
35	0x3d1d8770	0.03845924
36	0xbd1c5dc9	-0.038175378
37	0xbd8af281	-0.06784535
38	0x3c20f828	0.00982479
39	0xbcfdb20a	-0.030968685
40	0x3bc677e0	0.0060567707
41	0xbd6589aa	-0.05603949
42	0x3c1b95d8	0.009496175
43	0x3d6bbe20	0.057554364
44	0xbd0bf4ea	-0.034169115
45	0x3c1c3b48	0.009535618
46	0x3d91aebc	0.07113406
47	0xbd5c929e	-0.053850763
48	0xbc56888c	-0.013094079
49	0x3b4e09c0	0.0031438917
50	0xbbc896a0	-0.0061214715
51	0x3d8c94ce	0.0686432
52	0x3ce2359c	0.027613454
53	0x3ca61458	0.020273373
54	0xbcc8985e	-0.024486717
55	0x3c139598	0.009007834
56	0xbd8e12ec	-0.06937203
57	0xbd5977de	-0.05309283
58	0xbc82ed66	-0.015982341
59	0x3cb8c2a4	0.02255375
60	0xbd4b5bba	-0.049648024
61	0x3ccf7d98	0.025328442
62	0x3d3a0050	0.045410454
63	0x3d764e4c	0.060133263
64	0xbd594db1	-0.053052608
65	0xbd91e373	-0.071234606
66	0x3ade3080	0.001695171
67	0x3c758540	0.014985383
68	0x3b4851c0	0.0030566305
69	0xbb12d4e0	-0.0022404715
70	0x3d88369c	0.06651041
71	0x3ca1e5fc	0.019762985
72	0xbb98bab0	-0.0046609268
73	0xbc19e590	-0.009393111
74	0x3d3f4b5a	0.04670272
75	0x3d2ff6f4	0.042960122
76	0x3d455244	0.048174158
77	0xbd34d59d	-0.04414903
78	0xbcf35cac	-0.029707275
79	0xbd4d9685	-0.050192375
80	0xbd4a3496	-0.049366556
81	0x3d722040	0.059112787
82	0xbd32f63e	-0.043691866
83	0x3ce49698	0.02790384
84	0x3d7b1ba4	0.061305657
85	0x3cff7f94	0.031188764
86	0x3d57f706	0.052725814
87	0xbd8db3be	-0.06919049
88	0x3a1a3880	0.0005883053
89	0x3d1c36ce	0.038138203
90	0xbd7c45d5	-0.061590035
91	0x3c844038	0.016143903
92	0xba2b4f00	-0.0006534904
93	0x3d67b70c	0.05657105
94	0xbc819bfe	-0.015821453
95	0xbd498f2a	-0.049208798
96	0x3d9397c8	0.07206684
97	0x3ccdba44	0.025113232
98	0x3d7f3dac	0.062314674
99	0xbd45da94	-0.048304155
100	0xbc9b5b62	-0.018964473
101	0xbc2a5264	-0.01039562
102	0x3c731e48	0.014838763
103	0xbd5db2ab	-0.05412547
104	0x3ba5a760	0.005055353
105	0xbbd2c4f0	-0.006432168
106	0xbd6e53b2	-0.058185287
107	0xbd44dbe7	-0.048061278
108	0x3cc06dd4	0.02348987
109	0xbd0afa3c	-0.03393005
110	0x3d3fad02	0.046795852
111	0xbd2bf638	-0.04198286
112	0x3d828672	0.063733
113	0x3cc190b0	0.023628563
114	0x3d89fd66	0.06737785
115	0x3d2f4104	0.042786613
116	0x3d824e06	0.06362538
117	0xbc9e14ea	-0.019297082
118	0xb9831600	-0.00025002658
119	0xbc267afc	-0.010161158
120	0x3c9fafa4	0.019492932
121	0x3c9b0838	0.018924817
122	0x3a5f5d80	0.00085207075
123	0xbd1a7c37	-0.037716117
124	0x3d81edc0	0.06344175
125	0xbd920429	-0.071297
126	0xbd1f65d8	-0.038915485
127	0x3d5cad14	0.053875998
128	0x3d8c83d4	0.06861082
129	0xbd202f62	-0.039107688
130	0x3b1046e0	0.00220149
131	0xbd88d3f9	-0.066810556
132	0x3c97cc38	0.018529996
133	0x3d876c58	0.06612462
134	0x3d50e1cc	0.050996587
135	0xbcf3d86e	-0.029766288
136	0x3d615230	0.05501002
137	0xbd66d617	-0.056356516
138	0x3d2bb99a	0.04192505
139	0x3c99e800	0.018787384
140	0x3bf90910	0.0075999573
141	0xbd1a75aa	-0.03770987
142	0x3d64fbec	0.055904314
143	0xbc132740	-0.008981526
144	0x3caedd54	0.021345772
145	0xbc0cfa20	-0.008604556
146	0xbd7ec900	-0.062203407
147	0x3d246210	0.040132582
148	0x3d46c54a	0.048527993
149	0xbcd15f44	-0.025558122
150	0xbd054dbd	-0.03254484
151	0x3c37f448	0.011227675
152	0xbcf70a80	-0.030156374
153	0xbd81cca9	-0.06337864
154	0x3c8caebc	0.017173164
155	0xbd010199	-0.031495664
156	0x3d223444	0.039600626
157	0xbd5dacdc	-0.05411993
158	0xbd82623d	-0.06366394
159	0xbd8b2665	-0.067944326
160	0x3d120c6e	0.035656385
161	0xbccabdee	-0.024748769
162	0xbcf25646	-0.029582154
163	0xbc439a50	-0.011938646
164	0x3ce56930	0.028004259
165	0x3cc6e410	0.02427867
166	0xbb961310	-0.004579909
167	0xbc42ab48	-0.011881657
168	0xbd53fa68	-0.051752478
169	0xbd86c90e	-0.06581317
170	0xbb56a500	-0.0032752156
171	0xbb7083a0	-0.0036699548
172	0x3d0f77ec	0.035026476
173	0x3d8edf42	0.06976177
174	0x3c242240	0.010017931
175	0x3c2511d0	0.010075048
176	0x3d1064f0	0.03525251
177	0xbd8e3640	-0.06943941
178	0x3cafc5f8	0.021456704
179	0xbc261e1c	-0.010139015
180	0xbc029e80	-0.00797236
181	0xbc246ed4	-0.010036189
182	0x3c8b6094	0.017013825
183	0xbd8ce4b6	-0.06879561
184	0x3b722ec0	0.0036954135
185	0x3d0f5b6a	0.03499929
186	0x3d1929dc	0.037393436
187	0xbc86f03c	-0.016471975
188	0xbd772b58	-0.06034407
189	0x3d8e4174	0.06946078
190	0xbd4ea216	-0.050447546
191	0xbce6dbb4	-0.028180934
192	0xbd2fc41e	-0.04291164
193	0xbd84eab7	-0.06490081
194	0xbce4ac2e	-0.027914133
195	0xbba66450	-0.005077876
196	0xbd343458	-0.04399523
197	0x3d624624	0.055242673
198	0x3d1c7540	0.038197756
199	0x3c4c5918	0.0124724135
200	0xbaa8e3c0	-0.0012885258
201	0xbcb4e1b2	-0.022080276
202	0xba66e700	-0.00088082254
203	0xbd44e148	-0.048066407
204	0x3d0b94a4	0.0340773
205	0xbd662a0a	-0.056192435
206	0x3d82c694	0.06385532
207	0xbd91eeec	-0.07125649
208	0x3d207ad2	0.03917963
209	0x3d579ed6	0.052641712
210	0xbd2a4d22	-0.041577466
211	0xbc9a40e6	-0.018829774
212	0x3d10f4c8	0.03538969
213	0x3d487a1c	0.048944578
214	0x3d5660ac	0.052338287
215	0x3d3ddd2e	0.04635351
216	0x3c051d28	0.008124627
217	0x3d247298	0.040148348
218	0x3cc7f81c	0.0244103
219	0x3c23be60	0.009994119
220	0x3d0a3986	0.033746265
221	0x3d884150	0.06653082
222	0x3d245016	0.04011544
223	0x3cc23630	0.02370748
224	0x3d811f08	0.06304747
225	0x3d2526c6	0.04032018
226	0xbd57718e	-0.05259853
227	0xbd721847	-0.059105184
228	0xbb9e89a0	-0.0048381835
229	0x3d432538	0.047642916
230	0x3c322880	0.010873914
231	0x3c8d7a7c	0.01727032
232	0x3d825b8e	0.06365119
233	0x3b8455e0	0.0040385574
234	0x3d75fab0	0.060053527
235	0xbd326efc	-0.043562874
236	0x3d0f39a6	0.034967087
237	0xbd4adf56	-0.049529396
238	0xbc0c6910	-0.008569971
239	0xbd6f1b48	-0.058375627
240	0xbd937a6d	-0.07201085
241	0xbd1739a5	-0.03692021
242	0xbd4b6d5d	-0.049664844
243	0xba766c00	-0.00094002485
244	0x3a5e8280	0.0008488074
245	0xbb17af00	-0.002314508
246	0xbc1f77b8	-0.009733133
247	0xbcf484ba	-0.029848445
248	0x3c020dd0	0.0079378635
249	0x3d3c5192	0.04597623
250	0xbcc3b114	-0.023888148
251	0xbbed03b0	-0.0072331056
252	0xbd3fa284	-0.046785846
253	0x3abbdac0	0.001433216
254	0xbd10c6dd	-0.0353459
255	0xbd1f689f	-0.038918134

emb_model.convs.2.lin_rel.bias f4 [64]
0	0xbc97e5c4	-0.018542178
1	0xbd69758f	-0.05699688
2	0x3d0f1446	0.034931444
3	0xbd0b391a	-0.033990003
4	0x3cde12d4	0.027108587
5	0xbd3d2842	-0.04618097
6	0xbd1dcfea	-0.03852836
7	0xbd568a69	-0.052378092
8	0x3b50d380	0.0031864345
9	0x3c51ecc0	0.012812793
10	0x3d69a4e4	0.057042018
11	0xbd51e4f6	-0.051243745
12	0xbd326782	-0.043555744
13	0xba8b4280	-0.0010624677
14	0xbd7a866e	-0.06116336
15	0x3cbc605c	0.022995166
16	0x3ca25b14	0.01981882
17	0xbc4b79a8	-0.012419142
18	0x3af54ac0	0.0018714294
19	0x3d73f54c	0.059560105
20	0xbcdaef7c	-0.026725523
21	0x3d88936a	0.06668742
22	0x3d5d2a00	0.053995132
23	0x3d170d56	0.036877953
24	0x3b5519e0	0.0032516643
25	0x3c4c7ed8	0.012481414
26	0x3d641dd0	0.055692494
27	0x3c99aeec	0.018760167
28	0x3d9131c4	0.0708957
29	0xbd8cae58	-0.06869191
30	0xbd87c4b0	-0.06629312
31	0x3d55b03c	0.052170023
32	0x3d636250	0.05551368
33	0x3d79a6e8	0.06095019
34	0xbd8f5313	-0.06998267
35	0x3d142186	0.036164783
36	0x3d8d86a8	0.06910449
37	0xbc3ce44c	-0.01152904
38	0xbd534972	-0.051583715
39	0xbc63a4fc	-0.013894316
40	0x3d32a2ce	0.043612294
41	0x3bcf4a10	0.0063259676
42	0x3d0edec4	0.034880415
43	0x3ceb9b08	0.028760448
44	0xbd87adbc	-0.06624934
45	0x3d839252	0.06424393
46	0xbd65f68a	-0.05614332
47	0xbd8d9312	-0.06912817
48	0x3d852d72	0.06502809
49	0x3cc80310	0.024415523
50	0x3ccfd3e4	0.025369592
51	0xbcf112ca	-0.029427905
52	0xbd32bd21	-0.0436374
53	0x3c282e08	0.010264881
54	0x3b8c9810	0.004290588
55	0xbd635238	-0.05549833
56	0x3b978800	0.0046243668
57	0x3d7b6e6c	0.061384603
58	0xbd50a66d	-0.050939966
59	0x3d32f7c6	0.043693326
60	0xbca7b076	-0.020469885
61	0x3c41fe18	0.011840366
62	0xbd5f6612	-0.0545407
63	0xbd061399	-0.032733534

emb_model.convs.2.lin_root.weight f4 [64, 192]
0	0x3d2b91b2	0.041886993
1	0xbcae6f36	-0.021293264
2	0x3cf9a3f8	0.030473694
3	0xbd4568b0	-0.04819554
4	0x3d69d334	0.057086185
5	0xb90f0c00	-0.00013642013
6	0x3cd12244	0.025529034
7	0xbcfafaae	-0.030637112
8	0xbadc0980	-0.0016787499
9	0xbd00143f	-0.03126931
10	0xbd88c765	-0.066786565
11	0x3d580000	0.052734375
12	0x3c876064	0.016525455
13	0xbceed33a	-0.029153455
14	0x3d218ece	0.03944283
15	0x3cc30b20	0.023809016
16	0x3d59d45c	0.053181037
17	0x3d516b40	0.051127672
18	0xbd095a97	-0.03353366
19	0x3cefc0f4	0.029266812
20	0x3d01f7b6	0.031730376
21	0x3d2c0196	0.0419937
22	0x3ba0e3d0	0.00490997
23	0x3cd2f5c8	0.025751963
24	0x3d863a4a	0.065540865
25	0x3d08f79c	0.033439264
26	0xbd7f3be0	-0.06231296
27	0x3d4a2018	0.049347013
28	0xbd3bd366	-0.045855902
29	0x3ce73580	0.028223753
30	0xbd679468	-0.056538016
31	0x3d753b8c	0.05987124
32	0xbcc88818	-0.024478957
33	0x3d787740	0.0606606
34	0x3c386eb0	0.011256859
35	0xbc968840	-0.018375516
36	0xbc850d36	-0.016241651
37	0xbd3f198a	-0.046655215
38	0xbd548138	-0.051881045
39	0x3d8cfde0	0.0688436
40	0x3ce873a8	0.028375462
41	0xbd6a36cf	-0.057181176
42	0x3d0e51ca	0.03474597
43	0x3d83c7ae	0.0643457
44	0xbd8b02a8	-0.06787616
45	0xbd120a4c	-0.03565435
46	0x3c114e00	0.008868694
47	0x3d46b138	0.048508853
48	0x3c381d50	0.011237457
49	0x3bc732a0	0.006079033
50	0x3d8f10d0	0.069856286
51	0xbb60cfa0	-0.0034303442
52	0xbc479620	-0.012181789
53	0x3c1f3c40	0.009718955
54	0xbd4c6b76	-0.04990717
55	0xbac92880	-0.0015347153
56	0x3d68ece4	0.05686654
57	0xbc662a58	-0.0140481815
58	0xbd8717e3	-0.06596353
59	0xbd2d671c	-0.04233466
60	0x3cb6a780	0.022296667
61	0x3d7a9558	0.06117758
62	0xbc34e258	-0.011040293
63	0xbc055080	-0.0081368685
64	0xbcaef6ac	-0.021357857
65	0x3c89b2f0	0.016808957
66	0xbd251a8f	-0.04030853
67	0xbd843b0c	-0.06456575
68	0x3cebc958	0.028782532
69	0x3d1def56	0.038558327
70	0x3cd15cd0	0.025556952
71	0xbd2c0410	-0.04199606
72	0xbc90c9de	-0.017674383
73	0x3cb9e920	0.02269417
74	0x3d3eb530	0.046559513
75	0x3c87bea8	0.016570404
76	0xbca72cfe	-0.020407196
77	0x3cb75a98	0.022382066
78	0xbcf7022a	-0.0301524
79	0x3c451070	0.012027845
80	0xbd88f037	-0.06686442
81	0x3b53b120	0.003230162
82	0x3cbc8914	0.023014583
83	0xbc35fba0	-0.011107355
84	0x3d87d47a	0.066323236
85	0x3ce6e394	0.02818469
86	0xbd83b252	-0.06430496
87	0xbd655377	-0.0559878
88	0xbcc80128	-0.024414614
89	0x3cfe3b64	0.031034179
90	0xbd24e8ca	-0.040261067
91	0xbca17158	-0.019707367
92	0x3d40bcf8	0.047055215
93	0xbbef2d00	-0.0072990656
94	0x3d44adfa	0.04801748
95	0xbd5c4d00	-0.05378437
96	0xbcbee0a8	-0.023300484
97	0xb9f7a500	-0.00047234446
98	0xbd18fac2	-0.037348516
99	0x3c250200	0.010071278
100	0xbd4f1d04	-0.05056478
101	0xbd2f5a26	-0.04281058
102	0xbd0dbb8d	-0.03460269
103	0x3cb1f11c	0.021721415
104	0x3d754d44	0.05988814
105	0xbcddc0e2	-0.027069513
106	0xbcdcc1ca	-0.026947875
107	0xbca226a2	-0.019793812
108	0xba675000	-0.00088238716
109	0xbaf48440	-0.0018655136
110	0x3c66e288	0.014092095
111	0x3d370124	0.044678822
112	0xbc1322e8	-0.00898049
113	0x3d79259c	0.060826883
114	0x3d0b36a2	0.03398765
115	0xbd38840a	-0.045047797
116	0x3d5f5e38	0.054533213
117	0x3ba809f0	0.005128138
118	0xbd516fc9	-0.051131997
119	0xbce133fa	-0.027490605
120	0xbd578c45	-0.052624006
121	0xbd4ab2a5	-0.049486775
122	0x3ca8e1cc	0.02061548
123	0xbd6de6ce	-0.05808144
124	0x3b978960	0.0046245307
125	0x3b804b40	0.0039152205
126	0xbd68361f	-0.05669224
127	0xbba108c0	-0.004914373
128	0xbd2a998e	-0.041650347
129	0xbc14ae30	-0.009074733
130	0x3d52374a	0.05132226
131	0xbd7fce6a	-0.06245271
132	0xbd23f9e9	-0.040033255
133	0xbae879c0	-0.001773648
134	0xbcd97f6c	-0.026550017
135	0xbc7523e0	-0.014962167
136	0x3d359adc	0.04433714
137	0x3d830910	0.06398213
138	0xbd12d9b6	-0.035852157
139	0x3bf1d1b0	0.007379733
140	0x3d3f8eda	0.046767093
141	0xbcf61912	-0.030041251
142	0xbcc409b0	-0.0239304
143	0xbbcdc9f0	-0.0062801763
144	0x3d40aa9c	0.047037706
145	0xbc0b9d10	-0.008521333
146	0xbc589170	-0.013218269
147	0x3cb938e8	0.022610143
148	0xbd05ca97	-0.032663908
149	0x3d9132e4	0.07089785
150	0xbcdbbad2	-0.026822481
151	0x3b0831a0	0.0020781532
152	0x3d4eac78	0.050457448
153	0xbd87374e	-0.066023454
154	0x3a2f6300	0.00066904724
155	0xbd7b78db	-0.061394554
156	0x3b492d80	0.0030697286
157	0x3c9a3c18	0.018827483
158	0x3d828118	0.06372279
159	0x3d867574	0.06565371
160	0x3d8a80a4	0.067628175
161	0x3c285a78	0.010275476
162	0xbd6dd65e	-0.058065765
163	0x37bdc000	2.2619963e-05
164	0xbd292f1c	-0.041304693
165	0x3d1f11b6	0.03883525
166	0xbc9795d2	-0.018504057
167	0x3cb77f30	0.022399515
168	0xbd1c48fc	-0.03815554
169	0x3d61ca58	0.05512461
170	0xbd8237f7	-0.06358331
171	0xbd907634	-0.070537955
172	0x3d3d6094	0.046234682
173	0xbca79e8c	-0.020461343
174	0x3cd296bc	0.025706641
175	0xbd75b6b8	-0.059988707
176	0xbc979e04	-0.018507965
177	0xbd89ac53	-0.06722321
178	0xbcc18ee4	-0.023627706
179	0x3bb5bb20	0.0055459887
180	0xbca29c82	-0.01985002
181	0x3caeb664	0.021327205
182	0xbc7ac71c	-0.01530626
183	0x3d3e30f8	0.04643342
184	0x3ca960c4	0.020676024
185	0x3c61e980	0.013788581
186	0xbcaec484	-0.02133394
187	0xbd2e0ec0	-0.042494535
188	0xbd243340	-0.04008794
189	0x3d8e607c	0.06951997
190	0x3d5baef0	0.05363363
191	0x3d896bf0	0.067100406
192	0xbd5e5193	-0.054277014
193	0x3d408488	0.04700139
194	0xbd5f9dbe	-0.054593794
195	0xbba87890	-0.0051413253
196	0x3d8d96cc	0.06913528
197	0xbd64e3af	-0.0558812
198	0xbcac4362	-0.021028224
199	0x3d4bfe3c	0.049803004
200	0xbd3b01db	-0.045656066
201	0xbd62aa48	-0.055338174
202	0x3d8e141e	0.06937431
203	0xbd734f84	-0.059402004
204	0xbd0738c9	-0.03301314
205	0x3d86df96	0.065856144
206	0xbc458fb4	-0.012058187
207	0x3cc38164	0.02386541
208	0x3d4495ee	0.047994547
209	0xbd8021a6	-0.06256418
210	0xbcc39ccc	-0.023878478
211	0x3ba5e9d0	0.005063273
212	0x3d269220	0.0406667
213	0xbd8af3fe	-0.06784819
214	0xbc97c570	-0.018526763
215	0xbb7af180	-0.0038290918
216	0xbbb321f0	-0.005466692
217	0xbd2bbd40	-0.04192853
218	0xbd468b5b	-0.048472743
219	0x3c139970	0.00900875
220	0xbc6b3d90	-0.014357939
221	0x3d362386	0.04446747
222	0x3bb2a340	0.00545159
223	0x3c1a66b8	0.009423904
224	0x3d6de310	0.05807787
225	0x3bdf3660	0.006811902
226	0xbd27f781	-0.041007522
227	0xbd2f56f0	-0.04280752
228	0xbd8d3b6a	-0.06896098
229	0xbd583b55	-0.05279096
230	0xbd551170	-0.052018583
231	0x3a8cb1c0	0.0010734126
232	0xbd16c227	-0.03680625
233	0xbbb1b0f0	-0.005422704
234	0x3d1ee2d8	0.038790554
235	0xbd65a342	-0.056063898
236	0xbd72427a	-0.05914543
237	0xbd84a445	-0.064766444
238	0x3d39b1f4	0.045335725
239	0x3d2a85ae	0.041631393
240	0xbce8ac24	-0.028402396
241	0xbc341134	-0.01099043
242	0xbd828918	-0.06373805
243	0x3d8f779e	0.07005237
244	0xbd181f01	-0.037138943
245	0xba514100	-0.0007982403
246	0x3a506500	0.00079496205
247	0xbc0b5b18	-0.008505605
248	0x3d3d6e7e	0.04624795
249	0xbd38658a	-0.04501871
250	0x3d5c7658	0.0538238
251	0x3c9f5f74	0.019454695
252	0x3d8c6bb0	0.06856477
253	0x3d765a24	0.06014456
254	0x3d80dd30	0.06292188
255	0x3aead500	0.0017916262
